model/naca_fno_r8_cpu.pth (torch, 988507 bytes, 35 tensors)

fno_blocks.convs.0.bias f4 [32, 1, 1]
00000000: fba2 543e 53a7 aebd 8967 e7bd 81e9 77bd
00000010: 5455 1ebe 73f4 0bbe e0d5 14be 9801 53be
00000020: f4a0 2bbe 99f2 d93d 0a40 99be 94dc ff3c
00000030: 45b3 043a ecb1 10be 09af b3bd 0c71 f03d
00000040: 32b6 3cbe 566d 403e 167d efbd 1d95 f3bd
00000050: 91a2 11bc d784 883e cc1a 1abe ff08 373b
00000060: d0ca 543d 4560 92bd 0513 223e 51f8 fa3d
00000070: f49d c53d e9b6 683e e4b7 8b3c 3ec1 abbd
0.20765297 -0.08528008 -0.11299045 -0.06052542 -0.15462238 -0.13667469 -0.14534712 -0.20606077
-0.16760617 0.10641975 -0.2993167 0.03123311 0.00050621136 -0.14130372 -0.0877362 0.11740312
-0.18428877 0.18791708 -0.1169378 -0.118936755 -0.0088888565 0.2666385 -0.15049285 0.0027928946
0.05195123 -0.07147268 0.15827568 0.12254394 0.09649268 0.22726025 0.01705546 -0.083864674

fno_blocks.convs.1.bias f4 [32, 1, 1]
00000000: e25a 31be c7ce 283e 2069 4a3e f23d 6bbd
00000010: 466d f63d 8f8f a63e a07a 70be 57b3 943e
00000020: 7ba2 63be 6078 203e 15d0 6a3d 27d0 bebd
00000030: ca20 acbd c260 103e dbbc 04bd 5daf 21bd
00000040: 5afa 0ebe ba44 9a3d ebc3 09be 9a0d 223e
00000050: e621 fcbd e7ca 16bf ee3f 8a3d b6f2 0b3e
00000060: ec7a f83e 8fe2 48bd 4faf e33d d850 9c3e
00000070: d648 9f3c 9b01 ab3e ca08 fdbd cd66 b63b
-0.17319825 0.1648513 0.19766665 -0.057432123 0.12032561 0.32531402 -0.23484278 0.29043075
-0.2222995 0.1567092 0.05732735 -0.09317046 -0.084046915 0.1409941 -0.03240667 -0.03947388
-0.13962689 0.0753264 -0.13453643 0.15825501 -0.12311153 -0.58903354 0.06750475 0.13666806
0.48531282 -0.049044188 0.11117422 0.3053043 0.01944391 0.33399662 -0.12355192 0.005566454

fno_blocks.convs.2.bias f4 [32, 1, 1]
00000000: 1f38 1e3e 3320 18be 0f2f b33c 63f8 4c3e
00000010: c5b6 a0bd 8fb8 e2bd e8c1 1e3e 288f 333d
00000020: 4cc7 b5bd 1f2c 103d e0fe 433e e5cd 2f3c
00000030: 2e84 febd 2001 423d fdb5 173e f43e 9c3d
00000040: 86ed d93c 93bd acbd 762d 03be 9598 1cbe
00000050: 45db 4fbc dab7 74be 3f90 4abe aa4f 093e
00000060: 8a9b ec3d 6a26 f23d c026 75bd 4f39 b13d
00000070: ab9c a13d 9ddd c23e 1c4a 67bd 190f c2be
0.15451096 -0.14856033 0.021873025 0.20016627 -0.078473605 -0.11070358 0.15503657 0.043837696
-0.088759035 0.035198327 0.19140196 0.010730241 -0.12427555 0.047364354 0.14815517 0.07629195
0.026602518 -0.08434596 -0.1281031 -0.1529258 -0.012686555 -0.23898259 -0.19781588 0.13409296
0.11553104 0.11823733 -0.059851408 0.08653509 0.0789121 0.38059703 -0.05646716 -0.37902144

fno_blocks.convs.3.bias f4 [32, 1, 1]
00000000: 4a5b c5bc 8696 6abe da39 3a3e 0055 dcbd
00000010: 79f2 613e 3711 bf3e 3062 3d3d 011f 653e
00000020: fe2c 0a3d 635b f03d 1f45 863d 7601 363b
00000030: 6479 ac3c cbc0 a23b 61e1 28bd f0b1 7a3d
00000040: e865 7bbd e514 ba3d a02e b63d c12c 07be
00000050: 9be2 9f3e 3cf0 14bc 4ec7 7abe fedc 173e
00000060: 3738 243e 7ddf 85bd f575 8fbe 2300 843e
00000070: aa58 cdbd 1883 52bd 297b 0fbf 186b 603e
-0.024091382 -0.22908983 0.18186131 -0.107584 0.22065152 0.3731782 0.046236217 0.22375108
0.033734314 0.11736181 0.065561526 0.0027771867 0.021053977 0.0049668304 -0.041230563 0.06120485
-0.061376482 0.090860166 0.08895612 -0.13200666 0.31227574 -0.009090479 -0.24490091 0.14830396
0.1603707 -0.06536768 -0.28019682 0.25781354 -0.10026677 -0.051394552 -0.560473 0.21915853

fno_blocks.fno_skips.0.conv.weight f4 [32, 32, 1]
00000000: 8531 453d 547a 3a3e ef00 cb3d 94b0 4c3d
00000010: f150 343e da15 053e 303e 5dbe a45a 8dbe
00000020: bf70 5cbd cc68 ddbd d7c0 26be a7ef 8c3e
00000030: b2fa 1a3e 4b07 f2bd ebab 933d 2cf3 333e
00000040: af86 89bc 24b8 28bd f110 5bbe f292 a33e
00000050: 50c5 643d f38c 2c3c 4900 c83b 93dc 87be
00000060: e944 b5be f26b 9c3e 236f 363d 5c03 13be
00000070: f0ea 033d d768 483e 1e2e 5fbe 2a57 37be
00000080: 7a38 c83d a54c 35be 96ff 8f3e d8de 83be
00000090: 95a4 c5be cb8e b6bd de5b 213d 755c 0d3e
000000a0: d67b 0c3e 73cb 6dbe cebf d4bd ec62 5bbe
000000b0: 4f24 a63c a08d 113e 73cb a43d fc82 51be
000000c0: b062 49bd 44f0 e0bd 47b8 6b3e 9323 82be
000000d0: 78f7 313e 86db c23d 674c 013e 7410 cfbd
000000e0: 2370 b53e 87c8 b3be bf91 8ebd cd8a 943e
000000f0: 7ac1 7b3d cf49 3cbe de05 013e 7458 653e
00000100: f90d 333d 9944 b13c 72d9 c1bd 8c5d 5b3e
00000110: a91e 813e c90b 653d 2223 d73c 72ea 1fbc
00000120: 0afa 313e b2e9 c6bd 8f14 5c3d 89c6 7cbd
00000130: 0c12 3bbd 20a0 83be e7be af3d 0772 adbb
00000140: cb48 43bd 7379 c13b d17c 0cbe 2094 c13d
00000150: a8a0 c33d c8e4 dabd 78c3 37be fcf8 d33d
00000160: 516c 36bd 90ba 0e3e ab2a 92bd 1172 39be
00000170: a26f e1bd 7566 813e 908f 2dbe 686a 67bd
00000180: dc01 21be cc96 83be 37c6 f83c 740e 183d
00000190: d731 8bbc ee7b 9abd a407 a2bd 5182 de3a
000001a0: 4e8b 3dbe 2c23 30bd 2313 5ebc d135 c1bd
000001b0: 7fd7 cbbd 28d9 3b3e f71d 00be f324 c3bc
000001c0: 180e 44be 9b24 113e 35f3 3d3d 310a afbd
000001d0: 8a4d 8a3e 157f 5ebc ed2d 92bd 8639 193e
000001e0: 6a21 743e 6edf 1fbe 0945 183c 17bb 6a3e
000001f0: 6c2a f7bc 6704 4cbe cafd 503d 9e3f 4f3e
00000200: cb31 4cbd 572d bb3d 5ff4 58bd 358e 423e
00000210: 413d bf3d 415e ed3d a53b 7cbd e36a 91be
00000220: 63d1 5e3e a386 a8bd f7d5 30be 2a28 b6bc
00000230: 22df 6d3e 8fa0 78be 35c2 3cbe e49a 0e3e
00000240: a0b2 41bd c5c3 013e 7c1c 94be dd77 3e3e
00000250: 5a91 6dbe cd05 833d 796f 0f3e dba2 0bbe
00000260: 563a 8fbe 3a9f 023e 14c2 0a3d 7023 b5be
00000270: c556 733e 2cab e13d f81a 97bd 5670 4dbd
00000280: d75b f1bd 0570 05be 1c81 ebbd bde2 e6bc
00000290: 583d 80be 476e 6ebe 5029 09bd 23f1 e03d
000002a0: 5444 013e 5975 e73d cc98 143e ec3b 15be
000002b0: 5ff5 6e3d 4d83 aa3d 8788 73bc b906 20be
000002c0: 111e 853d dbdc 853d cadb 4abc cc3a 04be
000002d0: 1f16 bebd 7ea0 083e 7906 90bd 27db 98bd
000002e0: bc23 3f3e 8fa2 0fbe d200 d9bd 55d0 813d
000002f0: dae5 d6bd 2f9b 76be b39f dc3d b022 07bd
00000300: bc72 933e 7837 8a3e ca1a 25be 0a70 933d
00000310: 94bc 773e a009 033f 514a 4cbd 7022 69be
00000320: 74c6 7dbd cfa1 d2bc 2af5 0fbd 24b3 f83d
00000330: ae7f 16bd e784 37be 0525 fb3d 7db3 9d3e
00000340: 55f7 8bbc fdcd 233e 5147 3bbe 9d7a 473e
00000350: 5ad9 56be 84b6 57bc ff96 5abe cbc7 48be
00000360: a5ef 81be a986 e93e 43ef 463e a254 53bc
00000370: 1ba7 f33d 0cd6 3e3e efc1 50be 43b1 893d
00000380: 7971 003e 197c fc3e cd73 f1bd 4255 263d
00000390: 0393 e23e acec 473d 2f64 a03c 0edc afbe
000003a0: 859d f3bd f240 243e 3240 0abe 6462 e53d
000003b0: b861 673e 28c4 a4be 953f 72bc 295b 223f
000003c0: cb40 1b3e cc0c d9bd 4337 bbbd f71f a63e
000003d0: 658c 39be 775a 833d fa42 8abd 7b1a 4fbe
000003e0: 3e76 77be 3230 a03e 76c0 a43d cf11 b8be
000003f0: c87f 9c3e 3ed6 c23e c683 6fbe d1a4 26be
0.04814293 0.18210727 0.099122874 0.049973086 0.17609002 0.12996617 -0.21605754 -0.27608216
-0.05381846 -0.10811004 -0.162845 0.2752659 0.15134695 -0.11817797 0.07210525 0.17573231
-0.016787855 -0.041191235 -0.21393181 0.31948048 0.055852234 0.010531652 0.0061035496 -0.26535472
-0.35404137 0.30551106 0.044539582 -0.1435675 0.032206476 0.19571243 -0.21794936 -0.17904344
0.09776397 -0.17705019 0.28124684 -0.25755954 -0.3860213 -0.08913954 0.039394252 0.13804801
0.13719115 -0.23222141 -0.10388146 -0.21424454 0.020280985 0.14214182 0.08046617 -0.20460123
-0.04916638 -0.10983327 0.23019515 -0.25417766 0.17379558 0.09514527 0.12626801 -0.1011056
0.35437116 -0.35113928 -0.069613926 0.29012147 0.06146381 -0.1838753 0.12599894 0.22397023
0.043714497 0.021639155 -0.094653025 0.21422404 0.25218704 0.055919442 0.02626187 -0.009760486
0.17380539 -0.097125426 0.053730544 -0.061712775 -0.045671508 -0.25708103 0.085813336 -0.005293134
-0.047676843 0.0059043705 -0.13719489 0.09452081 0.09552127 -0.10688168 -0.17945659 0.103502244
-0.044536892 0.13938355 -0.071370445 -0.18109919 -0.110076204 0.2527348 -0.16949296 -0.05649796
-0.15723366 -0.25700986 0.030367954 0.03712316 -0.016991539 -0.07543169 -0.079116136 0.0016976093
-0.18510172 -0.043002293 -0.013554367 -0.09434093 -0.09953212 0.18344557 -0.1251143 -0.02382133
-0.19146001 0.1417412 0.04637452 -0.08546866 0.27012283 -0.013580103 -0.07137666 0.1496335
0.23840871 -0.15612575 0.009293803 0.22922932 -0.030171596 -0.19923554 0.051023282 0.20239112
-0.049852174 0.09139507 -0.052967425 0.1899956 0.09337855 0.11590243 -0.06158032 -0.2840186
0.21759562 -0.08228805 -0.17269121 -0.022235949 0.2322965 -0.24279998 -0.18433459 0.13926274
-0.04728949 0.12672336 -0.28927982 0.18600412 -0.23199978 0.06397591 0.14007367 -0.13636343
-0.27974194 0.12756053 0.033876494 -0.353786 0.23763569 0.110189766 -0.07378191 -0.05015596
-0.11785095 -0.13031013 -0.11499235 -0.02818429 -0.25046802 -0.23284255 -0.033486664 0.10983493
0.12623721 0.11301679 0.14511412 -0.1457364 0.058339473 0.08325825 -0.014864094 -0.15627564
0.06499875 0.065362655 -0.012381503 -0.12913054 -0.09281563 0.13342473 -0.070324846 -0.07463675
0.18665975 -0.14026855 -0.105958596 0.06338564 -0.104930595 -0.24082635 0.10772648 -0.032992065
0.28798473 0.26995444 -0.161235 0.07199104 0.2419303 0.5118656 -0.04987556 -0.22767043
-0.061956838 -0.025711922 -0.035145916 0.12143543 -0.03674286 -0.17921792 0.1226292 0.30801
-0.01708571 0.15996547 -0.18288924 0.19480367 -0.2098135 -0.013166074 -0.21346663 -0.19607465
-0.25378147 0.4561055 0.19427209 -0.012898596 0.11897107 0.1863634 -0.2038648 0.06723263
0.12543286 0.4931343 -0.11789665 0.040608652 0.44252786 0.048809692 0.019579021 -0.34347576
-0.11895279 0.160404 -0.13501051 0.11200407 0.2259587 -0.32180905 -0.014785667 0.6342035
0.15161435 -0.10598144 -0.091414 0.32446262 -0.18119963 0.06413739 -0.06751056 -0.20224945
-0.241662 0.3128677 0.080445215 -0.35951087 0.3056624 0.3805408 -0.23390111 -0.1627381

fno_blocks.fno_skips.1.conv.weight f4 [32, 32, 1]
00000000: fb6d 3fbe 00f5 32be fb9a bc3d 7184 9b3d
00000010: a802 a1bb 7915 5ebe cdf3 043b 5d27 c4bd
00000020: 824c ec3d e091 d5bc 590b 263c a1a8 9fbd
00000030: 0693 1ebe f0e8 203e f2b6 483d 69f8 4d3c
00000040: 8525 79be 5b85 7e3d 8559 54be 0b76 0cbe
00000050: 1fa4 e63d cf0d d63c a77e f53d 5323 143c
00000060: 433c 143e 8d5a a7be cd2b 15be af64 03bd
00000070: 7886 b0bd c141 83be 886d 493a 310f 283e
00000080: 70ab 153d 0e33 ca3d 74c7 8fbe 3681 813d
00000090: 6209 723e c950 d43d c254 0b3e b6f9 20bd
000000a0: e832 27bc dcf4 b83d 1e32 23bd 7e91 e5bc
000000b0: 71b5 2fbd eb28 01be da4f 5cbe da0e 6a3e
000000c0: 6559 bfbc 4add 3bbe 40b6 f4bd 0c46 283e
000000d0: 5e67 413e 4f54 ccbd d8e6 7dbd b1e7 993d
000000e0: dab2 61be 88fb 7e3e 2f1a 85bd d6b3 30be
000000f0: b6e8 363e 65ab 77bc 4798 38be 9cda c63d
00000100: e8d5 b1be 7cab c5be c34f 59bd 9ed4 04be
00000110: e897 31bd 1592 c5be 71a8 be3d 694c 1c3e
00000120: 8f6f 5abe a3a4 17be 231d 183e 83f3 42be
00000130: 32fb 12be 8492 6d3e 20c6 203d d64f 2dbe
00000140: debd b4bd 09ab 873d af61 963d ee62 32bd
00000150: 02cc 7f3e 3eeb 68be 3d31 353d 9fdf 14bc
00000160: 9231 0c3e 4cb1 8bbe a3c4 86bd e8f4 6f3e
00000170: da3c 65be 8710 c6be edfb 4cbd 06f7 4b3d
00000180: 7d49 853e 50d8 243e 5ee5 27bc 8663 80bd
00000190: cb63 2b3e 08f9 2e3e aba4 d9bd ca3c f7bb
000001a0: 136e 65bd fb63 1dbe bdec 2b3d 7e1e 9b3c
000001b0: 199e e5bd ee1e f5bd 0600 55be 5997 7f3d
000001c0: bfc3 1a3d a6f8 83be 22a6 c8bd 19bb 383e
000001d0: 267e 793d 96a0 db3c 420d 4cbe 2055 e53d
000001e0: 3008 f4bd 2706 713e fe7c 10bd 3949 35be
000001f0: 1969 433e eeae 133e d67a f03d 980b b8bd
00000200: e3e0 853e a460 d83b 3d56 d53d 61f4 23be
00000210: 9ece ef3d 88ee 29bd 52ca ba3d 6334 bebd
00000220: b7bc 523d b041 f6ba 2df5 c7bd ebfc 033e
00000230: a54e c23d 0570 70bc ae01 acbb e0a3 113e
00000240: aa28 513e 73a0 f43c ce1e af3d c9de 213d
00000250: a8c2 a93d 6e88 56bd 673e 683d 1630 d0bd
00000260: 5cac 953d e4cb 7abc f76f e73d 69a0 a7bc
00000270: 1029 4ebd 520a e43c eca3 c83c 814c 22be
00000280: 4241 99be 6761 c4bd bb0a 8abd c797 d3bd
00000290: 9fa7 a8be e5b7 dbbe 2779 2d3e b8b1 a53e
000002a0: 03f7 853d 3346 f33d ee2e f5bd 5e87 92be
000002b0: c98e 13bd 7908 9f3b a113 a43d 6c7e 96be
000002c0: 9ba0 69be e09f 7c3d 4433 7cbd 6435 d8bd
000002d0: 4c64 173e 1101 15be 1c39 2a3e b1f8 bcbd
000002e0: 757d 103e 8248 bbbe b06e 30bc 7396 333e
000002f0: 12b3 88be b617 e4be efe5 e13d 90b6 293e
00000300: 8da8 f7bd a03d 243e 2ba0 6fbe e107 03bd
00000310: 78e6 223c 3f0d 3b3d e3f3 50bb de12 8f3d
00000320: 147b 28be dc96 e3bd 02d2 613d fafe 2239
00000330: 2734 283e 6c0c ccbd 61e8 04be e003 d4ba
00000340: 1d24 81bd 6b5e 72bd ade3 d8bd cd50 003e
00000350: 7be8 17be 68c6 ae3d 2729 973d dc5e 9c3c
00000360: 8023 07be 0611 6c3e a45a ba3d dc6a 88be
00000370: 235f 173e 6934 d83d 0118 82be a9ad ecbd
00000380: bb52 f4bd 720b 513e 4411 dcbd 8e01 a53d
00000390: 3dc7 893d 52b3 143e dc62 b8bd 03c9 023e
000003a0: 20e9 d3bd ffb3 ea3d 21ce 183c 2b6a f53c
000003b0: ef11 9fbd 5527 e03d 0844 bb3c 42bf 86bd
000003c0: 9269 8fbd ca57 a13c f48d 49be 5698 323e
000003d0: dcba 3e3d 1227 a03d 717d 353e a5fb 08bb
000003e0: f79f 38bd cd13 15bd 8c31 0dbe 39c1 abbd
000003f0: b65a 31be 6198 34be 7697 f8bd fbd5 933d
-0.18694298 -0.17476273 0.09209248 0.075936206 -0.0049136467 -0.21687879 0.0020286918 -0.095778205
0.1153803 -0.026070535 0.010134541 -0.07795835 -0.15485772 0.15713859 0.049002595 0.012571433
-0.24330719 0.062138896 -0.20737274 -0.13716905 0.11261772 0.026129631 0.11987048 0.009041625
0.14476113 -0.32686272 -0.1456749 -0.03207844 -0.08619398 -0.25636104 0.0007683863 0.16412045
0.03654045 0.09873019 -0.28081858 0.06323473 0.23636392 0.10366971 0.13606551 -0.039300643
-0.010205008 0.09031078 -0.039842717 -0.028023478 -0.042897645 -0.12613265 -0.21514836 0.22857228
-0.023358056 -0.18346134 -0.11948824 0.16432971 0.18887088 -0.09977018 -0.061987728 0.07514895
-0.22040883 0.24900639 -0.06499135 -0.17256102 0.1786221 -0.015116547 -0.18026839 0.09709665
-0.3473351 -0.38607395 -0.053054582 -0.12971732 -0.04335776 -0.38588014 0.093094714 0.15263523
-0.21331619 -0.14808898 0.14854865 -0.19038205 -0.14353636 0.23200423 0.039251447 -0.16924986
-0.08825277 0.06624419 0.073428504 -0.043551378 0.24980167 -0.22745988 0.04423641 -0.009086519
0.13690785 -0.27283704 -0.06580474 0.23433268 -0.22386494 -0.38684484 -0.050044943 0.049796127
0.2603263 0.16098142 -0.0102475565 -0.062689826 0.16737287 0.17087185 -0.10627111 -0.0075450884
-0.056013178 -0.15370171 0.041973818 0.018935438 -0.11211795 -0.1196879 -0.2080079 0.062400196
0.037784334 -0.2577564 -0.09797312 0.18040122 0.06091132 0.026809972 -0.19926932 0.11197877
-0.11915624 0.23537503 -0.03527545 -0.17703713 0.1908306 0.14422199 0.11742179 -0.08986586
0.26148137 0.0066033173 0.10416839 -0.16011192 0.11709331 -0.041487247 0.09120621 -0.09287336
0.051449504 -0.0018787887 -0.097635604 0.1288945 0.094876565 -0.014675145 -0.0052492237 0.1422267
0.20425668 0.029861664 0.085507974 0.039519105 0.08289081 -0.052376203 0.056700137 -0.10165422
0.073082656 -0.0153074 0.113006525 -0.020462232 -0.05033213 0.027836952 0.024492227 -0.15849496
-0.299326 -0.095888905 -0.06740328 -0.103316836 -0.32940385 -0.42913738 0.16940747 0.3236215
0.06541254 0.11878624 -0.11971842 -0.28618902 -0.036024842 0.004853305 0.080115564 -0.29393327
-0.22815172 0.061675906 -0.06157233 -0.105570585 0.14784354 -0.14551188 0.16623348 -0.092271216
0.14110358 -0.36578757 -0.010768577 0.1753786 -0.2669912 -0.4454934 0.110301845 0.16573548
-0.120926954 0.16039133 -0.23400943 -0.031989936 0.009942643 0.04566693 -0.003188365 0.069860205
-0.164532 -0.111127585 0.05513192 0.0001554451 0.16426145 -0.09963307 -0.1297927 -0.0016175471
-0.06305716 -0.059172075 -0.10590301 0.12530823 -0.14834778 0.08533937 0.07380896 0.019088201
-0.13197136 0.23053369 0.090993196 -0.26644027 0.14782386 0.105568714 -0.2540894 -0.115565605
-0.11929842 0.20414522 -0.10745481 0.08056937 0.06727455 0.1452153 -0.09003231 0.12771992
-0.103471994 0.11460113 0.009326489 0.029957851 -0.077670924 0.10945002 0.022859588 -0.06579448
-0.07002558 0.019695181 -0.19683057 0.17440924 0.04656492 0.07819952 0.17723633 -0.0020901945
-0.04507443 -0.036395837 -0.13788432 -0.08386464 -0.1731976 -0.17636253 -0.12138264 0.07218548

fno_blocks.fno_skips.2.conv.weight f4 [32, 32, 1]
00000000: 9356 bc3d 86b9 24be 793c a5bb d197 323c
00000010: 8e57 80be 04b5 84be 5ee3 30bd 34bc c7bd
00000020: cac5 f8bc c3fd 87bd 102d 0e3e b60f d3bd
00000030: 4697 dc3d a413 f73d 72c1 21be 1869 8a3c
00000040: 7d89 8f3c 48a0 90bd f1d2 97bd f4df 3dbd
00000050: b516 28be 963c 38bd 921d 063e 671d f13d
00000060: d6f1 09be c71b 573d e6e5 15bd e62b 753e
00000070: 1d4a bdbd 8123 523d d5e6 343e 275f 1dbd
00000080: 058e 3a3c 3967 bb3d 6d12 b93d f43e 82bd
00000090: def0 d4bd fe2e b03d 6cb3 89bd 6bd1 d8bd
000000a0: 12e7 5fbc 89bd dc3c bdd3 b73c 3b53 9cbd
000000b0: c241 73be 3a9d 1d3e 7120 f1bd f4fe d23d
000000c0: c89a d8bc a506 b53d 3da2 dfbc 2778 023e
000000d0: 8c38 e6bd 4c1f b8bd f48f 9fbd 556a 7b3c
000000e0: 0a67 d63d 3cb6 093e fc7d 27bd 1df9 f4bd
000000f0: 2f86 06be 35e0 30bd 77bb 54bd dde2 52bd
00000100: 6c3e 2cbe efd0 abbc 0449 743d a226 19be
00000110: bfc1 9b3d 71bf 15be 8b3a 3a3d b935 8ebd
00000120: c103 9c3d 068c 43bd 0434 7d3d 0591 51be
00000130: f4de 39be 2ca8 f5bc cae2 843c a2a7 3f3e
00000140: 76fb 71be f85c 173e f154 fabc d5c9 0e3d
00000150: bfed 21be ef6e 15bd 2a8d c33d a173 27be
00000160: 9a07 5ebd 75f9 28be f498 fa3d 56f7 27be
00000170: aaeb 82bc c90d 17bd 923a 443d 4dd3 463d
00000180: f581 a03d 2437 f2bd 81b6 58be 6d05 c53d
00000190: 207e 593d 58fb 083e 2ab7 ca3d cc60 0f3e
000001a0: 0470 45bd 81f6 cabd b643 17be fb9f f3bd
000001b0: 2f2a 60bc 0922 88be ab6a 3dbe 3e7c 083c
000001c0: 1110 113e f230 ee3c 4a46 d13d 2caa b33d
000001d0: c38a 963c 63e3 0e3e e671 6dbe 8d65 9e3d
000001e0: 17de 47bb 0d48 1a3e 653f ce3d 31cf b0bd
000001f0: 58fc 0dbe 05f5 363e fcd2 0abe edad 4a3d
00000200: cad4 563e fd05 53bd 343a a33d 2ad3 1abe
00000210: 13e6 7bbe 0355 e8bd b220 ec3d 9b16 2dbe
00000220: 59a4 f73c bc9c f43d 0794 b8bb c0d4 15be
00000230: d2a4 9e3d 2414 80bd 06ab 3f3d ceba 0cbe
00000240: f7c9 55be 348a 20bd 6112 2f3e 849f 33be
00000250: 570e 893d 0a7a c33c a130 f43d 1dd5 43be
00000260: 8194 6bbe 26f6 63bd a399 cb3d d2c4 8f3d
00000270: 9482 29be 746b 05be c9d5 003e 7c81 813d
00000280: 2fde 2d3e f1d5 01be 8aec 52bd e1d9 fc3b
00000290: 2077 8ebc 47ed 17bd 6a27 9b3d 6ae8 9f3d
000002a0: 90ae 4cbc 4c76 b93d 4456 003e baae cc3d
000002b0: d444 ad3d 93aa aabd 87dd 143e d5c3 a13d
000002c0: fd17 603e 2749 db3d 0f91 903d ed29 ca3d
000002d0: 45a6 4a3d f835 403d 3410 6bbd 303d fdbd
000002e0: 5c76 4fbd 769b a4bd 4aea b7bd 87e5 13ba
000002f0: b2d6 c13d 8f20 233e 07f0 9abd 9bf2 cdbd
00000300: b29c 2e3d 9028 1f3e 8586 94bd 1914 adbc
00000310: 2ccc df3c 0994 3fbd 4310 aebd 95a3 ac3d
00000320: 4184 dcbd eb5f 13bd dc95 97bd fa7a 0ebe
00000330: 9f50 02bc 00d3 4bbd 6d88 62be 79c4 583d
00000340: 61d8 bb3c 72e4 c5bd 4f07 44bd 0a1d 1a3e
00000350: e7b1 b7bd 7ffc bb3d 0ddc 08be b6c1 18bd
00000360: 2fae 0abe 91b2 253c b677 ee3d 5cd4 b2bc
00000370: 40a0 f13d f22f 10be afd6 0ebe 375c 033e
00000380: 1347 87bd 3c6c 933d 51de a5bd 6977 e2bd
00000390: bbe7 483e 569c ed3d b7b8 c23d b5db 89bd
000003a0: dd0e 71be 67b0 19be 1337 443d 7447 063e
000003b0: 3194 82bd 102e db3c e2c3 bfbd c650 e7bd
000003c0: 3bb0 1ebe d019 083e bce5 ca3d e159 cc3b
000003d0: 75f1 d33d f37a e53d e11b 26bd 83b6 48be
000003e0: 1af5 0abd 7e72 dbbd 7e67 1bbd 8da7 8b3d
000003f0: fb8c 0e3e 94fd 32be 9cdb ce3d 37a5 1c3d
0.091962 -0.16086397 -0.0050426093 0.010900454 -0.250668 -0.25919354 -0.043185584 -0.09752694
-0.03036775 -0.06640198 0.13884377 -0.10305731 0.107710406 0.12064293 -0.1579645 0.016895816
0.017521614 -0.07061821 -0.07413281 -0.046356156 -0.16414912 -0.044979654 0.13097218 0.11773186
-0.1347116 0.052516725 -0.0365962 0.23942527 -0.092426516 0.05130339 0.1766618 -0.038420822
0.011386399 0.091505475 0.090367176 -0.063596636 -0.10397504 0.08602713 -0.06723675 -0.10586818
-0.013665931 0.026945846 0.022439832 -0.076330625 -0.23755553 0.15392008 -0.11773766 0.10302535
-0.026440993 0.08839158 -0.02729904 0.12741147 -0.11241254 -0.089903444 -0.07791129 0.015345176
0.10468872 0.13448423 -0.040891632 -0.11961577 -0.13137124 -0.04318257 -0.051936593 -0.051485885
-0.16820687 -0.02097365 0.059639946 -0.14956143 0.076053135 -0.1462381 0.045465987 -0.069438405
0.076179035 -0.04774096 0.061817184 -0.20465477 -0.18151456 -0.029987417 0.016221423 0.1871629
-0.23631081 0.14781559 -0.030558081 0.03486045 -0.15813349 -0.036482748 0.09548409 -0.16352703
-0.05420647 -0.1650141 0.12236205 -0.16402945 -0.015981514 -0.03687838 0.04790742 0.048541356
0.07837287 -0.118269235 -0.2116337 0.096201755 0.053098798 0.1337713 0.09898217 0.14001769
-0.04820253 -0.09910298 -0.14771923 -0.11895748 -0.013681932 -0.26588467 -0.18497722 0.008330403
0.14166285 0.029076073 0.10218485 0.08772692 0.018376714 0.13953929 -0.2318798 0.07734213
-0.0030497366 0.15066548 0.10070685 -0.086332686 -0.13865793 0.17866905 -0.13557047 0.049482275
0.2097961 -0.051519383 0.07970086 -0.15119615 -0.24599485 -0.1134434 0.11529674 -0.16903155
0.030229734 0.11943957 -0.0056328806 -0.14631939 0.07746281 -0.062538415 0.04679396 -0.13743135
-0.20877825 -0.0391943 0.17096855 -0.17541319 0.06692188 0.023861904 0.11923338 -0.19124265
-0.23005868 -0.055654667 0.09941413 0.07019962 -0.16553718 -0.13029271 0.12581553 0.06323525
0.16979288 -0.12679268 -0.051495112 0.007716403 -0.017390788 -0.03709152 0.07575877 0.07808001
-0.012492791 0.090557665 0.12532908 0.09994264 0.084603935 -0.08333316 0.14537631 0.0789868
0.21884151 0.10707312 0.07058918 0.09871278 0.049474973 0.04692647 -0.0573885 -0.12365186
-0.050649986 -0.08037464 -0.08980234 -0.0005641807 0.09464778 0.15930389 -0.07565313 -0.10056039
0.042629905 0.15542817 -0.0725222 -0.021127747 0.027319036 -0.046772037 -0.084991954 0.08429638
-0.10767413 -0.035980146 -0.0740163 -0.139141 -0.007953792 -0.049761772 -0.22122355 0.052921746
0.022930326 -0.09662713 -0.047858533 0.1505014 -0.08969479 0.09179019 -0.13365193 -0.037294112
-0.13543008 0.010113374 0.11643927 -0.021829776 0.117981434 -0.1408079 -0.13949083 0.12828146
-0.06605353 0.071983784 -0.08099044 -0.11057932 0.19619648 0.11602084 0.09507888 -0.06731359
-0.23540826 -0.15008698 0.047904085 0.13113195 -0.063759215 0.026755363 -0.093635336 -0.11294703
-0.15496914 0.13291097 0.099070996 0.0062363003 0.10348789 0.11205091 -0.04055393 -0.19600873
-0.033925153 -0.10715197 -0.037940495 0.06819067 0.13920967 -0.17479545 0.10100481 0.0382435

fno_blocks.fno_skips.3.conv.weight f4 [32, 32, 1]
00000000: d8a8 2bbe bc1b 38be 3c8d 0d3e 018b 88be
00000010: 197b 84bd 897a 80bc e234 edbd b192 81bd
00000020: 8b00 97bd 6211 883d b6ff 6ebd 2158 d2bd
00000030: d9bb fb3d 3514 e13c c5c5 2d3c 3345 f33d
00000040: 0356 613d 2878 54be 098d e3bd 94ac 193e
00000050: 254a e4bd a5da bebd 0861 5e3d f7df e63d
00000060: 68fa 773d ed21 1f3e a0f4 813d 5260 66bd
00000070: f291 96be 8c5c 1f3e fc5b 43be 89b0 a3bd
00000080: 3ba7 9b3c d08b 1fbe 1cfb 88bd 8ae7 373d
00000090: 1783 d2bd ad9a 923c 9976 5cbe ba6e 333e
000000a0: 4b8c 2abe 835f 85bd 3bf7 59be 5820 8a3d
000000b0: e9b7 bbbd d133 643c 6f99 243e 0029 65be
000000c0: 8dcd 0a3e f4a7 06be ad5a 4ebe 4c43 0abe
000000d0: c976 c4bd 0289 f6bd 3899 b83d 2611 123e
000000e0: de86 133e cbba 183e fa7e 073e 7f16 19bd
000000f0: 74a9 0dbe 8a7a e93d b088 90bd 31e1 f4bc
00000100: 973b 67be 128c 90bd d395 1bbe 176b f23d
00000110: a486 2b3e 5527 113d 3525 25be bd2a 933d
00000120: 02c4 10be 52a3 4cbd f7e9 65be 4629 353e
00000130: 06ef e03d 373e 9cbc 27d3 08bc 8cca f9bd
00000140: bb7d 92bd 9f69 1bbe 2e65 a03d d66c 803d
00000150: 6cae 973d ce37 243b 895d ac3c 51ad 33be
00000160: 3a3b 14be e955 223d 24ec 253d b316 88be
00000170: fd81 16be e573 34bc 354b 423e 632f 04be
00000180: 2c18 503d 25ab 0e3e d5ee 1ebd 2733 26b8
00000190: ebe6 e03d c9cc 44bd a7af 3d3e 5cbc 033e
000001a0: 301f 583d af75 87bd fd88 873e cb55 953d
000001b0: 88ed 29bd 8609 3d3c e60e 283d 067b 0abd
000001c0: 6523 28be 2b26 1e3e ce7d 623e a274 b53c
000001d0: a588 193c a7e0 cb3d 05b1 a2bd 2d38 99bc
000001e0: d80f 163d 310f 2a3d 412e c3bd eb59 7d3d
000001f0: 711e d43d 75f5 67be 46bf 04be 0df3 053e
00000200: ad03 373e 5841 8e3c 1a60 903e a954 ccbd
00000210: 38af 57be c743 303d 95f7 203e 87e0 883d
00000220: 839d 113e 1fb2 1abe 69fb 563e 27ef 95bd
00000230: 6383 d7bc edc5 07be c420 83bd 98c9 613e
00000240: ce62 a9bd b35a 083d 937b 513d 9d8c a93d
00000250: c262 c7bd 28a1 263e 0fad 12be ae7d 94bd
00000260: ceb0 9a3d 6970 803d 74b2 e23c 68fe 7c3e
00000270: 9f62 103e 3d1a 103e e6a2 083e 0f35 6e3e
00000280: 0203 cc3c 7669 523e 4682 aebe f91b 783e
00000290: 4c95 5cbe 2b76 1dbd d182 cebb 7baf 2abd
000002a0: 0615 2e3e f8d8 62be c108 3fbd b89c b0be
000002b0: ca1e 65bd 3a8e 37bd 0ac7 21bb 4953 febc
000002c0: f137 aebd 9207 62bd 8c4e 753e 913a 753c
000002d0: 3f4b ff3d 70bd 4cbe 8000 07be 375a e83c
000002e0: e0b9 11be b3f8 34bc 3c97 883d 68dd 963d
000002f0: 7c89 f23a 9bbb e3bd 6c4a 90bd 09e4 05bd
00000300: a9d0 e7bd ba1d 0e3e 6910 9bbd 7073 5c3e
00000310: 6c1d adbd efb0 a83d 21a8 40bd e9fd 8cbd
00000320: 2947 e7bd c7e5 713d 4aee 943d 6d1a 28be
00000330: 85bc a03d ce4f 873e e464 233e 085b 4f3e
00000340: 6a9e 813d 01de dd3d eb10 ac3d 9b33 0fbe
00000350: 54de 24bd 5d58 07be b69b 2a3e 3256 d0bd
00000360: db19 f0bd a0c2 10be 3e36 6dbe 0af6 edbd
00000370: 9129 873e 28c7 f0bd 7b0d 863e a3b3 4f3e
00000380: 786f d63d 6e2f 49be 6db0 bebd 95c7 d93d
00000390: 9c28 123d f2f6 d1bc db42 f8bd 34f4 3b3e
000003a0: c2c3 9c3c 2ce1 7b3e 790d 7cbd 6343 493e
000003b0: 97cf 27be ec79 e93c 0260 e53d 4523 abbd
000003c0: ab5f e13c 8559 e6bb a490 ce3c ef58 4b3d
000003d0: c914 8ebd 3eda 82bd 121d f33d 259a 1fbe
000003e0: 1394 0d3e 5999 e9bc 7f7f 90bd 55f0 af3b
000003f0: 8e18 dcbd 5dd9 00bd 6e8a ac3d c807 36bd
-0.16763628 -0.1797933 0.13823408 -0.26668552 -0.064687915 -0.01568343 -0.11582352 -0.06326807
-0.073731504 0.066439405 -0.058349334 -0.102707155 0.122916885 0.027475456 0.010606234 0.11878433
0.055013668 -0.20748961 -0.11110885 0.1500724 -0.111469544 -0.09319047 0.054291755 0.11273187
0.06054154 0.15540285 0.06345487 -0.056244202 -0.29408222 0.15562648 -0.19078058 -0.07992656
0.01900064 -0.15580678 -0.0668852 0.044898547 -0.1027891 0.01789602 -0.21529616 0.17522708
-0.1665508 -0.06512358 -0.21285717 0.0674445 -0.091659375 0.01392837 0.16074155 -0.22378922
0.13554974 -0.13150007 -0.20151778 -0.13502234 -0.09592969 -0.12037851 0.09013599 0.14264354
0.14406916 0.14915006 0.13232031 -0.03737497 -0.13834172 0.114003256 -0.07057321 -0.029892536
-0.22581325 -0.07057966 -0.15193872 0.11836832 0.1675058 0.0354379 -0.16127475 0.07185886
-0.14137271 -0.049960442 -0.22452532 0.17691526 0.1098309 -0.019072635 -0.008351124 -0.12196836
-0.071528874 -0.1517701 0.078317985 0.06270759 0.07406315 0.0025057676 0.021040695 -0.17546584
-0.14475718 0.03963271 0.040508404 -0.26579818 -0.14698024 -0.01101396 0.18974002 -0.12908702
0.050804302 0.13932474 -0.038801987 -3.9625123e-05 0.10981544 -0.04804686 0.18524037 0.12864822
0.052764118 -0.06614243 0.264717 0.07291754 -0.041486293 0.011537915 0.041029833 -0.03380873
-0.16419752 0.15444247 0.22118303 0.022150341 0.0093709575 0.099549584 -0.0794392 -0.018703545
0.036636204 0.041518394 -0.095303066 0.06185333 0.10357369 -0.22652228 -0.1296359 0.13080998
0.17872496 0.017365143 0.2819832 -0.09977085 -0.21062934 0.043033388 0.15719445 0.0668345
0.14220242 -0.1510701 0.20994343 -0.07321005 -0.026307767 -0.13259096 -0.06402734 0.22049558
-0.082707986 0.033289623 0.05114324 0.08278773 -0.097356334 0.16272414 -0.14323829 -0.07250534
0.07553254 0.062714405 0.027672984 0.24706423 0.14100121 0.14072509 0.13343391 0.23262428
0.024903778 0.20548043 -0.34083766 0.2422942 -0.21541327 -0.038442772 -0.0063022156 -0.041671257
0.17000207 -0.2215308 -0.046639208 -0.34494567 -0.055937566 -0.044813372 -0.0024685287 -0.031045573
-0.08506764 -0.055183 0.23955745 0.014967577 0.12465524 -0.1999414 -0.13183784 0.02836333
-0.14231062 -0.011045623 0.06669471 0.07366449 0.0018504108 -0.11119767 -0.07045445 -0.032688174
-0.11319096 0.13878527 -0.07571489 0.21528411 -0.084528774 0.082368724 -0.04703534 -0.06884367
-0.112928696 0.059057023 0.072720125 -0.1641633 0.07848457 0.26428074 0.15956455 0.2024957
0.06329043 0.108333595 0.08401664 -0.1398453 -0.04025109 -0.13217302 0.16660962 -0.101726905
-0.117236815 -0.14136744 -0.23165223 -0.11619194 0.263989 -0.11756736 0.2618216 0.2028337
0.1047048 -0.19646999 -0.09310994 0.106337704 0.03568326 -0.025630448 -0.12122127 0.18354875
0.019136313 0.24597615 -0.061536286 0.19654612 -0.16387783 0.02850052 0.11199953 -0.083563365
0.027511438 -0.0070297145 0.025215454 0.04964536 -0.06937558 -0.06389283 0.11870779 -0.15586145
0.13826017 -0.028515505 -0.07055568 0.005369226 -0.10746871 -0.031457294 0.08424841 -0.044441015

fno_blocks.channel_mlp.0.fcs.0.weight f4 [16, 32, 1]
00000000: c8b7 5abb 1ce9 16bc 2ae2 a7bd 49e1 f5bd
00000010: 54b2 ccbd 49c9 90be 7517 14be c1d4 643e
00000020: 301f e0bd 9b1d d2bd 2ec9 513d 0a36 093e
00000030: 2af9 0fbe 0a2c ab3b 7b3f e7bc 1c3d 443d
00000040: d071 113d 061b 0abe ed38 afbc 9f03 853c
00000050: 0a49 88bc 7812 543d 4e82 9e3e b6d8 3ebb
00000060: 622a 5bbe 8ac3 f3bc 524a ae3c 308b f9bd
00000070: 10ca 40bd 7421 00be e159 7c3d e5bf 303c
00000080: 53d7 393e 134d c13c 24c5 5dbe 8b4a 45be
00000090: ea3f a3bd 5ba2 5abd f32b febc de71 323e
000000a0: c91b 383e 559c 6abe d02f b23d 2b8d 88be
000000b0: 526d 49bd 32f2 7c3c aca4 82bc ba16 8e3e
000000c0: b956 c7bd 40c5 973c 0544 94bd 9809 9cbe
000000d0: 7442 8c3d baec 64be 425c b2be c721 d33d
000000e0: 7867 3cbe 52f3 82be 114d 90bc 940b 92be
000000f0: d0e8 293e 1810 ab3c 3ddd 213e 876d 073d
00000100: 6117 283e 0cb6 35bd 2fe9 f93d 29b8 79bd
00000110: 93f7 a53c a942 2f3e 641b 203d 4350 66be
00000120: 4e86 e6bd b911 88bd af2e 233a 863a 5cbe
00000130: cb62 f83d 59e8 903b b282 a13d aa0d af3d
00000140: 082c 203e e20f dabd 5052 bbbd 678a 23be
00000150: e31a 1d3b 4af9 97bd 76cb 34bd 4e83 b43d
00000160: 6cd7 783e b568 b83c 87d6 80be 9330 bfbd
00000170: b4cd 4a3d 6edd 16bd d738 663e 6f69 88bd
00000180: a40d 05be 2790 b73b 9ae3 23bd 782a 833d
00000190: 6eb2 a73d 44d2 50be d2f5 023c d3ab cdbc
000001a0: a4a9 00be 9635 ac3d 7095 3abe 66b2 e83d
000001b0: 2047 c33d 57fb 9c3d 1f59 2dbd eb90 79bc
000001c0: 4bf1 3abe f519 0b3e 2051 0fbe 6544 243e
000001d0: 0b3d 35bd e1b9 92bd fa6c 54be 71ff 79bd
000001e0: dac6 34be 8dd0 81be ef28 d03c 7f49 d73c
000001f0: a34a d13d 1ba3 a53d 0200 febd 1706 fbbb
00000200: 9669 4abe 35d9 303e e9c3 a1bd 2f5e 843d
00000210: af51 d73d cd40 29be d6dc 1dbe dc53 c7bd
00000220: 5cb8 84be dc3f c03d b2f2 ab3d fc25 3a3c
00000230: c732 1cbd a002 35be 6316 073e 85da 003e
00000240: fa0f 81bd 84c8 b3bd fbf0 083e 1235 863c
00000250: 78a3 8e3d c8b5 e8bc d422 13be 5742 42bd
00000260: cc9e 2c3e 6473 eabd d27e 12be 8a25 983c
00000270: 0204 01be edc1 563e a911 9dbd c4ab c0bd
00000280: 9092 2c3e d5f5 a1bd 2502 693d 3919 1d3e
00000290: e800 01be 85f7 dcbc 7a7e eebd 238c f9be
000002a0: 4d94 9fbe 35de f33d 46c9 073e a222 38be
000002b0: 2a9e e93d 6824 61bb 2645 a8bd 0b0d ec3d
000002c0: 079f 9ebd b270 863b b246 3cbe b4bd 2a3d
000002d0: c933 413a 2fa7 bd3d a607 4bbe 0ddd 4b3c
000002e0: 413c 3b3e 9d0f a23a aa14 053e e18a 283e
000002f0: 2e4e c93d 602c 1d3e 17cc 22be a742 c0bd
00000300: 9f2e 403e 4491 0dbe 86ab cbbd 6f7b 1a3e
00000310: 8066 18be 35ce 173e 6fc0 2fbe 84b0 5e3e
00000320: a0b1 af3d e91d 113e c640 20bc cced 533d
00000330: cc75 a2bd 91e2 e0bd 1f47 bc3d ee18 dcbd
00000340: b515 30be 5124 653d 3dcc babc 9e66 f3bd
00000350: 69e1 a2bd a473 d7bd 5e86 d53d ae3c 47bd
00000360: 2143 31be e8f7 c53d 3da7 15be 7abe 99bd
00000370: 4eff 4c3b daa4 2f3e 16ea 43bd 167e 243d
00000380: 4fbf 653e 493f 623e 9573 dc3d 9742 0dbd
00000390: d3d9 e7bd 37f7 44be db63 a7bc 2868 9abe
000003a0: 21d4 9cbe e9f6 e9ba a917 17be e022 8ebd
000003b0: 35dc d83c 3b03 13be 4f37 193e c234 9a3d
000003c0: 1d35 6bbe 4a6f 0ebe 37db acbd ee7d 33bd
000003d0: 2103 823d 7488 b83d cadb 1abe 30cb afbd
000003e0: 0746 acbd 863a 92bd db1c 2c3e 1d1f 323e
000003f0: 463c cfbc a5e8 523e 80c6 093e d419 0c3e
-0.0033373702 -0.009210851 -0.08197434 -0.1200586 -0.09994951 -0.28278568 -0.14462073 0.22346784
-0.109434485 -0.10259553 0.05121725 0.1339952 -0.14059892 0.0052237557 -0.028228512 0.04790984
0.03550893 -0.13486871 -0.021389449 0.016237078 -0.01663639 0.051775426 0.3095879 -0.002912087
-0.21402887 -0.029756326 0.021275673 -0.12184751 -0.0470677 -0.12512761 0.061609153 0.010787939
0.18148546 0.023596322 -0.21657234 -0.19266717 -0.07971175 -0.05337749 -0.031026816 0.1742625
0.17979349 -0.22911198 0.08700526 -0.26670203 -0.04917652 0.015438603 -0.015947662 0.27751714
-0.09733338 0.018526673 -0.07239536 -0.3047607 0.068486124 -0.22355929 -0.34836012 0.10309177
-0.18398845 -0.25576264 -0.017614873 -0.28524458 0.16592717 0.020881698 0.15807052 0.033063438
0.16415168 -0.044363067 0.12202679 -0.060966644 0.020259654 0.17115273 0.03908862 -0.22491555
-0.11256085 -0.06644005 0.0006224913 -0.215067 0.12128218 0.0044222292 0.07886256 0.08547528
0.15641797 -0.10647561 -0.09146559 -0.15970765 0.0023972325 -0.07420595 -0.044139348 0.08814107
0.24300927 0.022510866 -0.2516367 -0.09335437 0.04951258 -0.036832266 0.2248262 -0.06660735
-0.12993485 0.005601901 -0.04001198 0.06404585 0.0818833 -0.2039271 0.007993178 -0.025106346
-0.12564713 0.08408658 -0.18221068 0.11362152 0.095350504 0.07665127 -0.04232132 -0.015232305
-0.18256108 0.1358412 -0.1399579 0.16041715 -0.04424767 -0.0716436 -0.20744696 -0.061034624
-0.17653981 -0.25354424 0.025410144 0.026280163 0.10219314 0.080877505 -0.12402345 -0.007660638
-0.1976684 0.17270358 -0.07898695 0.064632766 0.10513627 -0.16528626 -0.15416273 -0.09732792
-0.25921905 0.0938718 0.083959 0.011361595 -0.038134363 -0.17676783 0.13192134 0.12583359
-0.063018754 -0.0877848 0.13373177 0.016382728 0.06964773 -0.028406993 -0.14368755 -0.047426548
0.16857451 -0.1144779 -0.1430619 0.018572588 -0.12599185 0.20972414 -0.07669384 -0.09407762
0.16852784 -0.07908217 0.05688681 0.15341653 -0.12598002 -0.026973495 -0.11645217 -0.48739728
-0.31167832 0.11907617 0.13260373 -0.17981961 0.114071205 -0.0034353975 -0.08216314 0.11525925
-0.07745176 0.00410279 -0.18386343 0.04168482 0.00073700823 0.09260403 -0.19827136 0.012442839
0.18284704 0.0012364272 0.12996164 0.16459228 0.09829365 0.15348959 -0.15898167 -0.09387713
0.18767785 -0.13824946 -0.09944825 0.15086149 -0.1488285 0.14824755 -0.17163251 0.21747023
0.08578801 0.14171566 -0.009781068 0.051740453 -0.07932624 -0.10980714 0.09193253 -0.107469425
-0.1719578 0.055942837 -0.022802467 -0.11884807 -0.0795315 -0.105201036 0.10426019 -0.048641853
-0.17310764 0.09666425 -0.14614578 -0.07507034 0.0031280103 0.1715273 -0.047830664 0.040159307
0.2243626 0.22094454 0.10764233 -0.034487333 -0.113208435 -0.1923493 -0.020433357 -0.3015759
-0.30630592 -0.0017850074 -0.1475512 -0.06940246 0.02647219 -0.14356701 0.14962505 0.07529594
-0.2296948 -0.13909641 -0.084402494 -0.043821268 0.06348253 0.09010401 -0.15122905 -0.08583677
-0.08411794 -0.07140069 0.16807882 0.17394681 -0.025297295 0.2059656 0.13454628 0.13681728

fno_blocks.channel_mlp.0.fcs.0.bias f4 [16]
00000000: 0cc6 f0bd b210 8bbc a0ab dd3d 6a0b c53d
00000010: ae4d 7a3d eeaf 073e 0b7c e8bd c7cf 7b3d
00000020: 5b50 2abe d0ce 043e d12f ab3c 6087 e63c
00000030: 9770 41be 2b18 813d d22e 0f3e c23e 0f3d
-0.117565244 -0.016975734 0.108237505 0.09621318 0.061109237 0.13250706 -0.11351784 0.06147745
-0.16632216 0.12969518 0.020896824 0.028140724 -0.18890606 0.06303438 0.13982704 0.03497196

fno_blocks.channel_mlp.0.fcs.1.weight f4 [32, 16, 1]
00000000: 17f6 5dbe b8ee 693e 76e7 91bd 2065 4ebe
00000010: 898c 6a3c 1c8e 75be 2bb3 163e 648b 34be
00000020: 3f1a 1bbe 11fb cc3d e6a7 173b 6f19 c53c
00000030: e945 d13b 714a 19bd 88ee a1be 905d 483e
00000040: a41e 7cbe cbc3 913d 88d8 253e c8f0 323e
00000050: a8e3 3e3e 52a9 fcbc 6ea8 263e c33a cb3d
00000060: 502e 82be a75f 87bd bcba 1a3e 909b a03d
00000070: 45b2 83be cf3b 02be 1165 c0bd b426 803d
00000080: 4241 31be 2b91 0abe 0ff3 873c bef5 3c3e
00000090: a007 813e dc13 e3bd 23cc 1fbe 0901 a5bd
000000a0: 6c54 26be ec64 27be ac64 fdbd 6347 be3d
000000b0: ae08 53be 4ee1 6e3d 5941 e13d e049 903d
000000c0: 4254 eabd 4e94 74be 8795 1ebe c264 143d
000000d0: 489d 2abe 2f2c 8c3d 86e1 4c3e e93f 1b3e
000000e0: 7899 173e 7296 eb3a 843d 1ebc 8135 523d
000000f0: db30 403e 9514 94bd e7fa a93d c60f 4e3d
00000100: a8aa a2bb 7e33 27be e4c9 1a3e 72cf 1fbe
00000110: 6641 643d 17da 383e c3db d13d 1dd0 153d
00000120: d0de 973d 1074 553e f63d 363e 8d55 cebd
00000130: dd29 a4bd 6de3 353e 9586 0d3e 3153 333e
00000140: 23c8 fc3d f270 02be 8a17 a03e b71f cbbd
00000150: 9bc5 9dbe 7e59 42be 1b20 bf3d 3b1c e1bd
00000160: c790 15be 9936 abbd 8123 c23e 9c37 853e
00000170: e726 b93d 301e aebc 2ad7 713e 4aaa 853e
00000180: 09a2 c83d 290a 293d 3ac1 00be 9040 4d3e
00000190: 3ba3 383e 3c43 8c3c c773 02be 0ca6 973e
000001a0: 429d 9a3d 981b 59be 97b1 45be 9402 02be
000001b0: b9ed 2fbe a50d 043e a59f 163e d5e9 fd3d
000001c0: 2cf9 ebbd cb03 8f3d 6fa1 95bd 4b86 efbd
000001d0: 9f94 ebbc f2d4 46be 1287 07be e6df 913e
000001e0: 7079 04be b0c0 7dbd be80 123e e64b 31be
000001f0: a2eb 823d 2b60 773e 7fe1 133e ea19 973d
00000200: 2be1 afbe 6d2f 1dbd 571b f1bb b14a 4bbe
00000210: ff4d a13e 82fb 1abe 29cc 2bbe 122d ffbc
00000220: 67ff 513e 472a 8a3c c7af 5f3d fc37 5ebe
00000230: 7483 0e3d 1c29 32be 4711 2f3d c063 e6bd
00000240: bb5e 1b3e 3a8a 13be 37e5 253e 91fd 69be
00000250: 1a17 30bc ceed 223d 45f3 acbd fce1 07be
00000260: 78de 483d 84f7 133d 5ece 493d fc16 0ebd
00000270: b6a0 9abc f23a 3bbe d83a 393e 8fa5 0a3d
00000280: 7e72 a4bd 9bcc 7ebd 221a 303e a843 483e
00000290: c32a 6e3e 9169 33be b4bd 43be c890 b53d
000002a0: bfa2 4fbb cf41 a5bb 33b1 28bd a612 f13d
000002b0: a43f 8bbd d92c 8abd 7c31 763b 8319 ea3d
000002c0: 13b8 8cbe 35ca d7bd 13a1 a73e 36f2 cc3d
000002d0: 3b49 5bbe 6c68 413e d5ce 26be 86e2 d4bd
000002e0: 6049 13be c4c0 1d3e 0a72 6c3d 485b 8f3d
000002f0: 255f 6abc be2c 6f3e cf1d 603e 7400 a3bc
00000300: fe04 963e cc2d 663e 0206 7ebe 6019 0abe
00000310: bc73 cebd 8560 9d3d 9601 283e f01b 39be
00000320: 7ca2 29bd 800a 883c 89c7 643e 0312 7c3e
00000330: 1657 f5bd 58e0 ffbc 7c22 913d 1355 91bd
00000340: b271 29bd fb54 85be 2b4d 623d 3e6c 5f3e
00000350: fc61 7a3e 8799 693e 692e 3dbe 80b4 3d3e
00000360: a8cf 93bd eaf7 e43c 9998 0dbe 4353 653e
00000370: 8005 d1bd dee5 5b3e 714f 1a3e 5b78 813e
00000380: 7b3f 93be baa2 77be a7ad 53be db50 34be
00000390: 5857 89be 3709 89bd 7821 353e a437 263c
000003a0: a5c0 86be fc0c 49bd 6b3f 8ebd 8c08 403e
000003b0: ad32 203e a068 c8bd b773 57be f0c9 01be
000003c0: 9aec 8ebd 8758 83bd 1f58 53be 32e6 563e
000003d0: e02f 91be adc3 83be dc20 0ebe 22ca 7c3e
000003e0: 9eed 0fbe 7082 2dbd 204a 8c3d a59a 99bd
000003f0: 268a 8fbd 55bd 323e 5437 f9bd 2d0c 0a3e
-0.21675907 0.2284497 -0.07124226 -0.20155764 0.014315733 -0.23979992 0.14716785 -0.17631298
-0.15146731 0.100088246 0.0023140847 0.02405998 0.006386508 -0.03742451 -0.31627297 0.19566941
-0.24621063 0.07117423 0.16195881 0.17474663 0.18641531 -0.030842457 0.16275188 0.09923317
-0.2542596 -0.06610041 0.15110296 0.07842171 -0.25721946 -0.12718128 -0.09394277 0.06257382
-0.1731005 -0.1353194 0.016595392 0.18453118 0.2520113 -0.11087772 -0.15605216 -0.08056838
-0.16243142 -0.16347092 -0.12372717 0.0929096 -0.2060878 0.058320336 0.10998792 0.070453405
-0.11441852 -0.23884699 -0.15486728 0.036228903 -0.1666156 0.06844365 0.20007905 0.15161099
0.14804637 0.0017973913 -0.009658221 0.051320557 0.18768637 -0.07230488 0.08299809 0.05030801
-0.0049641915 -0.16328236 0.15116078 -0.15606478 0.05572643 0.18051945 0.10246994 0.036575425
0.07415545 0.20845056 0.17797074 -0.10074911 -0.08015797 0.17762537 0.1382087 0.17512204
0.123428605 -0.12738398 0.3126796 -0.099181585 -0.30814824 -0.18979451 0.093322955 -0.10991713
-0.1460601 -0.08360023 0.37917712 0.2601899 0.09040623 -0.021254629 0.23617235 0.26106483
0.09796531 0.041269455 -0.1257371 0.2004416 0.18031017 0.017121904 -0.12739478 0.2961887
0.07549526 -0.21201932 -0.19306026 -0.12696296 -0.17180528 0.1289583 0.14709337 0.123981155
-0.11522135 0.06983145 -0.07306182 -0.11695536 -0.028757391 -0.1941717 -0.13235119 0.28491133
-0.1293695 -0.06195134 0.14306924 -0.17314109 0.063926 0.24157779 0.14441489 0.073779896
-0.34351477 -0.038375307 -0.0073579955 -0.19852711 0.3150482 -0.15135005 -0.167771 -0.03114942
0.20507585 0.016865863 0.054610994 -0.21701044 0.034793332 -0.17398494 0.042741086 -0.112494946
0.15172856 -0.14408198 0.1620072 -0.22850634 -0.010747695 0.03977757 -0.084448375 -0.132698
0.049040288 0.03612472 0.049269073 -0.03468989 -0.018875461 -0.18284205 0.18088853 0.033849295
-0.0802965 -0.062206846 0.17197469 0.19557059 0.232585 -0.17520739 -0.19115335 0.088655055
-0.0031682698 -0.0050432454 -0.041184615 0.11771135 -0.06799248 -0.06746835 0.0037566116 0.11430647
-0.27484187 -0.10536615 0.32740077 0.100071356 -0.21414654 0.1888749 -0.16289838 -0.103947684
-0.14383459 0.15405566 0.057725944 0.069998324 -0.014304911 0.23356912 0.21886371 -0.019897677
0.29300684 0.22478408 -0.2480698 -0.13486242 -0.10080668 0.07684425 0.16406855 -0.18077064
-0.041414723 0.01660657 0.22341742 0.24616246 -0.11979501 -0.031234905 0.070866555 -0.07096305
-0.041368194 -0.26041397 0.055249374 0.21818635 0.2445144 0.22812472 -0.18474735 0.18525887
-0.07217342 0.027950246 -0.13827743 0.22395043 -0.10206127 0.21474406 0.15069367 0.25287136
-0.2875937 -0.24183169 -0.20671712 -0.17608969 -0.2682445 -0.06691211 0.17688549 0.010145102
-0.2631885 -0.04908465 -0.0694569 0.1875326 0.15644331 -0.09785581 -0.21040235 -0.1267469
-0.06978722 -0.064133696 -0.20639084 0.2098625 -0.28356838 -0.25735226 -0.13879722 0.24686483
-0.14055488 -0.042360723 0.06850076 -0.07500199 -0.070087716 0.17455037 -0.12168756 0.13481207

fno_blocks.channel_mlp.0.fcs.1.bias f4 [32]
00000000: 25e5 5d3e f6ae 673d 8046 68bd 4a79 f9bc
00000010: cb5a cabd 3371 bf3e eec9 a93d da05 233e
00000020: 3ee7 923d 8211 c1bd 91b7 123e bf99 4a3e
00000030: 5f4c fa3c bc2f 6c3e 6a05 f9bd d095 1dbd
00000040: f917 7d3e 2d1f 573e 4a72 a9b8 cc88 8c3e
00000050: 6d36 5e3e dc03 083e 8899 c3bb 8a4e d3bc
00000060: 7545 483e d54f 6a3d baa8 613e 11cb de3d
00000070: 1ce4 23be 2fb1 a63e 4054 293e ddce 433e
0.21669443 0.05656334 -0.05670786 -0.030453343 -0.09880599 0.37391052 0.08290468 0.15920201
0.07173012 -0.094271675 0.14327838 0.19785212 0.030553995 0.23065084 -0.12159236 -0.03847295
0.24716176 0.21007986 -8.079836e-05 0.27448118 0.2170045 0.13282722 -0.00596923 -0.025794286
0.19557746 0.05720504 0.2203702 0.108785756 -0.16004986 0.32557055 0.16536045 0.19121881

fno_blocks.channel_mlp.1.fcs.0.weight f4 [16, 32, 1]
00000000: c85e 143e 0674 c53d 57f1 e4bd a3d5 bbbd
00000010: df25 58be c2d6 a3be b5a7 063d 8710 40bd
00000020: 59f0 753c 5f24 26bd 40e8 103e 1a25 7f3d
00000030: cac8 973c 8d15 443d 7477 383e e1b8 293e
00000040: d330 0bbd 15fe 773d 7b54 a13d bc9d 7abe
00000050: d81b 2ebe 5f07 ed3d d386 e93c fd2a a03d
00000060: 226b d33d d93b 52bd 3cdc 1ebd eacf cebc
00000070: dde3 31bd 4dc4 88bd 5b72 ff3d b15b d7bd
00000080: 4300 3cbe 2587 1bbc 90c6 d1bd dd80 213d
00000090: befd 8d3d 8970 95bd 2552 233d b4cd 0dbe
000000a0: 31ba 413d 5dee 4fbe a06c 6d3d f019 183e
000000b0: e266 93bd d145 043e ad47 86bd 6673 3c3e
000000c0: 7fdd 7bbc 2bd1 b5bd 1cd8 7bbd 02c1 0abe
000000d0: 59e5 b4bc 50a9 da3d d236 89bc 6a5a 0fbe
000000e0: 7f42 38bc 6e2e f33d 0970 5e3d 3aaa e3bc
000000f0: 9302 a9bd c946 94bd 865f 88bd 35ef 8bbb
00000100: 28f1 20be f0dd 44be ed75 b13e 89f3 fcbd
00000110: 9574 d63d df18 fa3e 2e23 21be 6be6 b43c
00000120: f31f 82be 6fdf a3bd 922f 36be 0c18 a9ba
00000130: 9f81 fa3c bed7 4c3d 00f2 103e 96f0 84bd
00000140: 592f 87be b241 d83e 95f1 bcbe 6abb afbd
00000150: a94d 3dbe b788 a33d 80eb 493e ba35 8fba
00000160: 8717 23bd 236d 36bc 96da 493e 81f8 503d
00000170: 24c1 f83c c86e cdbd 01ba 343d 932a 2dbe
00000180: d132 d7bd 36fd 0cbe 1c50 783d d77c b03d
00000190: 790f af3d 0cf7 bd3e b043 bfbd d8e7 e4bd
000001a0: adab 2fbd 0f61 a33c e595 ccbd 7b5b db3d
000001b0: 267b 253e 21ce 9e3d 747e 233e 2b79 c33d
000001c0: e96c 073e 11b4 193e 4d8c 0d3e a727 3f3e
000001d0: 566a 843c 4c05 683d 337d f5bd b040 a13d
000001e0: a78d d8bd b219 c4bd 1063 f53b 88a3 063d
000001f0: 8de3 aebe f288 783d 5d79 d9bd f8a1 36bc
00000200: 2986 2abe a6bf adbd 5102 a4be d835 403e
00000210: 91bd 89be 4e11 a8be 619f db3d c897 013e
00000220: e11a 6abe b04d 4fbe be4d a93d 37e2 9a3c
00000230: 51c5 1abe b18e 873e 0437 9fbb c5db 6b3e
00000240: cc1d 15bd df3b 27be d71f 86bc 4753 36bd
00000250: 4025 22bd 2b9f 9c3d a698 613c ea3e 4ebe
00000260: e395 4c3e a5e1 483d eb34 d23d da19 ec3d
00000270: c191 f2bd f15b 453d 9bec 1f3d e286 9eba
00000280: 2113 c93d 3cd5 bdbd 306f 8a3d 6daa 80be
00000290: 84ec 72bd 3168 393e b3b1 87b8 93d7 d43d
000002a0: cb72 a03d bdf9 c63d 08f0 39be 65b8 67be
000002b0: 7419 46be a9e2 16be 287c 12be 2bbf 37be
000002c0: a8bd 473d 672c d43d e364 18be 47ec f0bd
000002d0: 063a 8bbe 5add 9abd cb66 1e3e 11f1 51bd
000002e0: 6a56 273e 0238 043e 03d5 623e 1785 443d
000002f0: 9976 2b3e dd45 b13d 8347 1f3d 8d63 07be
00000300: d5d4 af3d 55c2 15bd c55b 14bc ecd0 7fbe
00000310: 09f7 05be 124c 103e d8e4 f63c 4d32 3b3d
00000320: 2d2c 26be 552b 473e cb7f bdbd c2ba c8bd
00000330: bd0f f8bd 81be 913d 1912 ec3d 8e5c 2a3e
00000340: 9e53 ba3d 07fa 823e 4df8 46be 3d71 3abd
00000350: ce2b ae3d 1564 e0bd 7c92 39be e1fa 063e
00000360: 69cd 24bd 0f7a 1c3e 19fa 603e fbcc 303c
00000370: e0c7 c73d fb03 b4bd 771e 343d 4caf c03c
00000380: ae65 d8bd ae9e bfbd f065 5fbe a5a0 4a3d
00000390: c409 21be f45c cfbd bea6 ebbd 33da 293e
000003a0: cd02 0dbc 1698 24be f5cb fa3d 3ba9 2a3d
000003b0: 0bae 353e ec67 533e 3e77 173e 554a 723d
000003c0: 2a34 5bbe 1084 99be 4a43 913d 2069 953d
000003d0: 290b 853d c950 f2bd 668b 09be de7f 37be
000003e0: 993a 1e3e 5edf 493e 323e 20bd acb5 94bb
000003f0: d140 3ebe 7e6a 98bd faf4 0bbe 3476 493e
0.14489281 0.0964127 -0.111788444 -0.09171607 -0.21108197 -0.31999785 0.03287478 -0.04689076
0.015010917 -0.04056203 0.14151096 0.062291242 0.01852836 0.047872115 0.18014318 0.16574432
-0.03398211 0.060545046 0.078774415 -0.24474233 -0.17002809 0.115736715 0.028506672 0.07820699
0.10323168 -0.051326606 -0.03878425 -0.025245626 -0.043430198 -0.066780664 0.124729834 -0.105155356
-0.18359475 -0.00949267 -0.10242951 0.039429534 0.06933163 -0.07296855 0.03987326 -0.13848001
0.047296707 -0.20305772 0.05796492 0.14853644 -0.07197358 0.12917258 -0.0655664 0.18403396
-0.015372633 -0.08877786 -0.061485395 -0.13550189 -0.022082018 0.10676825 -0.016749773 -0.13999334
-0.011246323 0.1187409 0.054306064 -0.027791131 -0.08252444 -0.07240064 -0.06658845 -0.004270459
-0.15716994 -0.19225287 0.34660283 -0.12351138 0.10471455 0.488471 -0.15736076 0.022082528
-0.25415 -0.08001601 -0.17791584 -0.0012900843 0.030579386 0.050010435 0.14154816 -0.064912006
-0.2640331 0.42237622 -0.36903062 -0.08580668 -0.18486656 0.07985061 0.19718742 -0.0010926046
-0.03981736 -0.011134419 0.1971229 0.05101824 0.030365534 -0.100308955 0.0441227 -0.16910772
-0.10507739 -0.13768467 0.060623273 0.08617561 0.08547873 0.37102544 -0.09339082 -0.11177033
-0.042888332 0.019943742 -0.099895276 0.10710808 0.16160259 0.0775416 0.15966207 0.09544595
0.1322514 0.15010096 0.13823052 0.1866747 0.016163986 0.056645676 -0.119867705 0.07873666
-0.10573893 -0.095752135 0.007488616 0.0328708 -0.34157982 0.060677476 -0.10618851 -0.011147015
-0.1665274 -0.0848382 -0.32033017 0.1877054 -0.2690244 -0.32825702 0.107237585 0.12655556
-0.22861816 -0.20244479 0.08266781 0.018906696 -0.15114333 0.26476052 -0.0048588533 0.23033054
-0.03640537 -0.16331433 -0.016372604 -0.044513013 -0.039586306 0.076475464 0.013769304 -0.20141187
0.19979052 0.049043316 0.102639996 0.11528368 -0.118442066 0.048183385 0.039044004 -0.0012094642
0.09818102 -0.09269187 0.067594886 -0.25130025 -0.05930759 0.18106152 -6.470401e-05 0.1039268
0.07834395 0.097156025 -0.18157971 -0.22628935 -0.19345647 -0.14734901 -0.14305174 -0.17944019
0.048764855 0.103600316 -0.14882235 -0.11763816 -0.27192706 -0.07561751 0.154689 -0.05125529
0.16341558 0.1291199 0.2215157 0.047978487 0.1674446 0.086559035 0.03888656 -0.1322157
0.08585516 -0.036562283 -0.009055083 -0.24982041 -0.13082518 0.14091519 0.030138418 0.045702267
-0.16227789 0.19450124 -0.0925289 -0.09801246 -0.12112377 0.07116414 0.11526889 0.1663687
0.0909798 0.2558138 -0.19430657 -0.04551815 0.08504449 -0.10956589 -0.18122286 0.1318164
-0.040234957 0.15280937 0.21970405 0.010791059 0.0975492 -0.08789822 0.043974366 0.023521088
-0.10566269 -0.093564376 -0.2181623 0.04946961 -0.15726382 -0.10125151 -0.11506413 0.16587143
-0.008606625 -0.16073641 0.12245933 0.041665297 0.17742173 0.20645112 0.14791581 0.05915292
-0.21406618 -0.29983568 0.070929125 0.07295442 0.06496269 -0.11831815 -0.13432083 -0.17919871
0.1545204 0.19714114 -0.039121814 -0.0045382585 -0.18579413 -0.07442187 -0.1366767 0.19673997

fno_blocks.channel_mlp.1.fcs.0.bias f4 [16]
00000000: 54bf f73d 3886 71bd 20fe 413e dd72 aabd
00000010: 0ed5 58bd 5bfc f3bc d220 b23d 3d75 323e
00000020: 7d65 e4bd fd10 003e 6cd7 e23d 6f34 0fbe
00000030: 84b7 1dbe c6eb 463e 1f41 203e 5228 b53c
0.1209704 -0.05896589 0.18944597 -0.0832269 -0.05293756 -0.029783418 0.08697666 0.17427535
-0.1115217 0.1250648 0.11076245 -0.13984846 -0.15402037 0.19425878 0.15649842 0.022113953
