model_checkpoints_naca/naca_fno_final_r8.pth (torch, 169079 bytes, 35 tensors)

fno_blocks.convs.0.bias f4 [32, 1, 1]
00000000: 022c 153d 5d09 5b3d a935 c337 d428 00bc
00000010: 6c98 c0bc 0415 823d bd69 113c d893 683c
00000020: f192 1f3d ea16 f13d 444f 3e39 b973 cd39
00000030: 98fd 39bd 6d91 283d 95f2 1bb9 8829 93bc
00000040: c37e 1fbd abb6 47b7 6cc4 0fb8 6431 2237
00000050: d735 9e3c b3c1 4a3a 7dfd ff3c c346 8e3c
00000060: 243f 663c fba1 05bb 3a05 163c c7f1 80bc
00000070: de38 823b baf8 663c b1db c13d 75c5 033d
0.036418922 0.053475726 2.3270799e-05 -0.007822234 -0.02351018 0.06351665 0.008875308 0.014195405
0.038958494 0.11771949 0.00018149341 0.00039186867 -0.04540786 0.041154314 -0.00014872321 -0.01796414
-0.03893925 -1.1903855e-05 -3.427679e-05 9.667452e-06 0.019312782 0.0007734552 0.031248802 0.017367726
0.01405314 -0.0020390737 0.00915652 -0.015740288 0.0039740643 0.014097387 0.09465731 0.03217073

fno_blocks.convs.1.bias f4 [32, 1, 1]
00000000: aea0 10b0 0630 0080 1b71 0927 c1a3 0080
00000010: 90ee 1f31 99e4 ffb3 0a42 08a4 a08f 1427
00000020: 43aa 1a14 a66a 0480 0d4c 0080 90dd 3ba0
00000030: 7d1c 2da1 19bf 1a31 800f be14 2f49 42b6
00000040: 0d14 16a3 d834 228c 0689 eda6 774e 8219
00000050: 518e 0080 3d53 7335 a7fb 1aa6 1a67 0000
00000060: c3e1 e72c 041c 0e1c 084b be36 bd74 afa7
00000070: 5db9 f831 6b5b 822f bd8a 0000 1a30 2f1d
-5.2615234e-10 -1.7228e-41 1.9073884e-15 -5.8744e-41 2.3273152e-09 -1.19159445e-07 -2.9546236e-17 2.0616985e-15
7.808591e-27 -4.056e-40 -2.7282e-41 -1.5912825e-19 -5.8652384e-19 2.2518576e-09 1.9191211e-26 -2.8950851e-06
-8.135762e-18 -1.2495928e-31 -1.6482319e-15 1.3473377e-23 -5.1054e-41 9.064568e-07 -5.3770536e-16 3.6986e-41
6.5904795e-12 4.702007e-22 5.671176e-06 -4.8698825e-15 7.2388233e-09 2.371182e-10 4.977e-41 2.3185925e-21

fno_blocks.convs.2.bias f4 [32, 1, 1]
00000000: 0487 1896 2578 07b4 89a3 d7af 515f ee9d
00000010: 66db a42f 1b17 1e97 e4a8 09b0 f199 e5b5
00000020: ec35 4a1e 6b11 e7af 8240 4fb4 6a9c 6fb0
00000030: f4dc 4693 1baa 6936 5815 c435 9f77 87a2
00000040: 8543 3231 2dc2 7036 e987 d61b b629 4931
00000050: c1db 9f32 0d84 251e 3eb2 2232 10db 8730
00000060: 0d41 1b16 2d16 f09a ed71 6f11 6a6c 009c
00000070: e76e 46af 3aa1 18b4 e0d6 0133 06d7 a6b5
-1.2321066e-25 -1.2616563e-07 -3.922447e-10 -6.309663e-21 2.9987318e-10 -5.1081717e-25 -5.008032e-10 -1.7106632e-06
1.0704942e-20 -4.2031031e-10 -1.9301845e-07 -8.716997e-10 -2.5100052e-27 3.481872e-06 1.460935e-06 -3.6718477e-18
2.594079e-09 3.5875812e-06 3.549116e-22 2.927306e-09 1.8609969e-08 8.762335e-21 9.470169e-09 9.884804e-10
1.2541327e-25 -9.92975e-23 1.8888882e-28 -4.249177e-22 -1.8047396e-10 -1.4214757e-07 3.023058e-08 -1.2430544e-06

fno_blocks.convs.3.bias f4 [32, 1, 1]
00000000: 20b7 93b8 c536 2c34 d79c ccbb 7ee6 d6b5
00000010: 69ed 14b8 6d22 adb7 0e9a 1339 3350 48b5
00000020: 9bc5 ebb6 7a6f 0b37 0107 aeb7 606e 7538
00000030: 8443 57bd 9cf2 56b8 7fac a837 e31d 7bae
00000040: 4ba4 a83b 0a6c 16b3 234d 5ab9 b60d ba32
00000050: a84f acb8 815d 72b0 c891 a939 372d 0636
00000060: d1bf 1336 2ab6 49b9 cacb 0537 0074 a1a9
00000070: ab7d e337 4700 9db9 58ec 1d3b 3d1f 97b1
-7.043616e-05 1.6038673e-07 -0.0062442827 -1.6011325e-06 -3.5507055e-05 -2.0639238e-05 0.00014076402 -7.462251e-07
-7.02655e-06 8.311001e-06 -2.0745678e-05 5.8515347e-05 -0.052554622 -5.1247524e-05 2.0107485e-05 -5.7097337e-11
0.0051465384 -3.5022858e-08 -0.00020818836 2.1659485e-08 -8.216436e-05 -8.8171964e-10 0.00032342807 1.9993875e-06
2.2016359e-06 -0.00019236715 7.974866e-06 -7.169959e-14 2.7119027e-05 -0.0002994558 0.002409717 -4.39823e-09

fno_blocks.fno_skips.0.conv.weight f4 [32, 32, 1]
00000000: e7b4 813d 666a f13c a7c6 373d 453d 893d
00000010: 9ba7 9437 9a2c b93b 74c9 2ebd 9d8b 2db8
00000020: a2e6 77b8 776d 063c ff94 4c3d 49e9 bc38
00000030: 408c 313c 0409 bbbd 5ffb bd3d 3129 a23c
00000040: a9d5 9bbb f068 edb9 1cce ab3d 80b4 0cbd
00000050: f475 843c 9dbb 3bba 7403 e0bc 68e7 75bc
00000060: efef 193d db24 dcb7 da54 0ebd 340d 11bd
00000070: ee75 103d 8a97 5b3c 0627 32bc 2730 22bd
00000080: a93d eb3c 3511 9cbc 824b 423c c6cb a8bc
00000090: 62bf 7836 7fa2 9138 d294 f9bc 3100 1cb6
000000a0: 331f 34b8 7b45 883c 759d 1f3d bf2b 8f38
000000b0: 531e ea3a ce6a 08bd 5603 9ebc 40b8 8dbc
000000c0: f368 91bd 9ff3 863c 2764 973c f60e 6fbc
000000d0: 708e dc3b 1ab9 aeb9 c989 43bc 71d4 8cbb
000000e0: 6389 a33c 5b87 f3b7 526e 21bc 85cb 9dbc
000000f0: fbb7 75bc 5835 493c 1f62 7dbb 066e d7bc
00000100: 46c6 d9b4 ae2e 55b7 1d2a 82b6 2b20 7fb7
00000110: 8fd8 8a31 f887 adb5 e927 aa35 cdc4 2234
00000120: 71cf 92b2 74da 4e37 d5e4 6637 d608 1f33
00000130: 935e 76b6 f30d 59b6 5476 ffb6 8f46 7135
00000140: cb1e d0b7 28ca ad34 c842 dfb6 7ca6 e936
00000150: 3396 14b6 c8cb 28b4 8dc0 42b4 5b64 a736
00000160: a252 9db6 f922 a6b3 e89a 8936 95bd 4836
00000170: 0f66 3eb7 c6f3 3ab5 0ae2 8f36 9a13 cab5
00000180: 9a8e b53b 8268 23bd a982 c0bc 20ad 2dbd
00000190: 3d1f ae35 8dd2 90bb 0fe8 a6ba 4d95 ac38
000001a0: 1a74 9137 1832 c23c 1a54 393d 5dc3 3639
000001b0: 7696 bcbb c2c7 373c c4b4 87bd d4a9 23bd
000001c0: e565 25be 9f4e b43c bfd9 92bb b898 c13b
000001d0: d906 a0bb 7822 0f3a bb15 b83b c5cf ab3b
000001e0: 5c59 9d3c 6ac1 95b7 f496 7d3c cae4 cc3b
000001f0: d6b7 11bd f321 753b 9a21 453b b546 c7bb
00000200: 7138 01be e982 56bc 7e63 9cbd c911 6abd
00000210: fc38 40b7 878c 75bb a7bf d63d 46d2 e3b9
00000220: f5d5 4338 e3bf 32bd 96e6 08be a025 34b9
00000230: 87cc 2bbc a273 3e3e d7af eebd 5fa4 463c
00000240: 11c3 313e c29d 8bbc 67ac 1fbe 64da 993d
00000250: 402b b8bc 4a2f 3b3a 14c0 323d 6ee4 973c
00000260: c407 98bd e848 a5b5 b5bc 5f3d e67b 913d
00000270: d2ba 18bd 3fe4 d1bc 3d95 5a3c 3212 af3d
00000280: cea7 65bc d15f 3cbd af11 9cbc 589a bcbd
00000290: d09e 29b8 d593 7fbb 48dd 5a3b 41bb 0b39
000002a0: 0fbc 5238 24f3 5a3c cf7f d73c f222 80b9
000002b0: 5c34 c1bb 0351 483b 114c 4bbd 997e 24bc
000002c0: 6aa8 5ebd be01 323c e821 e0bc da84 393c
000002d0: 523a a7bb 538b 423a a196 2a3c c2d2 003c
000002e0: ef24 6ebc 9e49 b938 6f23 643c dc75 d33b
000002f0: 4e69 babc 123c 8139 90f9 b33b c612 fe3b
00000300: d9f2 20be 6a2b 723d 5d54 39be e070 1a3e
00000310: 48a1 6036 0eb8 6cbc e7bb 813e bd89 e938
00000320: 84cc d538 929e c8bd 39d0 58be 5816 0f39
00000330: 71e1 03bd 0c75 9a3e 3858 c4bd 97b2 0fbd
00000340: dafe 763e 659c 77bd 896b 2bbe 0e1e 143e
00000350: b3e0 72bd b878 113b 4814 a23d 25a1 5f3d
00000360: c550 c63c cb7e 7738 d2c7 1c3e bb7b 393e
00000370: 358d ef3c 6412 6fbd 9532 1e3d db26 063e
00000380: ba78 cf3c 64cb 38bd bfda 893c 5e81 5a3c
00000390: e7a9 5bb4 91a8 e9ba 4d53 1bbd 54ac 8e38
000003a0: 25f4 d737 1ded b03c f12e 463d 919e b238
000003b0: 7de5 3c39 6bc7 f7bc 9474 2abd cc81 61bc
000003c0: 4612 e5bd bd06 983c 3e04 5d3d 8e09 0abc
000003d0: a2dd b63b 7a34 e639 1564 f4bb 6ae0 97bb
000003e0: 0123 2ebd 8eb8 a5b8 e014 6fbc ca8a c4bc
000003f0: 2dff 05bd 9154 3c3c 6b6c 62bb d8cf 82bc
0.063333325 0.02946968 0.044867184 0.06701139 1.7721022e-05 0.005651069 -0.04267259 -4.137644e-05
-5.9104183e-05 0.008204809 0.04994678 9.007991e-05 0.010836661 -0.09132579 0.09276461 0.019795032
-0.004755695 -0.00045282347 0.083889216 -0.034351826 0.016169526 -0.00071614404 -0.027345397 -0.015008785
0.037582334 -2.6243206e-05 -0.03474889 -0.035412982 0.035268717 0.013402829 -0.010873562 -0.039596703
0.028715925 -0.019051174 0.011858823 -0.02060498 3.706628e-06 6.944406e-05 -0.03046647 -2.3245923e-06
-4.29444e-05 0.016634693 0.038968522 6.82692e-05 0.001786182 -0.033304982 -0.0192887 -0.017299771
-0.071000956 0.01647359 0.018480374 -0.014590969 0.006730847 -0.00033325778 -0.011934706 -0.004297786
0.019962972 -2.9030887e-05 -0.009852963 -0.019262085 -0.014997478 0.012280785 -0.003866322 -0.02629758
-4.0563663e-07 -1.2706658e-05 -3.8792045e-06 -1.5206674e-05 4.0409485e-09 -1.2929077e-06 1.2677602e-06 1.5159021e-07
-1.709097e-08 1.2329419e-05 1.3762347e-05 3.702811e-08 -3.6711906e-06 -3.234364e-06 -7.6133674e-06 8.988217e-07
-2.4809871e-05 3.237085e-07 -6.6536923e-06 6.9633224e-06 -2.2141146e-06 -1.5720354e-07 -1.8137708e-07 4.9886708e-06
-4.6885843e-06 -7.736339e-08 4.1009516e-06 2.9912674e-06 -1.1348645e-05 -6.9645137e-07 4.2880465e-06 -1.5055878e-06
0.005540681 -0.03989459 -0.023499804 -0.042401433 1.2973102e-06 -0.004419631 -0.0012733954 8.2294086e-05
1.7339411e-05 0.023705527 0.04524622 0.00017429651 -0.005755241 0.01121706 -0.06626275 -0.039956883
-0.16152151 0.022010146 -0.0044815238 0.005908098 -0.004883629 0.00054601533 0.005617825 0.005243274
0.019207649 -1.785225e-05 0.015477885 0.0062528597 -0.03557571 0.0037404269 0.0030079843 -0.006081427
-0.12619187 -0.013092735 -0.07636164 -0.057145867 -1.14573595e-05 -0.0037467794 0.104857735 -0.0004345348
4.6690886e-05 -0.04364003 -0.13369212 -0.00017180154 -0.010485775 0.18598798 -0.116546325 0.01212415
0.17359568 -0.017042998 -0.1559311 0.07512358 -0.02248156 0.00071405305 0.04364021 0.018541541
-0.07423356 -1.2314676e-06 0.054623324 0.0710371 -0.03728754 -0.025621532 0.013341245 0.08548392
-0.014017059 -0.045989815 -0.019051401 -0.09209126 -4.0440646e-05 -0.0038998027 0.0033396054 0.0001332583
5.0243045e-05 0.013363633 0.026306061 -0.000244401 -0.0058961343 0.0030565865 -0.04963309 -0.010039949
-0.05435983 0.010864673 -0.027359918 0.011323178 -0.005103388 0.00074212736 0.010411889 0.007862749
-0.014535173 8.8352e-05 0.013924464 0.006453259 -0.022755291 0.00024649553 0.0054923967 0.007753703
-0.15717639 0.059123434 -0.18098588 0.15082121 3.347248e-06 -0.014448179 0.2533867 0.000111359615
0.000101947255 -0.0979587 -0.2117318 0.00013645866 -0.03219742 0.30167425 -0.09587139 -0.035082426
0.24120656 -0.060451884 -0.1674024 0.1446459 -0.05929632 0.0022197198 0.079140246 0.05459704
0.024208436 5.9007474e-05 0.153106 0.18113606 0.029242137 -0.058367148 0.038622458 0.1310076
0.025326122 -0.045115843 0.01682794 0.013336508 -2.0457774e-07 -0.0017826726 -0.03792124 6.803186e-05
2.5743686e-05 0.02159744 0.04838461 8.517237e-05 0.00018014568 -0.030246457 -0.041615084 -0.013763856
-0.11185126 0.0185579 0.053959124 -0.00842513 0.00558062 0.00043908117 -0.00745822 -0.0046349065
-0.04251385 -7.902189e-05 -0.014592379 -0.023991961 -0.032714058 0.011494772 -0.0034549485 -0.015968248

fno_blocks.fno_skips.1.conv.weight f4 [32, 32, 1]
00000000: 958d 0000 858b 0000 4201 30b0 598d 0080
00000010: 2389 0080 74cb 892c 0a8e 0080 c28b 0000
00000020: 958c 0080 da9b b7af 9c4e 9cb0 b189 0000
00000030: 908d 0080 1431 8830 9b52 63b1 6678 ba30
00000040: f430 bdb0 2624 0000 059e 0080 0d6b 81b0
00000050: e88c 0000 5189 0080 d98b 0080 df8b 0000
00000060: 8896 0000 7d8b 0080 748c 0080 c08c 0000
00000070: 5f8b 0000 ce89 0000 8589 0080 be88 0000
00000080: f38c 0000 8889 0080 9e97 0000 8c8a 0000
00000090: 5c8d 0000 538e 0000 7d9c 0080 0499 0000
000000a0: 658c 0000 ff6e 0080 311d 0080 6a8f 0000
000000b0: b16a 0000 c58b 0000 643c 0000 5a11 0000
000000c0: 8f1c 0000 dda7 0080 708a 0000 2b8b 0000
000000d0: 1470 0080 ce47 0080 2f8e 0080 c089 0000
000000e0: e08c 0080 df88 0000 df8d 0080 998e 0000
000000f0: 3f8e 0000 ad93 0080 f28c 0080 d51d 0000
00000100: 2189 0000 e38d 0080 761d d525 dc8c 0080
00000110: 6b8b 0080 518c 7723 b38c 0080 b59a 0080
00000120: b28c 0080 eae8 2426 2312 5127 bc8b 0000
00000130: 988c 0000 a2bf 4ca6 9049 ea27 2643 3026
00000140: 11d3 a027 118b 0080 3e89 0000 1bf3 6227
00000150: b08a 0000 b58a 0000 0d98 0000 c08c 0080
00000160: 608b 0080 9689 0080 13a9 0080 d589 0000
00000170: 928a 0000 078c 0000 1889 0080 319c 0080
00000180: e08e 0080 a98e 0000 8d2c 0000 888a 0000
00000190: 178d 0000 5e99 0080 f878 0080 56a3 0000
000001a0: 898a 0000 a2ef 0000 5e2a 0080 468a 0080
000001b0: d78d 0080 2c52 0080 d520 0100 7ad6 0080
000001c0: c41a 0000 e78a 0080 2889 0000 8228 0000
000001d0: 5c8c 0000 198a 0080 828a 0000 2489 0080
000001e0: 638a 0080 858a 0080 8090 0000 8f8c 0080
000001f0: 098d 0080 178b 0000 d68c 0080 f989 0080
00000200: 52a8 0000 628b 0080 755c 0e30 c688 0000
00000210: ce8c 0080 bd52 f82c 818f 0000 ff89 0000
00000220: 6b8e 0080 eb8f 1430 bc58 5031 b988 0000
00000230: 2c8a 0000 ac54 79b0 4628 e831 a383 d330
00000240: 9381 9331 3689 0080 0c8b 0000 f8ad 9331
00000250: 0d89 0080 e689 0000 168a 0000 e588 0000
00000260: f08a 0000 d79d 0000 8990 0000 a59b 0080
00000270: d28a 0000 0089 0000 b38c 0080 0a89 0000
00000280: 8b8c 0000 698a 0080 2579 cab3 728c 0080
00000290: ea89 0080 2cbf 8a31 fe0f 0000 538b 0000
000002a0: 1b89 0080 ea30 b1b2 f42e aeb4 af89 0080
000002b0: 6b8d 0000 7fd0 d634 9ff0 feb4 ffc6 5f35
000002c0: 27ed ad33 5d89 0080 8a8a 0000 7ae6 8e34
000002d0: 778c 0080 c189 0080 9889 0000 fea5 0080
000002e0: 408a 0000 f889 0080 44ac 0000 7091 0080
000002f0: 208e 0080 ec88 0080 258e 0080 1289 0080
00000300: 968d 0080 db9a 0000 2f43 4ea3 ad3a 0080
00000310: ce8a 0000 2b9b ea20 7b8b 0080 ec8e 0080
00000320: f488 0000 7535 4623 6a71 32a4 de18 0080
00000330: 028c 0000 99fb 9723 56bb 90a4 1708 0324
00000340: f7d2 fda3 b453 0000 998f 0000 2262 94a3
00000350: 0896 0080 bc89 0080 0f8c 0000 449c 0000
00000360: 6390 0000 0789 0000 2c8f 0000 f588 0080
00000370: bc95 0080 d389 0000 306a 0000 f98f 0080
00000380: ba95 0000 db8c 0000 73cf 8c25 fa03 0080
00000390: 577f 0080 5b93 9b22 4b9c 0080 288a 0080
000003a0: bc8a 0080 2cd9 ce25 4c77 3327 a265 0080
000003b0: 6793 0080 c882 85a6 9a2b ab27 e709 0b27
000003c0: ef8a 4527 738e 0080 9d8a 0080 b813 6027
000003d0: 9c8f 0080 6d8c 0000 c58d 0080 678d 0080
000003e0: e188 0080 e890 0080 38a0 0080 8089 0080
000003f0: ed8a 0080 af8d 0080 6d8c 0080 c391 0080
5.079e-41 5.005e-41 -6.4030214e-10 -5.0706e-41 -4.9195e-41 3.916362e-12 -5.0954e-41 5.0136e-41
-5.0431e-41 -3.3398245e-10 -1.1372836e-09 4.9394e-41 -5.0783e-41 9.909251e-10 -3.3079803e-09 1.35675e-09
-1.3765473e-09 1.2968e-41 -5.6687e-41 -9.416411e-10 5.0548e-41 -4.926e-41 -5.0168e-41 5.0176e-41
5.4e-41 -5.0039e-41 -5.0385e-41 5.0492e-41 4.9997e-41 4.9435e-41 -4.9333e-41 4.9054e-41
5.0563e-41 -4.9337e-41 5.439e-41 4.9701e-41 5.071e-41 5.1056e-41 -5.6137e-41 5.4892e-41
5.0364e-41 -3.9818e-41 -1.0472e-41 5.1447e-41 3.8274e-41 5.014e-41 2.1664e-41 6.225e-42
1.0245e-41 -6.0218e-41 4.9662e-41 4.9924e-41 -4.0206e-41 -2.5759e-41 -5.1006e-41 4.9415e-41
-5.0536e-41 4.91e-41 -5.0894e-41 5.1154e-41 5.1028e-41 -5.2976e-41 -5.0562e-41 1.0702e-41
4.9193e-41 -5.09e-41 3.6969574e-16 -5.0531e-41 -5.0014e-41 1.341961e-17 -5.0473e-41 -5.5498e-41
-5.0472e-41 5.721459e-16 2.9014408e-15 5.0127e-41 5.0436e-41 -7.103643e-16 6.5027804e-15 6.115327e-16
4.463776e-15 -4.9888e-41 4.9233e-41 3.1495588e-15 4.9752e-41 4.9759e-41 5.4546e-41 -5.0492e-41
-4.9998e-41 -4.9357e-41 -6.0652e-41 4.9445e-41 4.971e-41 5.0232e-41 -4.918e-41 -5.6031e-41
-5.1254e-41 5.1177e-41 1.5982e-41 4.9696e-41 5.0613e-41 -5.5018e-41 -4.3395e-41 5.8594e-41
4.9697e-41 8.5964e-41 -1.5198e-41 -4.9603e-41 -5.0883e-41 -2.9478e-41 1.03613e-40 -7.694e-41
9.602e-42 -4.9829e-41 4.9202e-41 1.4531e-41 5.0351e-41 -4.954e-41 4.9687e-41 -4.9197e-41
-4.9644e-41 -4.9691e-41 5.1837e-41 -5.0423e-41 -5.0594e-41 4.9896e-41 -5.0522e-41 -4.9495e-41
6.0382e-41 -5.0001e-41 5.179069e-10 4.9065e-41 -5.0511e-41 7.0577697e-12 5.148e-41 4.9504e-41
-5.109e-41 5.4046606e-10 3.0318423e-09 4.9047e-41 4.9567e-41 -9.0706e-10 6.7566672e-09 1.5389684e-09
4.292994e-09 -4.9222e-41 4.988e-41 4.298041e-09 -4.9165e-41 4.9469e-41 4.9536e-41 4.9109e-41
4.9841e-41 5.6622e-41 5.185e-41 -5.5835e-41 4.98e-41 4.9146e-41 -5.0473e-41 4.916e-41
5.0417e-41 -4.9652e-41 -9.428394e-08 -5.0382e-41 -4.9474e-41 4.0380623e-09 5.737e-42 4.998e-41
-4.9184e-41 -2.0627756e-08 -3.2444188e-07 -4.9392e-41 5.0731e-41 4.0012307e-07 -4.7486262e-07 8.336355e-07
8.099078e-08 -4.9277e-41 4.9698e-41 2.6617255e-07 -5.0389e-41 -4.9417e-41 4.936e-41 -5.9547e-41
4.9595e-41 -4.9494e-41 6.1797e-41 -5.2173e-41 -5.0985e-41 -4.9118e-41 -5.0992e-41 -4.9172e-41
-5.0791e-41 5.5552e-41 -1.1181509e-17 -2.1049e-41 4.9794e-41 3.9743823e-19 -5.0036e-41 -5.1271e-41
4.913e-41 1.07449215e-17 -3.8693663e-17 -8.92e-42 5.0225e-41 1.6478009e-17 -6.2767405e-17 2.841295e-17
-2.7519662e-17 3.0027e-41 5.1513e-41 -1.6087753e-17 -5.3821e-41 -4.941e-41 5.0244e-41 5.6058e-41
5.1796e-41 4.9156e-41 5.136e-41 -4.9131e-41 -5.3715e-41 4.9442e-41 3.8093e-41 -5.1648e-41
5.3712e-41 5.053e-41 2.4426702e-16 -1.427e-42 -4.5681e-41 4.2168853e-18 -5.6067e-41 -4.9561e-41
-4.9769e-41 3.5882465e-16 2.4905911e-15 -3.6459e-41 -5.2878e-41 -9.264177e-16 4.7509307e-15 1.9295493e-15
2.7414558e-15 -5.1101e-41 -4.9725e-41 3.1096934e-15 -5.1517e-41 5.0375e-41 -5.0857e-41 -5.0726e-41
-4.9103e-41 -5.1983e-41 -5.7476e-41 -4.9326e-41 -4.9837e-41 -5.0826e-41 -5.0375e-41 -5.229e-41

fno_blocks.fno_skips.2.conv.weight f4 [32, 32, 1]
00000000: d592 0000 2b90 0080 7d8d 6b16 668f 0000
00000010: 5398 0080 5b37 6015 1f9b 0080 c398 0080
00000020: 6191 0080 2610 ef15 0b41 0a95 718a 0000
00000030: ca8d 0000 2266 4696 597f 1997 a945 b096
00000040: 9a6f 9d96 558e 0080 0364 0080 6d8c 9796
00000050: 7e89 0000 4c99 0000 8590 0000 6990 0080
00000060: 1b89 0080 3b8c 0080 1b97 0080 838d 0080
00000070: 728c 0000 528c 0000 f19f 0080 ada7 0000
00000080: 248a 0080 518f 0000 c45e d635 bb8d 0000
00000090: d08e 0000 8587 3e34 ea8f 0080 e28b 0080
000000a0: c28d 0000 d9e3 4535 df0f 9335 b98b 0080
000000b0: 2f8d 0000 8c39 74b5 6bec 2c36 111f 51b6
000000c0: 63d0 e235 188b 0000 8989 0000 ce59 06b5
000000d0: de8d 0080 a38a 0000 c28a 0080 d78c 0000
000000e0: a48c 0000 f104 0000 488e 0000 df88 0000
000000f0: 3191 0080 c88a 0000 2899 0080 9989 0080
00000100: 5490 0000 d78b 0000 512c b42f ee8a 0000
00000110: 8689 0000 2ccc 512e 5998 0000 a993 0080
00000120: bb8d 0000 bd63 212f 88b3 8caf 5b8a 0080
00000130: 1394 0080 693b 8aaf 30c4 e2ac 2f07 4fb0
00000140: 2930 15b0 168d 0000 4489 0000 3032 0eb0
00000150: b393 0000 f38c 0080 e48d 0080 cc31 0080
00000160: d08a 0080 e68b 0080 bf8a 0080 6c8a 0000
00000170: 6f8f 0080 028b 0000 a599 0000 ef89 0000
00000180: 9c97 0000 d68e 0000 3a58 111e f2a2 0080
00000190: a4a7 0000 7d6d 121d e39b 0000 2aaa 0000
000001a0: 4598 0080 6f37 b01d 4129 d59d 418a 0000
000001b0: 668f 0080 f54a 0b9e eefc 619e 175f 789e
000001c0: b502 669e dcaa 0000 aca6 0000 2ff7 f49d
000001d0: 93a6 0000 c6aa 0080 668a 0000 e08d 0080
000001e0: db90 0000 a88f 0000 a396 0080 c39c 0000
000001f0: 6d8d 0080 fa88 0080 e494 0080 aa91 0080
00000200: 1e8b 0000 6793 0000 4bfa 8eaf 3291 0000
00000210: df8e 0000 8967 24ae 3f9c 0080 4997 0080
00000220: 268a 0000 49c5 d9ae 0a80 0f2f f389 0080
00000230: e289 0000 47ab 592f 7297 00af ec17 2630
00000240: 4c24 e62f e289 0080 364d 0000 62fe d82f
00000250: 7b8a 0000 3a89 0000 438b 0080 7a98 0080
00000260: e48f 0080 718a 0000 f791 0000 8c8f 0080
00000270: a49d 0080 b78a 0000 4cac 0000 b789 0000
00000280: d8a1 0080 d297 0000 7df9 4417 4d92 0000
00000290: 43a9 0000 1fa4 b515 96a0 0000 ba7d 0000
000002a0: 6090 0080 b201 0d16 38a7 dd96 5f92 0080
000002b0: 0295 0000 65ae 0d97 0fa3 8f93 66f1 9497
000002c0: 4421 5e97 d877 0080 8413 0000 379f 4397
000002d0: 27a8 0080 438a 0080 c990 0080 1a93 0080
000002e0: 8daf 0080 3f95 0000 278b 0080 e49f 0000
000002f0: 6d91 0000 2191 0080 cf96 0000 b78b 0080
00000300: 4f8e 0080 7a8b 0000 5349 6d30 768c 0080
00000310: 888e 0080 d991 da2e 8d92 0000 038d 0080
00000320: 2592 0080 5261 842f 42a5 8e2f c888 0080
00000330: d18e 0000 99ac 19b0 766a 4830 0a95 eeb0
00000340: 351c 43b0 298a 0080 de95 0080 46d9 55b0
00000350: 288e 0000 1a89 0080 1c8b 0080 4193 0080
00000360: 1f8c 0000 a28e 0000 3e96 0080 b08a 0080
00000370: 708b 0000 3289 0000 bc90 0080 158a 0000
00000380: f593 0080 8e96 0080 7343 9f35 a595 0080
00000390: 158d 0080 864a fd34 909a 0000 338a 0080
000003a0: ce90 0080 c6cc df35 34d3 8d34 778a 0080
000003b0: b399 0080 36dc 16b5 d9b7 ddb6 0489 d5b5
000003c0: 3742 21b6 758b 0000 159b 0000 d1fd dfb3
000003d0: 4e8e 0080 0d8a 0080 0089 0080 6c9a 0000
000003e0: bd7d 0000 778b 0080 ab9d 0080 538c 0000
000003f0: d88a 0080 1d8b 0000 8389 0000 bd8b 0000
5.2673e-41 -5.1718e-41 1.9027795e-25 5.1442e-41 -5.4644e-41 4.5280108e-26 -5.5647e-41 -5.48e-41
-5.2152e-41 9.655681e-26 -2.7920188e-26 4.9663e-41 5.0864e-41 -1.602654e-25 -4.95977e-25 -2.8478295e-25
-2.5435148e-25 -5.1059e-41 -3.5877e-41 -2.4483987e-25 4.9323e-41 5.4993e-41 5.1844e-41 -5.1805e-41
-4.9184e-41 -5.0305e-41 -5.4206e-41 -5.0765e-41 5.0382e-41 5.0337e-41 -5.7376e-41 6.0151e-41
-4.9556e-41 5.1412e-41 1.5971823e-06 5.0843e-41 5.1231e-41 1.774443e-07 -5.1627e-41 -5.018e-41
5.0853e-41 7.371978e-07 1.0956973e-06 -5.0123e-41 5.0647e-41 -9.0980825e-07 2.576761e-06 -3.116151e-06
1.6898961e-06 4.9897e-41 4.9338e-41 -5.0049573e-07 -5.0892e-41 4.9733e-41 -4.9777e-41 5.0524e-41
5.0452e-41 1.773e-42 5.1041e-41 4.91e-41 -5.2085e-41 4.9785e-41 -5.4942e-41 -4.9361e-41
5.1775e-41 5.0165e-41 3.2773298e-10 4.9839e-41 4.9334e-41 4.770244e-11 5.4652e-41 -5.297e-41
5.0843e-41 1.4678299e-10 -2.5593416e-10 -4.9633e-41 -5.3119e-41 -2.5144267e-10 -6.4450875e-12 -7.531637e-10
-5.4274324e-10 5.0612e-41 4.9242e-41 -5.173062e-10 5.2984e-41 -5.0563e-41 -5.0901e-41 -1.7864e-41
-4.9797e-41 -5.0186e-41 -4.9773e-41 4.9656e-41 -5.1454e-41 4.9867e-41 5.5117e-41 4.9481e-41
5.4387e-41 5.124e-41 7.694481e-21 -5.8454e-41 6.0138e-41 1.9379543e-21 5.5922e-41 6.1043e-41
-5.4624e-41 4.664413e-21 -5.6423286e-21 4.9596e-41 -5.1442e-41 -7.3740995e-21 -1.19637055e-20 -1.3148675e-20
-1.21766584e-20 6.1293e-41 5.979e-41 -6.4841844e-21 5.9756e-41 -6.1262e-41 4.9648e-41 -5.0895e-41
5.1964e-41 5.1534e-41 -5.4038e-41 5.6236e-41 -5.0734e-41 -4.9138e-41 -5.3412e-41 -5.2254e-41
4.9906e-41 5.2878e-41 -2.6007493e-10 5.2086e-41 5.1252e-41 -3.738124e-11 -5.605e-41 -5.4271e-41
4.9558e-41 -9.9030624e-11 1.3051263e-10 -4.9487e-41 4.9463e-41 1.9796885e-10 -1.1695336e-10 6.0424443e-10
4.1862547e-10 -4.9463e-41 2.7698e-41 3.947092e-10 4.9677e-41 4.9228e-41 -4.9958e-41 -5.4698e-41
-5.1618e-41 4.9663e-41 5.2362e-41 -5.1495e-41 -5.6551e-41 4.9762e-41 6.1808e-41 4.9403e-41
-5.8059e-41 5.4463e-41 6.3645914e-25 5.2483e-41 6.072e-41 7.3364255e-26 5.7607e-41 4.5102e-41
-5.1792e-41 1.1390424e-25 -3.5810006e-25 -5.2508e-41 5.3454e-41 -4.5779674e-25 -3.6259063e-27 -9.625213e-25
-7.1774056e-25 -4.2992e-41 7.001e-42 -6.3208856e-25 -6.0322e-41 -4.9599e-41 -5.1939e-41 -5.277e-41
-6.2976e-41 5.354e-41 -4.9918e-41 5.7358e-41 5.2169e-41 -5.2062e-41 5.41e-41 -5.012e-41
-5.1051e-41 5.0035e-41 8.63243e-10 -5.0388e-41 -5.113e-41 9.9394e-11 5.2573e-41 -5.0585e-41
-5.2427e-41 2.407981e-10 2.5947072e-10 -4.9068e-41 5.1233e-41 -5.590635e-10 7.2910866e-10 -1.7359139e-09
-7.098067e-10 -4.9563e-41 -5.3762e-41 -7.779771e-10 5.0996e-41 -4.9183e-41 -4.9903e-41 -5.2825e-41
5.0266e-41 5.1167e-41 -5.3897e-41 -4.9752e-41 5.0021e-41 4.9216e-41 -5.1921e-41 4.9534e-41
-5.3077e-41 -5.4009e-41 1.1866053e-06 -5.3682e-41 -5.061e-41 4.7179145e-07 5.5447e-41 -4.9577e-41
-5.1946e-41 1.6674392e-06 2.6416967e-07 -4.9672e-41 -5.5137e-41 -5.6199804e-07 -6.607716e-06 -1.5909613e-06
-2.4029412e-06 5.0028e-41 5.5633e-41 -1.04304156e-07 -5.105e-41 -4.9523e-41 -4.9146e-41 5.5396e-41
4.5106e-41 -5.003e-41 -5.656e-41 5.0339e-41 -4.9808e-41 4.9904e-41 4.933e-41 5.0129e-41

fno_blocks.fno_skips.3.conv.weight f4 [32, 32, 1]
00000000: 6790 0080 5b26 49a5 83f1 96b9 7189 0080
00000010: aeee 0a00 5d32 0438 3bcf 9b2a 0e94 0080
00000020: 7896 0000 6378 79b7 ba4d 8537 5b89 0080
00000030: c692 0000 1225 5eb8 cbf7 84b9 0c1a 5bb7
00000040: 5c3a ccb8 2f8b 0000 408a 0080 5178 ffb9
00000050: 0298 0000 678a 0080 3689 0080 0cac 0080
00000060: 898f 0000 988e 0080 a492 0080 489c 0000
00000070: 3290 0000 888c 0080 9899 0000 378e 0000
00000080: 6189 0080 693b 269f d13e dfb3 6c8e 0080
00000090: 748d 0000 8c42 bb31 8594 46a5 a789 0080
000000a0: 028a 0080 cdf9 4730 e17c 8a33 f888 0080
000000b0: 0d8b 0080 8913 60b2 7b5a 08b5 ff3a 4132
000000c0: 1312 fcb2 2f8c 0080 4489 0080 c4e7 16b5
000000d0: 9690 0080 ec89 0000 0089 0000 ef8b 0000
000000e0: 1fab 0000 da89 0080 8d89 0000 ba89 0080
000000f0: bb8a 0080 9089 0000 238d 0080 e58b 0000
00000100: 4c9a 0000 d5a5 05a7 b385 b7ba 038b 0000
00000110: fb43 7b80 cc46 3938 0d67 1c2b f49f 0000
00000120: 9e89 0080 8fd2 9a3a 34e2 4bbb 888a 0080
00000130: 209f 0080 afe3 7e39 07cd 363b 5d25 22bc
00000140: 0bc1 ce3b e18c 0300 4a89 0080 4153 2cbc
00000150: ec8a 0080 9b89 0000 25ae 0080 6ca6 0080
00000160: bea2 0080 d68b 0080 c289 0000 e189 0000
00000170: a98b 0080 6e89 0000 5889 0000 f08a 0000
00000180: af8c 0000 5530 79a1 8d84 6bb5 3b92 0080
00000190: 5389 0080 a363 8a33 c309 3127 218b 0080
000001a0: d389 0080 6237 a134 59e3 3eb5 c188 0000
000001b0: 2a9d 0000 6b04 fdb3 d341 1236 61e3 f0b4
000001c0: b72e ebb4 688d 0000 4489 0000 47dd 8035
000001d0: 0ba3 0080 e088 0000 ee8b 0000 25a2 0000
000001e0: 9b90 0080 998b 0000 228d 0000 a98e 0080
000001f0: a38a 0000 da88 0080 1693 0080 dd89 0080
00000200: f9a7 0080 bf3c 4ea3 faa4 6ab5 c69b 0000
00000210: 20c6 0200 570e 1032 5d4c df28 c299 0000
00000220: b78c 0080 2cd1 b736 ee23 0537 168b 0000
00000230: 458b 0080 2fd2 7635 3307 75b6 493c d738
00000240: c66a 89b7 de8b 0000 168c 0080 2a94 c2b8
00000250: 219b 0080 e18d 0000 4c8c 0000 d18c 0080
00000260: d392 0080 f990 0000 3494 0000 2090 0080
00000270: 3a8c 0080 b18d 0000 ab93 0000 738d 0000
00000280: 8289 0000 52af d6a4 d71f 02b8 ae90 0080
00000290: 5e65 0100 6c4f 1d37 8d37 152a a48f 0080
000002a0: 6289 0000 4aa4 9638 2afc 5db8 ed89 0000
000002b0: b28b 0000 2593 8437 68c8 bcb9 d947 adb8
000002c0: e22f 30b8 9a8a 0080 6d89 0080 352d 82b9
000002d0: 978f 0080 928a 0000 f68b 0000 cd88 0080
000002e0: aa8f 0000 a29b 0080 4589 0000 178a 0000
000002f0: 1a89 0000 ed88 0000 b389 0000 c28c 0080
00000300: 058c 0080 8241 f423 1e4f 6138 3d97 0080
00000310: 8b84 0380 9835 43b6 a271 a7a8 a38f 0000
00000320: 3a8e 0000 bf4b 1a37 29de 99b7 0a99 0080
00000330: ad89 0080 8a18 5635 394c e0b8 0488 933a
00000340: e00d f7b8 3f89 0000 3e89 0000 f93e 30b8
00000350: 948a 0080 968a 0080 488e 0080 d88e 0000
00000360: 8c8a 0080 9589 0000 0c8a 0000 728b 0000
00000370: 3589 0080 7389 0000 d58b 0080 fc88 0000
00000380: 8598 0000 ca3f a9a0 e4d2 a2b2 2291 0080
00000390: 399b 0080 afdb 8c31 0ed8 4526 519d 0000
000003a0: f29b 0000 f11e 1f34 9751 cbb2 f288 0080
000003b0: c38f 0080 93fe 2733 2a9f c134 3204 1636
000003c0: b42e 89b4 8e8e 0000 a38a 0000 0e48 29b6
000003d0: 34a4 0080 2d8b 0080 3996 0000 f38a 0080
000003e0: 539e 0000 5c8e 0080 83ae 0000 e89d 0080
000003f0: ed92 0000 908a 0000 44a7 0080 288d 0000
-5.1802e-41 -1.7446966e-16 -0.0002879017 -4.9305e-41 1.003977e-39 3.1518157e-05 2.7677326e-13 -5.3112e-41
5.3978e-41 -1.4869586e-05 1.589103e-05 -4.9274e-41 5.2652e-41 -5.296345e-05 -0.00025361622 -1.3059482e-05
-9.738348e-05 4.993e-41 -4.9595e-41 -0.00048727033 5.453e-41 -4.965e-41 -4.9222e-41 -6.1719e-41
5.1491e-41 -5.1153e-41 -5.2605e-41 5.6063e-41 5.1728e-41 -5.0413e-41 5.5099e-41 5.1017e-41
-4.9282e-41 -3.520101e-20 -1.0395673e-07 -5.1091e-41 5.0744e-41 5.449982e-09 -1.7224083e-16 -4.938e-41
-4.9508e-41 7.2750767e-10 6.448841e-08 -4.9135e-41 -4.9882e-41 -1.3042958e-08 -5.0795614e-07 1.1247493e-08
-2.934488e-08 -5.0288e-41 -4.9242e-41 -5.621662e-07 -5.1868e-41 4.9477e-41 4.9146e-41 5.0199e-41
6.1387e-41 -4.9452e-41 4.9344e-41 -4.9407e-41 -4.9767e-41 4.9348e-41 -5.063e-41 5.0185e-41
5.5351e-41 -1.8547356e-15 -0.0014001637 4.9868e-41 -1.1320153e-38 4.4173372e-05 5.5565345e-13 5.738e-41
-4.9368e-41 0.0011812019 -0.003111017 -4.9696e-41 -5.7083e-41 0.00024308146 0.0027893202 -0.009896603
0.0063096336 3.26044e-40 -4.925e-41 -0.010517896 -4.9836e-41 4.9364e-41 -6.2471e-41 -5.9701e-41
-5.8381e-41 -5.0164e-41 4.9418e-41 4.9462e-41 -5.01e-41 4.93e-41 4.927e-41 4.9841e-41
5.0468e-41 -8.442845e-19 -8.773721e-07 -5.2458e-41 -4.9263e-41 6.4442496e-08 2.4568976e-15 -4.991e-41
-4.9442e-41 3.0028883e-07 -7.111135e-07 4.9058e-41 5.638e-41 -1.1782034e-07 2.179401e-06 -4.4868924e-07
-4.380615e-07 5.0727e-41 4.9242e-41 9.601143e-07 -5.8489e-41 4.9101e-41 5.0197e-41 5.8166e-41
-5.1875e-41 5.0078e-41 5.0629e-41 -5.1177e-41 4.9733e-41 -4.9093e-41 -5.2764e-41 -4.9456e-41
-6.0257e-41 -1.1180146e-17 -8.7411865e-07 5.5881e-41 2.54745e-40 8.385164e-09 2.479109e-14 5.5158e-41
-5.0479e-41 5.478176e-06 7.935783e-06 4.9895e-41 -4.996e-41 9.1948e-07 -3.6512035e-06 0.00010263228
-1.6381393e-05 5.0175e-41 -5.0253e-41 -9.2782386e-05 -5.565e-41 5.0897e-41 5.0329e-41 -5.0515e-41
-5.267e-41 5.2006e-41 5.3165e-41 -5.1702e-41 -5.0304e-41 5.0829e-41 5.2973e-41 5.0742e-41
4.9329e-41 -9.310471e-17 -3.102407e-05 -5.1901e-41 1.28199e-40 9.376421e-06 1.3253132e-13 -5.1529e-41
4.9284e-41 7.1831586e-05 -5.2925352e-05 4.9478e-41 5.0113e-41 1.5804146e-05 -0.0003600747 -8.2626655e-05
-4.2006264e-05 -4.9721e-41 -4.9299e-41 -0.00024829214 -5.151e-41 4.971e-41 5.0209e-41 -4.9075e-41
5.1537e-41 -5.583e-41 4.9243e-41 4.9537e-41 4.9183e-41 4.912e-41 4.9397e-41 -5.0494e-41
-5.023e-41 2.6482277e-17 5.3717864e-05 -5.4254e-41 -3.23054e-40 -2.908846e-06 -1.8590005e-14 5.1527e-41
5.1021e-41 9.196751e-06 -1.8342473e-05 -5.49e-41 -4.9389e-41 7.975692e-07 -0.0001069535 0.0011255746
-0.00011780462 4.9235e-41 4.9233e-41 -4.2020318e-05 -4.9712e-41 -4.9715e-41 -5.1041e-41 5.1243e-41
-4.9701e-41 4.9355e-41 4.9522e-41 5.0024e-41 -4.922e-41 4.9307e-41 -5.0162e-41 4.9141e-41
5.4714e-41 -2.8671926e-19 -1.8955184e-08 -5.2064e-41 -5.5683e-41 4.0995114e-09 6.8640914e-16 5.6434e-41
5.5943e-41 1.4819285e-07 -2.3669413e-08 -4.9127e-41 -5.1572e-41 3.911425e-08 3.6064858e-07 2.2354184e-06
-2.555222e-07 5.1139e-41 4.9733e-41 -2.5224904e-06 -5.8905e-41 -4.9927e-41 5.389e-41 -4.9846e-41
5.6796e-41 -5.1069e-41 6.2603e-41 -5.6646e-41 5.2707e-41 4.9707e-41 -6.0004e-41 5.0637e-41

fno_blocks.channel_mlp.0.fcs.0.weight f4 [16, 32, 1]
00000000: 5566 5c3d bec6 e3be 6406 d8b7 caa7 a93d
00000010: e6f4 d1be 0184 6fbc 9ec4 45be b685 0a3d
00000020: 08db 38bd f999 813e a4aa d2b9 4a86 23bc
00000030: 349e 1c3e d2b4 a1be ba4c 213a 769f e6be
00000040: dd52 5abe 58d9 d238 7f7e b239 598e 033a
00000050: 94a7 573e 48f2 443a b461 86bd bf03 f13d
00000060: 08da 5abe cd36 de38 628b 82bc 68fc 713e
00000070: 4438 253c 0f3d 8abd 6945 703e 3395 d3bd
00000080: 02de 6abb 42d9 a2be 2c7c 26b3 2cf9 143c
00000090: 3dc7 1fbe a26f 493d 829f 2a3d 3cc1 533c
000000a0: 65e3 1b3e 9294 06be ced7 6f39 a599 2ebd
000000b0: 6925 f6bc 9326 11be 6192 d4b8 3130 3abc
000000c0: be6a d839 7853 24b7 0120 5138 5ed2 3739
000000d0: 414f a3bd 122f db3a 1063 b83d 3033 583d
000000e0: 1175 e43d 8f29 06bc ef32 253d bb8d 87bd
000000f0: 5c4c 00bb 1d26 9e3d 9bbc a7bd 01e5 013e
00000100: b221 88bd 3918 443d d9e9 acb7 2e74 fcbd
00000110: 0b89 f6bd 87b5 0b3c 7232 8c3d 970c acbd
00000120: e693 8abe e189 08be 3458 6bb9 daa1 ca3d
00000130: ed4a e53c b930 353e dfbf 6339 7ed8 cbbc
00000140: 667e 113e f3e8 2437 a172 8cb9 13c6 8eb9
00000150: 00a3 0e3e 2d01 85ba b798 0cbe f5a7 3e3e
00000160: 8137 103e f258 28ba 6fa4 ac3c a849 143d
00000170: 5cff f03b 58ab 8d3b 3d73 efbd 091c 433d
00000180: 2d26 7b3c ccc2 1d3e be8b af38 a259 3cbd
00000190: e8c2 5f3d 8de6 03bd b0da 1fbc 5542 13bd
000001a0: 6ea5 433e 7cc0 42be 786a 8739 6aa5 1c3d
000001b0: e450 56be 5a54 613d 9639 eeb9 d3de ea3d
000001c0: fcca 383d adef 9936 a4b9 2cb9 550a 1ab9
000001d0: 5d60 b3bd 8c36 17b9 633c e03d b6f8 34be
000001e0: 9485 1f3e 154e 0abd c2f3 823c 17b6 b23c
000001f0: e6c4 3a3c 2144 943d 2705 1ebd 9b6b 85bc
00000200: 9694 b13c 8518 13be 5f3c 1838 bd1f 67bb
00000210: 2e94 d2bd 4a9f d93c 9fb3 c5bd dc61 b7bc
00000220: 3d84 c3ba a327 f53d 1f9f 3e39 a54e bf3c
00000230: dab8 bebc 4317 bebd c2c9 0638 2d54 09be
00000240: 9c10 c5bd b4cb 9937 8d61 e8b9 e961 01ba
00000250: bf52 fb3d 68e7 543a a7ce 0c3c ebca b03d
00000260: 5e52 a2bd e9a6 93bb 542b 933b 9b69 253e
00000270: 95bd 853b a80a 52bd fb98 3b3d 1650 353d
00000280: 1a3f 8ebb 1590 f5bc 1faf fb37 cb2a 5cb9
00000290: 2b7d 62bc 156c a7bc 2d7e 11bb 26d3 903a
000002a0: c3a2 51bb beef 5bbc c285 2e39 6ad3 30bc
000002b0: f6ef f0bc d65e cbbc f5b2 8eb9 59b3 abbc
000002c0: bf4e c3bb 9ffc 03b8 7c35 dc38 ffec e438
000002d0: 63dc 99bc 3f88 a83a 5155 30bc f651 67bc
000002e0: 1b1a eebb f360 c0b9 ac15 65bb 567e 85bc
000002f0: c16c 47ba 0dba 44bb 14a4 6abc 0d57 8abc
00000300: d668 1bbc 0afa 98bc 83a3 9638 2c32 bfbd
00000310: f404 23be bf0d 12bd 77ef 4bbe b44c bcbc
00000320: b4fc 31be 41df 7b3e 07ee 093a 096b de3b
00000330: 2318 0b3e ec41 29be e5a8 05ba 396c 74bd
00000340: 47c7 4bbe 858f 47b7 ee44 c637 07b5 8db8
00000350: 97c1 04bd 473e 70b9 c663 14be 43d5 0b3e
00000360: 6a41 4dbe 57ac 05bb 2a53 6d3c 561b a13e
00000370: 2777 3a38 667e 13be 1afb 333e c19e 8cbd
00000380: 9ec1 a1bc 6df7 503d c080 f1b7 a35d 01bd
00000390: 7ddd 28bd 0552 c6bd e39c 19bd 4e3b 9bbc
000003a0: aeff 4a3d 799f 97bc bdc0 263a 08ab 4b3c
000003b0: dd42 29bd a4b9 bbbb 3628 3539 918d cfbc
000003c0: 67f6 98bc 7c77 cf37 300f e9b8 d525 21b9
000003d0: 09bb 1bbd deed 9aba d166 0abd e9bb d8bc
000003e0: 6906 1bbd cca5 b63a 3d15 0dbc a3c0 e9bc
000003f0: 3b20 22bb 5f54 d8bc 5152 94bb 4c9a b6bd
0.05380853 -0.44487566 -2.5752182e-05 0.08283956 -0.41007155 -0.0146188745 -0.19313285 0.033818923
-0.04513076 0.25312784 -0.00040181458 -0.0099807475 0.15294725 -0.31583267 0.0006153096 -0.45043534
-0.21320672 0.00010054064 0.00034045053 0.0005018465 0.2106002 0.00075129094 -0.06561604 0.11768293
-0.21372235 0.00010595992 -0.015935604 0.23631442 0.010084216 -0.06749927 0.23463978 -0.10331192
-0.0035837893 -0.3180638 -3.876282e-08 0.00909261 -0.15603347 0.049178727 0.041656025 0.012924489
0.15223463 -0.13142613 0.0002287321 -0.042626996 -0.030047135 -0.14174871 -0.00010136213 -0.011364029
0.0004127826 -9.794596e-06 4.985929e-05 0.00017530608 -0.07974101 0.0016722402 0.0900327 0.05278319
0.11155141 -0.008188619 0.040331777 -0.0661883 -0.0019576764 0.07722113 -0.081902705 0.12685014
-0.06647052 0.047874663 -2.0612892e-05 -0.12326847 -0.120378576 0.008527166 0.06845559 -0.08400839
-0.27065963 -0.13333847 -0.00022444205 0.09894152 0.027989829 0.17694367 0.00021719885 -0.024883505
0.14208373 9.8293995e-06 -0.00026788286 -0.00027231927 0.13929367 -0.0010147445 -0.13730131 0.18618758
0.14083673 -0.0006421945 0.021074502 0.036203057 0.00735466 0.0043234043 -0.11691902 0.04763416
0.015328926 0.1540634 8.370679e-05 -0.045983918 0.054629236 -0.032202292 -0.009756729 -0.03595193
0.19106075 -0.1901874 0.00025828532 0.03824369 -0.20929295 0.055012085 -0.00045437802 0.114682816
0.045115456 4.5876573e-06 -0.00016472355 -0.00014690433 -0.08758614 -0.00014420802 0.10949018 -0.17673
0.155783 -0.03376587 0.015985373 0.021815343 0.011399483 0.07239557 -0.038579132 -0.016286662
0.021677297 -0.14364822 3.629585e-05 -0.003526672 -0.10282169 0.026565213 -0.09653401 -0.02238553
-0.0014916729 0.11970451 0.00018179089 0.02335293 -0.023281503 -0.092817806 3.213599e-05 -0.13411017
-0.096223086 1.8333878e-05 -0.0004432317 -0.0004935549 0.12271642 0.00081216404 0.008594192 0.086324535
-0.079258665 -0.004505981 0.004491249 0.16153567 0.004081438 -0.051279694 0.04580019 0.04426583
-0.0043410184 -0.02997593 3.0003079e-05 -0.00020996777 -0.013823788 -0.02043728 -0.002220045 0.0011049255
-0.0031987883 -0.013423858 0.00016643762 -0.010792593 -0.029411297 -0.024825495 -0.00027217684 -0.020959543
-0.005960315 -3.1468106e-05 0.0001050038 0.00010916031 -0.018781846 0.0012857987 -0.0107625285 -0.014118662
-0.0072662956 -0.00036693327 -0.0034955544 -0.016295593 -0.0007607453 -0.0030018121 -0.014321346 -0.016887212
-0.009485444 -0.018673915 7.183014e-05 -0.093357414 -0.15919858 -0.03565764 -0.19915567 -0.022985794
-0.17381555 0.24596883 0.0005261604 0.006787662 0.13583426 -0.16529053 -0.00050987146 -0.05967352
-0.19900237 -1.189474e-05 2.3635537e-05 -6.757123e-05 -0.032411184 -0.00022911384 -0.14491186 0.13655572
-0.20044485 -0.0020396912 0.01448516 0.31466168 4.4456825e-05 -0.14403686 0.17576256 -0.068662174
-0.019745644 0.051017214 -2.8789393e-05 -0.03158344 -0.041226853 -0.09683613 -0.037503134 -0.018949177
0.04956024 -0.01850866 0.00063611177 0.012430914 -0.04132353 -0.005728917 0.00017276485 -0.025336059
-0.018672181 2.4731962e-05 -0.00011113135 -0.0001536825 -0.038020167 -0.0011820158 -0.03378946 -0.02645679
-0.03784791 0.0013934909 -0.008611021 -0.02853424 -0.002473845 -0.026407419 -0.0045264144 -0.089161485

fno_blocks.channel_mlp.0.fcs.0.bias f4 [16]
00000000: 73fd b4bc 2102 c2ba 15ae a5bc 136b 18bd
00000010: 8075 22bc c743 89bb 0910 ba3c 8af6 bcbc
00000020: 1dda 65bc b6a1 a2bd 97d0 993d 101e 0b39
00000030: d05b bc3c 98db 4d3d 4e20 883d c571 b3bc
-0.02209351 -0.001480166 -0.02022461 -0.03721149 -0.0099157095 -0.004188988 0.022712724 -0.023066778
-0.014029053 -0.07941 0.075104885 0.00013267272 0.022992998 0.05025825 0.06646787 -0.021904835

fno_blocks.channel_mlp.0.fcs.1.weight f4 [32, 16, 1]
00000000: ce89 0000 da8b 0080 1d8a 0080 80a8 0080
00000010: 1f8c 0000 9864 0000 658a 0000 4da8 0000
00000020: 6e8e 0000 c488 0080 eb8b 0080 03a7 0080
00000030: c2ab 0080 378a 0000 dc8e 0000 cfa7 0000
00000040: 6289 0000 1092 0080 d889 0080 9d97 0080
00000050: 5989 0000 8f9d 0080 c688 0080 8f8e 0080
00000060: aa89 0080 cd88 0000 b79b 0080 168b 0080
00000070: fd91 0080 e189 0000 9b8a 0000 4990 0000
00000080: 0e5f 62bc 5968 8d3d 7275 febb fb64 353e
00000090: 103d 8bbc 5991 f03b 64ea 21bd 5ec5 da3c
000000a0: abde d93d 44a0 85bd 72be 49be 4fd7 313e
000000b0: 342c 00bf 94c8 243d 3e30 003e 7836 f1bd
000000c0: 5389 0080 fd90 0080 ee44 0080 eca3 0000
000000d0: 0f9a 0000 4293 0080 75a2 0000 8d8c 0080
000000e0: 8492 0080 6b8b 0080 4789 0080 90a4 0080
000000f0: 6f93 0000 638a 0000 ef88 0080 fc8c 0000
00000100: 7f8c 0000 5c89 0000 dc88 0080 f389 0080
00000110: 4789 0000 d78b 0080 ad8d 0000 4a8d 0000
00000120: 7e8b 0080 268a 0080 ed88 0080 8d8d 0080
00000130: a291 0000 f588 0000 df88 0000 0595 0000
00000140: 1042 19b7 7bba dcb6 8ba7 8dba 4dc7 aeb8
00000150: 056a 56b6 df4d 92b4 0935 96b7 5311 6f34
00000160: f057 9ab5 3e71 bdb7 e8bc 983b e425 8eb7
00000170: 9455 6fb7 2f70 7938 65c8 bb39 3b99 8eb7
00000180: 2197 0000 b78a 0080 0b89 0000 a189 0000
00000190: c790 0080 e3a8 0080 3995 0080 4491 0000
000001a0: 968c 0080 bd90 0080 d58a 0080 bda6 0080
000001b0: 3c90 0000 5e89 0080 ed89 0000 508a 0000
000001c0: ef8c 0000 0f8b 0080 7389 0000 d789 0080
000001d0: e993 0000 138b 0080 1f8c 0080 748e 0000
000001e0: 528b 0080 3589 0000 7389 0080 7489 0080
000001f0: 468b 0000 268a 0000 4289 0080 8d8a 0080
00000200: 588c 0080 1c5d 0000 d789 0080 c188 0080
00000210: 2e8d 0000 2f8f 0000 8f8c 0080 e28f 0080
00000220: 628d 0000 198a 0000 628b 0000 6b8d 0080
00000230: 9b95 0080 c589 0000 1c8a 0080 d78d 0080
00000240: f6dc a33d 76b8 c83b 84db abbd 2fff bb3d
00000250: 5a04 5b3d d340 2d3b 3d9c 193e bbb6 a1ba
00000260: 4943 d13b 55e3 1f3e f40d d43d e247 69bc
00000270: 8824 583c fdca 8bbd 8a7c 603d 8cc8 18bd
00000280: a014 92bd 0510 bdbd b490 b6bd 5679 98bd
00000290: c925 673d 278f 29bd 53bc 1cbe 6023 b8bc
000002a0: 7f15 9dbd 82b2 4b3e 3f32 f13d 8ba5 0d3e
000002b0: 7540 90bd a0aa 453e c6b0 f23d 1445 2bbe
000002c0: f08a 0080 6c89 0080 3a89 0000 2689 0080
000002d0: 748f 0000 62ac 0080 f088 0080 a08f 0080
000002e0: 3d8a 0080 df89 0080 1f8b 0080 f689 0080
000002f0: 2e94 0080 3b89 0000 0089 0000 298a 0080
00000300: f989 0080 4e8a 0080 fa8b 0000 c988 0080
00000310: ca89 0000 348f 0080 9389 0080 3d8a 0080
00000320: 3b89 0000 8089 0000 9b89 0080 b58a 0080
00000330: 8c56 0080 8b8b 0000 6989 0080 d289 0000
00000340: ad21 07bb 81ba f83b acc9 28bd f3de d5bc
00000350: 4dad d6ba 3834 10ba a078 28bb 0889 abb9
00000360: bd3a d73a 3b23 5abc 83e0 953d 38b5 de3c
00000370: 32ba 0c3d 9964 2cbc a8e1 9d3d 645e 3b3d
00000380: 1d22 83be 7970 933e 65bf 343e 74f7 9a3d
00000390: cf5e f7bd 1bde 863b 7792 2cbe 9356 f0bb
000003a0: a6eb abbd 4a20 43be 7596 c13e bc8d 2e3b
000003b0: fc0b aebc 3df6 223e e2b0 d6be cdc3 33bb
000003c0: e3b4 b5be 7e6b 55bd 323f 4b3e 1f38 82be
000003d0: e48f 71be 5265 a4bd 9091 aabe a1e8 afbd
000003e0: 2863 9d3d dad1 80be bbc8 803e e8b4 9cbd
000003f0: 7018 4bbd 5221 28bd 9feb 443d 8844 86be
4.9435e-41 -5.0169e-41 -4.9546e-41 -6.0446e-41 5.0266e-41 3.6086e-41 4.9647e-41 6.0375e-41
5.1094e-41 -4.9062e-41 -5.0193e-41 -5.9913e-41 -6.1615e-41 4.9582e-41 5.1248e-41 6.0198e-41
4.9284e-41 -5.2397e-41 -4.9449e-41 -5.4389e-41 4.9271e-41 -5.6521e-41 -4.9065e-41 -5.114e-41
-4.9385e-41 4.9075e-41 -5.586e-41 -4.9895e-41 -5.2371e-41 4.9462e-41 4.9722e-41 5.176e-41
-0.013816608 0.06904668 -0.0077654654 0.17714302 -0.01699689 0.0073415455 -0.039530173 0.02670544
0.10638174 -0.06524709 -0.19701555 0.1736729 -0.5006745 0.04023035 0.12518403 -0.11777967
-4.9263e-41 -5.2012e-41 -2.4727e-41 5.8804e-41 5.5266e-41 -5.2826e-41 5.8279e-41 -5.042e-41
-5.256e-41 -5.0014e-41 -4.9246e-41 -5.9034e-41 5.2889e-41 4.9644e-41 -4.9123e-41 5.0576e-41
5.04e-41 4.9275e-41 -4.9096e-41 -4.9487e-41 4.9246e-41 -5.0165e-41 5.0824e-41 5.0685e-41
-5.004e-41 -4.9558e-41 -4.912e-41 -5.0779e-41 5.2243e-41 4.9131e-41 4.91e-41 5.3458e-41
-9.134892e-06 -6.57822e-06 -0.0010807378 -8.334089e-05 -3.1950196e-06 -2.7251278e-07 -1.790609e-05 2.2264912e-07
-1.1499487e-06 -2.2583288e-05 0.0046611913 -1.6945363e-05 -1.4265435e-05 5.9470705e-05 0.00035816725 -1.6999073e-05
5.4215e-41 -4.9762e-41 4.9162e-41 4.9372e-41 -5.1936e-41 -6.0585e-41 -5.3531e-41 5.2111e-41
-5.0433e-41 -5.1922e-41 -4.9804e-41 -5.9814e-41 5.1742e-41 -4.9278e-41 4.9478e-41 4.9617e-41
5.0557e-41 -4.9885e-41 4.9307e-41 -4.9448e-41 5.306e-41 -4.989e-41 -5.0266e-41 5.1103e-41
-4.9979e-41 4.922e-41 -4.9307e-41 -4.9309e-41 4.9962e-41 4.9558e-41 -4.9239e-41 -4.9703e-41
-5.0346e-41 3.3401e-41 -4.9448e-41 -4.9058e-41 5.0646e-41 5.1365e-41 -5.0423e-41 -5.1615e-41
5.0719e-41 4.954e-41 5.0001e-41 -5.0731e-41 -5.3668e-41 4.9422e-41 -4.9544e-41 -5.0883e-41
0.08001129 0.006125505 -0.08391479 0.09179532 0.053470947 0.0026436343 0.15001006 -0.0012337783
0.006386195 0.15614064 0.10354224 -0.01423833 0.0131923035 -0.06825826 0.05480627 -0.03730063
-0.0713284 -0.09231571 -0.08914319 -0.07445018 0.05643252 -0.041396286 -0.15306215 -0.022477806
-0.07670116 0.19892314 0.11777162 0.13832681 -0.07043544 0.1930337 0.11850123 -0.1672557
-4.9841e-41 -4.9298e-41 4.9228e-41 -4.92e-41 5.1461e-41 -6.184e-41 -4.9124e-41 -5.1523e-41
-4.959e-41 -4.9459e-41 -4.9907e-41 -4.9491e-41 -5.3157e-41 4.9229e-41 4.9146e-41 -4.9563e-41
-4.9495e-41 -4.9614e-41 5.0214e-41 -4.9069e-41 4.943e-41 -5.1372e-41 -4.9352e-41 -4.959e-41
4.9229e-41 4.9326e-41 -4.9364e-41 -4.9759e-41 -3.1047e-41 5.0059e-41 -4.9293e-41 4.944e-41
-0.0020619438 0.0075905924 -0.041207954 -0.026107287 -0.0016378552 -0.0005500945 -0.0025706664 -0.00032717758
0.0016420704 -0.013314064 0.07318213 0.027186021 0.034357257 -0.010522031 0.07709056 0.045744315
-0.25611964 0.28796747 0.17651136 0.07566729 -0.1207863 0.0041158325 -0.16852747 -0.007334539
-0.08394556 -0.19055286 0.37810102 0.0026634773 -0.021245949 0.15914245 -0.41931826 -0.0027429939
-0.35489568 -0.052104466 0.19848326 -0.25433442 -0.23590046 -0.08027138 -0.3331418 -0.08589292
0.07684928 -0.25160104 0.25153145 -0.07651693 -0.049583852 -0.0410474 0.04807627 -0.2622416

fno_blocks.channel_mlp.0.fcs.1.bias f4 [32]
00000000: 448c 0000 1e8a 0000 c195 803d 5a89 0000
00000010: ba89 0000 c763 8136 118b 0000 8089 0080
00000020: cf88 0080 41e7 bb3d 63bd 893e c789 0080
00000030: ff88 0080 f6d1 4c3c f8f4 e0bc 3364 6e3e
00000040: b9a7 3f3e db8b 0080 1b89 0080 2ff8 2e3e
00000050: 8789 0000 1089 0000 8389 0080 5289 0080
00000060: 7789 0000 4d89 0080 2189 0000 cc88 0000
00000070: b331 0080 fd88 0000 cd89 0000 3b8a 0000
5.0318e-41 4.9547e-41 0.06278563 4.9272e-41 4.9407e-41 3.856115e-06 4.9888e-41 -4.9326e-41
-4.9078e-41 0.091749676 0.26902303 -4.9425e-41 -4.9145e-41 0.01250123 -0.02746056 0.2328041
0.18716325 -5.017e-41 -4.9184e-41 0.17086862 4.9336e-41 4.9169e-41 -4.933e-41 -4.9261e-41
4.9313e-41 -4.9254e-41 4.9193e-41 4.9073e-41 -1.7829e-41 4.9142e-41 4.9434e-41 4.9588e-41

fno_blocks.channel_mlp.1.fcs.0.weight f4 [16, 32, 1]
00000000: 256a 022d 1589 0000 3ae8 3ca3 e394 0000
00000010: 4870 44ad 6feb e6b0 80be af9f af40 18a3
00000020: 2b62 1011 d68e 0000 cd8e 0000 ea65 871c
00000030: 3fd5 021d be92 3bad b12b 2413 0f41 3532
00000040: f630 919e 0ef2 3708 c601 22a3 fae6 0394
00000050: 4b8d 0000 b4cf 02b1 4b4d 2aa3 748c 0000
00000060: f66e 8529 4127 3798 ba9d b2b2 be4d b223
00000070: d931 9fad b8bb 51ad 1b8e 0000 3958 2c19
00000080: 38e9 93a5 0f1e 0000 9bab a01b bd88 0080
00000090: 7c3a 8e25 cbd5 9828 242b 0317 c4bd 271b
000000a0: cdba 3089 8589 0000 ef89 0000 2b0d 9494
000000b0: 5ff0 ce95 3d6f c124 463d 738b 3367 c8aa
000000c0: ffa0 e416 29f7 e280 44c5 361b 24ac ab0d
000000d0: 8e8b 0000 dd42 bb29 206d a01b a58a 0000
000000e0: f178 19a2 afd2 1410 47da 662b 71f3 519c
000000f0: 76b1 6e26 605f fa25 c188 0000 8e16 5c91
00000100: b76d 2f2e 4a8b 0080 4393 f0a3 7c92 0000
00000110: c5a5 74ae af08 fb31 7fec e621 dabb 99a4
00000120: 9901 a011 ca75 0080 388c 0000 a1c9 a31d
00000130: 0d89 a91e ae52 93ae 0be3 2694 2e74 22b4
00000140: 9879 05a1 84f6 0289 ca58 2624 78fc 1696
00000150: fb71 0000 8e13 6b31 b5ff a524 fc8a 0000
00000160: a7cb 08ac ed48 1a99 e60b de33 9015 4aa5
00000170: 4364 ceae 3fad 1ab0 de96 0000 d2b5 7399
00000180: 4834 01a8 6989 0080 6f28 311e 638b 0080
00000190: 5cf1 3628 79c4 ffa9 81f9 0699 8f2b e91d
000001a0: 0434 b08b e390 0080 5437 0000 90ef 6297
000001b0: 77ae cd96 6db2 2028 2eb2 d38d 8095 ce2b
000001c0: 6868 a719 678d 4800 bd98 e21d d3f2 d78f
000001d0: c463 0000 85b6 3f2a 6894 cb1d be8a 0000
000001e0: 1951 a024 8dbb 1e13 2ef1 772d 6968 869e
000001f0: 7e66 d3a6 0f59 8628 1e8e 0080 1504 2194
00000200: 8a15 a327 0faa 0080 0b2a 129f e28d 0000
00000210: d2fa f1a8 20a9 c12b d997 911b 8c87 009f
00000220: c7dd 2f0d b98d 0000 1c8f 0000 cf50 3d18
00000230: 0e33 5d98 fb46 fda8 e23f e20d 432d b62d
00000240: 3e17 4998 f4ba a304 7f3e c79d 2af9 bd90
00000250: 0d89 0080 6b00 4bad 919e 9a9e 128a 0080
00000260: 8e23 08a5 266e d593 1e7d 3a2d 27f1 071f
00000270: b07a caa9 320f 0fa9 ef88 0000 665d 1115
00000280: 5025 90a3 a789 0000 0645 3d9b e194 0080
00000290: d48e 4ca4 4a3b e429 238b 0196 bf06 101b
000002a0: fa3c ee89 198b 0000 a990 0080 0b74 c212
000002b0: 02f1 1296 fe1c 8924 a51a 870b 02e9 bcab
000002c0: 436b fb17 f7c8 a681 f846 031a da41 2e8e
000002d0: ec8d 0000 e168 af2a f9d6 df1b 1969 0000
000002e0: ef16 5b22 c605 0790 cf39 4eab e719 079c
000002f0: 42e2 6b25 4289 8426 b98c 0080 e084 d410
00000300: 3120 0b32 6289 0000 dd9c 38a8 9a37 0200
00000310: 1050 16b2 978e a5b4 bde5 67a4 84cd 16a8
00000320: 5989 6814 eb6e 0100 2689 0000 edc7 6521
00000330: 7cc8 aaa1 d1be 1fb2 60a7 b696 1aea 2b36
00000340: a6b6 83a2 5c6b 7a8c f4e4 2fa7 7388 e719
00000350: 318a 0080 91ab d435 cd96 dc26 7e8b 0080
00000360: 26e4 042e efdc cd9c 62c3 e636 f6ec eda7
00000370: e75f 9d32 f3f9 b731 37af 0000 334a 591d
00000380: 10c5 b82b 1399 0000 2f5a 1ea2 4b8d 0000
00000390: 8713 15ac 0122 28ae a460 399e 5728 eea1
000003a0: 953c a10f 5c8f 0080 f98c 0080 ea20 481b
000003b0: 4aec 109b d0fe 05ac fe9c aa11 6f63 3930
000003c0: 6d21 c89b 71a5 8806 0cba bba1 289d d312
000003d0: c788 0000 0892 83ae 69aa 04a2 b28d 0080
000003e0: 101e 0028 ce4f 0b97 52dc a2b1 e8a6 8822
000003f0: e96d 82ab 3762 44ac 278b 0080 fa9b 1a18
7.413213e-12 4.9176e-41 -1.0240676e-17 5.341e-41 -1.11662415e-11 -1.6801617e-09 -7.443054e-20 -8.253634e-18
1.1389847e-28 5.124e-41 5.1227e-41 8.959895e-22 1.7315602e-21 -1.0662303e-11 2.0721252e-27 1.0550379e-08
-1.5372722e-20 5.5354093e-34 -8.782413e-18 -6.659362e-27 5.0686e-41 -1.9035555e-09 -9.232086e-18 5.0385e-41
5.925635e-14 -2.3672014e-24 -2.0793653e-08 1.9331724e-17 -1.8098344e-11 -1.19219565e-11 5.0978e-41 8.910008e-24
-2.565847e-16 1.0783e-41 2.6580677e-22 -4.9052e-41 2.4672704e-16 1.6968108e-14 4.2382834e-25 1.3875233e-22
-2.1273063e-33 4.9333e-41 4.9481e-41 -1.4949375e-26 -8.3581976e-26 8.388885e-17 -4.6846195e-32 -3.5598746e-13
3.693699e-25 -2.0843486e-38 1.5118427e-22 1.058013e-30 5.0063e-41 8.316067e-14 2.65403e-22 4.9736e-41
-2.0799392e-18 2.9350158e-29 8.2015335e-13 -6.946694e-22 8.281334e-16 4.3432716e-16 4.9058e-41 -1.736189e-28
3.988784e-11 -4.9968e-41 -2.608322e-17 5.2549e-41 -5.562641e-11 7.3060487e-09 1.5648006e-18 -6.6671406e-17
2.5244534e-28 -4.2255e-41 5.0301e-41 4.335422e-21 1.7950254e-20 -6.699473e-11 -8.4256346e-27 -1.5129692e-07
-4.522308e-19 -1.5764092e-33 3.607072e-17 -1.2196569e-25 4.0888e-41 3.4208116e-09 7.199053e-17 4.9858e-41
-1.9439812e-12 -7.976341e-24 1.0339845e-07 -1.7528013e-16 -9.3856055e-11 -5.627107e-10 5.4121e-41 -1.2599524e-23
-7.172275e-15 -4.9293e-41 9.3786635e-21 -5.0003e-41 1.0155366e-14 -1.13583574e-13 -6.9780245e-24 6.1719625e-21
-6.7871e-32 -5.1976e-41 1.9848e-41 -7.332691e-25 -3.322964e-25 8.920474e-15 -1.3046774e-30 1.4678675e-12
1.7309565e-23 6.662881e-39 5.997963e-21 -2.129417e-29 3.5789e-41 1.7027532e-13 5.38871e-21 4.9771e-41
6.9526324e-17 2.0034873e-27 1.4093877e-11 -1.4230985e-20 -1.4668847e-15 1.4915612e-14 -5.0982e-41 -8.129228e-27
4.526494e-15 -6.1006e-41 -3.095148e-20 5.0898e-41 -2.6865151e-14 1.3760416e-12 2.4086367e-22 -2.7217176e-20
5.4192993e-31 5.084e-41 5.1338e-41 2.4468475e-24 -2.8589357e-24 -2.8119425e-14 1.3943705e-30 2.0711105e-11
-2.5990375e-24 3.8492805e-36 -5.273948e-21 -7.4931254e-29 -4.9165e-41 -1.1539307e-11 -1.6370966e-20 -4.953e-41
-1.1808166e-16 -5.3877374e-27 1.06006575e-11 2.878684e-20 -8.991885e-14 -3.176556e-14 4.9123e-41 2.9356195e-26
-1.5628314e-17 4.938e-41 -1.5656016e-22 -5.3408e-41 -4.435643e-17 1.0135519e-13 -1.0464441e-25 1.191358e-22
-5.7353758e-33 4.9899e-41 -5.1894e-41 1.2271728e-27 -1.1869835e-25 5.9463394e-17 5.20402e-32 -1.3422876e-12
1.6247571e-24 -6.126714e-38 2.7147493e-23 -2.1478862e-30 5.0912e-41 3.115902e-13 3.7031178e-22 3.7702e-41
2.9692175e-18 -2.6628503e-29 -7.326613e-13 -4.470123e-22 2.045966e-16 9.196544e-16 -5.0482e-41 8.382398e-29
8.098184e-09 4.9284e-41 -1.0248066e-14 2.03617e-40 -8.749353e-09 -3.0837393e-07 -5.0284736e-17 -8.371237e-15
1.1740094e-26 1.31625e-40 4.92e-41 7.785282e-19 -1.1572716e-18 -9.298405e-09 -2.9509314e-25 2.561725e-06
-3.5701008e-18 -1.9291607e-31 -2.4410244e-15 2.3939952e-23 -4.9574e-41 1.5845163e-06 1.5306441e-15 -5.004e-41
3.021596e-11 -1.3622872e-21 6.8772797e-06 -6.6037628e-15 1.8320817e-08 5.354417e-09 6.2855e-41 2.875807e-21
1.3128682e-12 5.4913e-41 -2.1460736e-18 5.0686e-41 -2.1185013e-12 -3.822898e-11 -9.813803e-21 -1.6138185e-18
1.5899161e-29 -5.1428e-41 -5.0571e-41 1.6554247e-22 -1.198775e-22 -1.9041886e-12 2.6918025e-28 6.744391e-10
-3.3108825e-22 5.140061e-35 -1.2720859e-18 1.3354714e-27 4.9066e-41 -5.983131e-11 -1.797955e-18 -5.083e-41
7.111946e-15 -4.501405e-25 -4.739868e-09 3.7039593e-18 -9.267562e-13 -2.7907795e-12 -4.9918e-41 1.9982782e-24

fno_blocks.channel_mlp.1.fcs.0.bias f4 [16]
00000000: 56f4 3ab6 acc0 052f 82a3 ca39 8d57 83b0
00000010: d3db 3733 b516 adb0 4b10 dbbc af27 54b5
00000020: 534a 223d 13b2 7f34 cedb 38af 3287 9b3c
00000030: 7f9e cab1 2845 3732 d7f1 3c3c fd42 d736
-2.7858382e-06 1.216473e-10 0.00038650265 -9.556388e-10 4.2807937e-08 -1.259386e-09 -0.026741168 -7.90339e-07
0.039621662 2.3813509e-07 -1.6812793e-10 0.018985365 -5.8969927e-09 1.0667726e-08 0.0115322685 6.415298e-06
