model_checkpoints_naca/naca_fno_final_r10.pth (torch, 136357 bytes, 35 tensors)

fno_blocks.convs.0.bias f4 [32, 1, 1]
00000000: 4b9f dd3b fcc2 353c 1a9b f3bb 816f 3137
00000010: 19e0 5e3d 0975 b23c f82a 833c c7e8 953b
00000020: 7241 b93d aa65 4cbd 1443 56bc d367 2cbd
00000030: bf56 923c f982 f63d d41f a5b7 afa2 88b9
00000040: 3b9f 8ebc b9bf 623c b802 7e3d e4a8 06b8
00000050: 993d 833b adf1 8dbc 162a b93d c713 0abd
00000060: 7f30 4837 0a42 dd3b d676 013e e2d6 dcb9
00000070: 3ce9 dcbc a434 4939 4736 7c3c 8f19 15ba
0.006763374 0.011093851 -0.007434261 1.0575984e-05 0.054412935 0.021784322 0.0160117 0.0045748684
0.09045686 -0.049901642 -0.013077516 -0.042091202 0.01786363 0.120367 -1.9684354e-05 -0.0002606115
-0.017409911 0.013839656 0.06201431 -3.210538e-05 0.0040051457 -0.017327154 0.090412304 -0.033710267
1.193222e-05 0.0067522572 0.12642989 -0.0004212177 -0.026966684 0.00019188464 0.0153938 -0.00056877075

fno_blocks.convs.1.bias f4 [32, 1, 1]
00000000: 2788 04b3 1bab a538 0c5e 73b3 3c3c b036
00000010: d71d 5db0 606f 2630 474d ef2a 82b1 b6b4
00000020: 812f cc36 f248 19b5 3dc5 84b4 273e 70b2
00000030: ca5a 1737 31dd 762f 9280 b833 5c0b 5833
00000040: 6608 e8b6 a3aa 3e36 b653 352f f12e 0d2f
00000050: e920 24a9 ecaa 1431 ff12 2baf 60e1 55b1
00000060: 5fe3 e62d f67c d037 c33b 72b4 b5b5 64b3
00000070: 25b3 23b2 bb70 0ba7 ccad 8136 563f e63b
-3.0857475e-08 7.899684e-05 -5.666338e-08 5.252221e-06 -8.0441737e-10 6.054872e-10 4.250855e-13 -3.4029296e-07
6.085204e-06 -5.710309e-07 -2.4730426e-07 -1.398397e-08 9.02144e-06 2.2452153e-10 8.5915545e-08 5.030175e-08
-6.9151165e-06 2.841153e-06 1.6491594e-10 1.2840552e-10 -3.644386e-14 2.1633992e-09 -1.5559108e-10 -3.112369e-09
2.6248946e-11 2.4853722e-05 -2.2559747e-07 -5.325065e-08 -9.5285815e-09 -1.9351236e-15 3.864732e-06 0.007026593

fno_blocks.convs.2.bias f4 [32, 1, 1]
00000000: 8f24 e8b0 3d7e 9196 3ec7 3c26 4af2 6038
00000010: 5bee e0b0 14cb ca36 3319 e3a4 ba8a 6d2f
00000020: 36ac 38b8 9b18 39ae 980e b19a 39d2 40aa
00000030: f30c b930 e329 13af ce25 1734 3da1 0022
00000040: 7541 dc2e 9ea4 53b1 1449 8dae 910b 8f37
00000050: 1d95 102b 101a 0039 d359 f7b7 37ef 11a2
00000060: 9e26 b2ae 3f2d 5032 5fb2 85b8 7701 38b3
00000070: a629 4834 acae 8635 3437 36a9 d3e9 63b6
-1.6890612e-09 -2.350568e-25 6.5495626e-16 5.363141e-05 -1.636589e-09 6.0437105e-06 -9.8488246e-17 2.160431e-10
-4.4029402e-05 -4.2085984e-11 -7.322906e-23 -1.7125961e-13 1.3464202e-09 -1.3384453e-10 1.4076724e-07 1.7432594e-18
1.0016069e-10 -3.0798115e-09 -6.424919e-11 1.7052314e-05 5.1366013e-13 0.0001221674 -2.9486522e-05 -1.9777804e-18
-8.1013626e-11 1.2117481e-08 -6.3751584e-05 -4.284217e-08 1.8641603e-07 1.0034614e-06 -4.046e-14 -3.396174e-06

fno_blocks.convs.3.bias f4 [32, 1, 1]
00000000: d00d d03a ec92 16bc d00a 6f36 a54d 02b8
00000010: 3932 30bc 1379 853a 657d 46b8 3a7d d4b8
00000020: 7bee 52bb 1c50 8237 b869 9539 701c 823a
00000030: fe5d 84bb 399c e2b7 9236 8eb9 ae81 8fb7
00000040: aabd 46b5 1f60 fb38 cb2a 2db8 bd20 6fba
00000050: 5fa7 5cbc 8150 4239 3f09 04b8 59ce 99b8
00000060: d546 2dbb b14b 2f3b ced7 97b1 0a6f d3bb
00000070: bfc0 96b9 377d 8437 c4bf 033b 58f2 8db8
0.0015873257 -0.009190302 3.562007e-06 -3.1066727e-05 -0.0107541615 0.0010183178 -4.732366e-05 -0.00010132273
-0.0032185602 1.5534511e-05 0.0002849826 0.0009926688 -0.004039525 -2.7014046e-05 -0.0002712501 -1.7107315e-05
-7.4036745e-07 0.000119865166 -4.128627e-05 -0.0009122005 -0.013467639 0.00018531272 -3.1479864e-05 -7.334044e-05
-0.0026439924 0.0026747996 -4.4192126e-09 -0.006452446 -0.00028753837 1.5793934e-05 0.0020103315 -6.768544e-05

fno_blocks.fno_skips.0.conv.weight f4 [32, 32, 1]
00000000: 7500 0e38 2dc4 2836 1617 ed3c ab51 e8bc
00000010: 9dc3 f8bc efd5 ae36 7ef0 d03b e9ca 19bc
00000020: ede3 653d 944e 09b9 6372 e33c fec4 8ebd
00000030: 9270 90b7 b644 95bb 0da6 a3bc 6cdf 3039
00000040: 5fee 1bb7 a629 df3a 2de1 01bc 8a0a 2a3d
00000050: 68ed 0438 2058 40bd e269 05bd 300b 6f3b
00000060: b664 1d36 e2d6 9a3b 4271 86bd 8f54 d53c
00000070: f2da 853c 7c11 083c 39cd 3e3d 716d 54ba
00000080: d506 75b7 be4d 6f37 ec2a 8dbb c421 2038
00000090: e5dc a93c 32f8 2c38 bf54 be3a 52d4 91bb
000000a0: 925e c4bc ccc7 f937 f305 38bc 6037 b1bb
000000b0: 12a7 4137 92e8 2abb 3c91 693c ce70 40b8
000000c0: 5bec 15b8 df77 4d3c 553c 41bc 08c3 a4ba
000000d0: 95b0 8137 6a45 1f3c 0b8a 783d 5e4f a039
000000e0: a8e2 91b7 25a2 5f3b 729b d33c 5004 083d
000000f0: 097b 403c 2574 16bb 050b 4739 ba3e 22bd
00000100: 7455 70b7 cfab c2b6 3687 513c 0008 63bb
00000110: d377 9cbc bb21 9eb7 2ee7 b0ba 9ec0 0c39
00000120: 765b 063d 857c 7c38 e509 a23c 7982 29bd
00000130: 9ab9 e8b5 51c7 0e3b 0e48 87bc 3266 a1b8
00000140: 1b0f d437 4144 433c 098a 62bb 1213 ac3c
00000150: 63d2 adb7 a76d e8bc eaab 01bd f4f6 02ba
00000160: be26 07b6 9b91 1235 d7a8 28bd 3051 97ba
00000170: 3ddb baba 350c 333a 9b10 8c3c 1b76 a13c
00000180: fabc 0eb2 a6e2 1eb2 dafd f437 d2c0 2ab8
00000190: 60a4 d8b7 c03f 2133 c6e2 b137 c93b 9bb6
000001a0: 381a a037 f9a5 4e33 bf04 ae37 6001 5db7
000001b0: 9e06 fa32 5f70 c7b7 c731 aab7 0da1 3eb4
000001c0: 2e4b 2432 fb5a 92b7 0eba 6e37 6357 9a37
000001d0: dfac 67b3 1923 bbb7 5d3d 9cb7 940e b836
000001e0: 1820 6433 151f 19b7 f24f 9bb7 9668 c337
000001f0: aab9 c337 7452 e4b4 442b 0338 6870 bc36
00000200: c0e5 89b8 581f 3f38 eaab 9c3c 8be2 88bd
00000210: 8e5f 433d 1b9b 5a39 5f01 c33c 1b84 18bd
00000220: 9758 63bd 8af6 0138 1a92 14bd 688f 40bd
00000230: f733 2238 105d d2bc 41d6 463d db8e 13b8
00000240: bb32 40b9 bf0d b8bc 676f 43bd 22da c23b
00000250: bc06 b838 0b65 c73b 2467 2d3e d924 343c
00000260: 6ab8 0735 b992 b63c 060c 2c3d 935f 0f3e
00000270: d509 a13d 4f91 183c a027 843d c9af d7bd
00000280: 7c18 1938 a2b6 9a36 3212 683c 9cbc 46bc
00000290: 7b52 f5bb 1c77 ac37 382d 303b ea28 c6bb
000002a0: 045e f33c 9166 b2b8 0cb2 5a3c 0215 2fbd
000002b0: 309e 14b7 e1f8 15bb 6ec5 f5bb a9f7 0139
000002c0: 9c55 c8b7 ddd9 683c b399 01bc 74bf df3c
000002d0: ced9 c737 79ab d3bc 538c 943b 3914 a63a
000002e0: a3f1 5237 10d3 713b 898d 0dbd 60ff d43c
000002f0: 68c9 3a3c c5c0 003b 298d d93c f7cd bfbb
00000300: fd69 f8b6 e3ec 1136 4590 9e3a 64f6 2abc
00000310: 53e4 0a3c a8de 13b7 2252 963b 5973 c1bb
00000320: 087e 02bc 8649 04b8 3238 e1bb a2ca 8339
00000330: 282b 1db7 dce4 a4bb 86f5 0a3c 4651 ea37
00000340: 14c2 6b37 6228 b9bb c1cd b0bb 6a04 3ebb
00000350: dee6 0335 3618 713b 9a21 f53c c5c1 0c3b
00000360: d93a 90b7 b760 613b 9e1f 283c 50ad 9d3c
00000370: c0f7 483c 04e5 d63a 1216 aa3b 3399 adbc
00000380: 8494 ce37 3283 dd37 bb4a a93b 0962 41bb
00000390: 1241 3abc 6cb6 e638 cb5e 36ba a2ed 023b
000003a0: 5a50 df3c 0ed8 1c38 83ac 4d3c 9fef 80bc
000003b0: 565c ad37 9db8 313a 939e 3cbc 426a 57b8
000003c0: 79a9 06b9 cc30 673b 7089 133c d3cb 6e3c
000003d0: c29f 7e38 ba77 83bc b727 d8bc 8501 2fba
000003e0: e92b c037 1f3a eaba 4f60 c7bc afe3 3bbb
000003f0: 3ba6 3fbb f7c4 2aba 0525 123c c4ae 4c3c
3.3855864e-05 2.514814e-06 0.028941672 -0.028359255 -0.030366713 5.2105092e-06 0.006376325 -0.009386756
0.05612557 -0.00013094611 0.027764505 -0.06971167 -1.7218557e-05 -0.00455531 -0.01997664 0.00016867899
-9.29422e-06 0.0017025962 -0.007927221 0.041513957 3.1692354e-05 -0.046959043 -0.03257168 0.0036475174
2.3453445e-06 0.004725323 -0.06564571 0.026041297 0.016339753 0.00830495 0.046582434 -0.0008103466
-1.4604729e-05 1.4263611e-05 -0.004308095 3.817842e-05 0.020735214 4.1239146e-05 0.0014521106 -0.0044503594
-0.023970876 2.977615e-05 -0.011231887 -0.0054082125 1.15425955e-05 -0.0026078564 0.014255818 -4.5881425e-05
-3.574449e-05 0.0125407865 -0.011794169 -0.0012570331 1.5460226e-05 0.009721139 0.060678523 0.0003057671
-1.7390892e-05 0.0034123745 0.025830958 0.033207238 0.011748084 -0.002295741 0.00018982224 -0.039610602
-1.4325011e-05 -5.8016517e-06 0.012788584 -0.003464222 -0.019100105 -1.8850775e-05 -0.0013496631 0.00013423196
0.032802068 6.019745e-05 0.019780109 -0.041384194 -1.7339364e-06 0.0021786282 -0.01651385 -7.6961136e-05
2.5279403e-05 0.0119181285 -0.0034567139 0.021005187 -2.0721176e-05 -0.028372599 -0.03165809 -0.00049959053
-2.0139119e-06 5.460112e-07 -0.041176643 -0.0011544582 -0.0014256012 0.0006830127 0.017097762 0.019709637
-8.308456e-09 -9.248344e-09 2.9205275e-05 -4.0710736e-05 -2.582575e-05 3.7543714e-08 2.1205644e-05 -4.62632e-06
1.9085695e-05 4.8114064e-08 2.0744626e-05 -1.3172947e-05 2.910684e-08 -2.3774975e-05 -2.0288759e-05 -1.7753719e-07
9.56315e-09 -1.7446922e-05 1.4229225e-05 1.8398923e-05 -5.3941104e-08 -2.230848e-05 -1.8625224e-05 5.4853244e-06
5.3114576e-08 -9.1267475e-06 -1.8514667e-05 2.3294513e-05 2.3332268e-05 -4.2528302e-07 3.1273128e-05 5.6159224e-06
-6.575463e-05 4.556714e-05 0.019124944 -0.06683835 0.04769855 0.00020847881 0.023804365 -0.03723536
-0.055504408 3.0985604e-05 -0.036272146 -0.047011763 3.8672206e-05 -0.025679141 0.048544172 -3.5180576e-05
-0.00018329445 -0.022467492 -0.047713663 0.0059464136 8.775058e-05 0.0060850433 0.16933876 0.010995113
5.0559777e-07 0.02228676 0.042003654 0.14001302 0.078632034 0.009311988 0.0645287 -0.10531575
3.6500845e-05 4.610819e-06 0.014164494 -0.012129929 -0.007486639 2.0559462e-05 0.0026882421 -0.006047358
0.029707916 -8.506806e-05 0.013348114 -0.042744644 -8.858318e-06 -0.002288394 -0.007500342 0.0001239466
-2.3881723e-05 0.014212099 -0.00791018 0.027312972 2.3824072e-05 -0.0258386 0.0045333295 0.0012670822
1.2573236e-05 0.0036899485 -0.034558807 0.026000679 0.011400558 0.001964615 0.026556568 -0.0058534103
-7.4033146e-06 2.174457e-06 0.0012097439 -0.010434721 0.008477288 -8.813724e-06 0.0045874277 -0.005903643
-0.0079646185 -3.1539726e-05 -0.006873154 0.0002513724 -9.367977e-06 -0.005032165 0.008481389 2.793282e-05
1.4052279e-05 -0.005650566 -0.0053956215 -0.002899433 4.913726e-07 0.0036788112 0.029923249 0.00214778
-1.719354e-05 0.0034389922 0.010261444 0.01924768 0.012266099 0.0016395156 0.0051906193 -0.021191215
2.4626272e-05 2.6406346e-05 0.0051663793 -0.0029507896 -0.011368053 0.00011001233 -0.0006956874 0.0019978066
0.027259994 3.7394515e-05 0.012553337 -0.01573926 2.0666204e-05 0.00067795237 -0.011512416 -5.1358955e-05
-0.0001284237 0.0035276888 0.009004936 0.014574963 6.0707105e-05 -0.016048301 -0.026386125 -0.00066759466
2.290863e-05 -0.0017870105 -0.024337916 -0.0028669646 -0.0029243368 -0.00065143354 0.008919959 0.012492839

fno_blocks.fno_skips.1.conv.weight f4 [32, 32, 1]
00000000: bc8c 0000 498e 0000 cf44 0000 8e0d 9db2
00000010: c97b 11b3 e58b 0080 a989 0000 659e 0080
00000020: 7b77 7eb2 ab8b 0000 75e7 a89b 5292 0000
00000030: 3b8a 0080 909b 0080 5089 0000 4592 0080
00000040: 6a8c 0000 fb25 02b2 c612 aeb2 b14a 83b1
00000050: 3e90 0080 7433 0000 117a 00b3 498f 0080
00000060: 6992 0080 5f89 0000 5893 0000 6c9f 2133
00000070: b494 0000 b289 0080 cada 00b3 5495 21b3
00000080: 538d 0000 c489 0000 8b64 a782 7069 8138
00000090: 3179 9138 c78a 0000 f288 0080 2e89 0000
000000a0: 132c edb4 cd88 0080 0d56 a021 678b 0000
000000b0: 3537 0000 078c 0000 4e89 0000 7a8d 0000
000000c0: 2a8e 0000 061e d836 26b4 2638 aeae 3bb6
000000d0: d288 0000 ee8b 0080 c479 c138 7c8e 0000
000000e0: 0a8e 0000 418a 0000 a48b 0080 d40b c437
000000f0: a18b 0000 c991 0000 60ab 6438 44d7 9938
00000100: 0295 0080 7990 0080 9ad5 0080 2b83 5ab3
00000110: 2139 38b3 3490 0080 3d8d 0000 8eae 0080
00000120: c735 c631 9e8f 0000 ff2f 181c 4d2a 0000
00000130: 978f 0080 f38d 0000 e692 0080 ac9c 0000
00000140: 029a 0080 3a39 fab0 0156 09b2 d878 0532
00000150: fa8d 0080 4eaf 0000 9994 99b3 7f93 0000
00000160: de0c 0000 9b8f 0000 978c 0000 8345 c0b2
00000170: 1590 0080 b18a 0000 6525 69b3 f410 20b3
00000180: 5cad 0000 8795 0000 d472 2580 d7aa 6036
00000190: dcd0 9736 8b8b 0080 dc8f 0000 f19c 0000
000001a0: 1968 0436 078e 0080 9206 291f 589e 0000
000001b0: ad90 0000 2790 0080 1392 0080 8097 0000
000001c0: adae 0080 d8d7 5135 ab5e 4236 46ed 1635
000001d0: 6a4d 0000 d68b 0080 e467 b736 c53b 0080
000001e0: f786 0000 8285 0000 0c9a 0080 3a4d 3d35
000001f0: 298d 0080 d392 0080 c616 5736 5477 ab36
00000200: 418c 0000 488b 0080 908b 0000 9fd9 beb0
00000210: 69ef 3b30 bc93 0080 578a 0000 328a 0000
00000220: 45be 94ae 3f8b 0080 79c9 4e1a e08a 0080
00000230: 958a 0080 782a 0000 f289 0080 578e 0000
00000240: fa9d 0080 23a4 f7af 9162 9930 10e3 77af
00000250: df88 0000 c78d 0000 469c a1af e488 0000
00000260: 218c 0080 128c 0000 7789 0080 a744 43b2
00000270: a034 0080 008c 0000 a852 28af 4194 53af
00000280: 668f 0000 028d 0080 4a8f 0080 8559 1231
00000290: c54f 882f 9b8a 0080 7289 0080 9b8e 0000
000002a0: 56c6 d1af e38a 0000 d054 c99a 3b8c 0000
000002b0: 0c8e 0080 0f8d 0080 c790 0080 f16e 0000
000002c0: 4273 0080 fd89 9b2f a28e 23b0 1a30 57b0
000002d0: d48b 0000 2a53 0000 f208 3731 828f 0000
000002e0: 8594 0080 ce92 0000 d797 0080 ff28 6531
000002f0: 278d 0080 6c8b 0080 0419 5c31 4996 bbb0
00000300: 9293 0080 488b 0080 bb8a 0000 1b45 d12a
00000310: 15d4 d02a 6b91 0080 f890 0000 2597 0080
00000320: bdfe 3aa8 23a7 0080 24d6 7193 6496 0080
00000330: 9e8c 0000 f196 0000 e490 0000 0a8c 0000
00000340: 6b9a 0000 c03a c6a8 3903 4e2a 6c21 9fa9
00000350: 1989 0080 d390 0080 1523 202b 4c97 0000
00000360: f48b 0000 d194 0000 be12 0080 a19f 892a
00000370: 3292 0000 388c 0000 3ca4 be2a 16dd 9e2a
00000380: b589 0000 43af 0000 7a85 1200 cc9c 60b4
00000390: de1b abb4 9c8a 0080 1f9b 0080 584f 0080
000003a0: cd8b 24b4 a190 0000 ae14 1e9d fc8f 0000
000003b0: 9e8a 0000 3299 0000 1f77 0080 2591 0000
000003c0: f094 0000 400c 7bb3 9f93 50b4 e18b 78b3
000003d0: 6895 0000 cd89 0000 ce62 bdb4 9497 0080
000003e0: ab8e 0000 b199 0080 3f9c 0080 5fc8 9a34
000003f0: 8a8f 0000 e4a3 0000 23dc c9b4 c3bf c7b4
5.0486e-41 5.1042e-41 2.4684e-41 -1.828337e-08 -3.3873025e-08 -5.0185e-41 4.9383e-41 -5.6821e-41
-1.4811913e-08 5.0103e-41 -2.7942844e-22 5.249e-41 -4.9588e-41 -5.5805e-41 4.9258e-41 -5.2472e-41
5.0371e-41 -7.575632e-09 -2.0264803e-08 -3.821093e-09 -5.1744e-41 1.8458e-41 -2.991334e-08 -5.1401e-41
-5.2522e-41 4.928e-41 5.2857e-41 3.7630727e-08 5.3345e-41 -4.9396e-41 -3.000131e-08 -3.7621547e-08
5.0698e-41 4.9421e-41 -2.4596153e-37 6.1708386e-05 6.9367125e-05 4.9784e-41 -4.9127e-41 4.9211e-41
-4.4176758e-07 -4.9075e-41 1.0864799e-18 5.0008e-41 1.9805e-41 5.0232e-41 4.9256e-41 5.0752e-41
5.0999e-41 6.440797e-06 3.974526e-05 -2.7966848e-06 4.9082e-41 -5.0197e-41 9.225638e-05 5.1114e-41
5.0954e-41 4.9596e-41 -5.0094e-41 2.3370529e-05 5.009e-41 5.2298e-41 5.451904e-05 7.335705e-05
-5.3454e-41 -5.1827e-41 -7.6626e-41 -5.0876377e-08 -4.2892797e-08 -5.173e-41 5.0667e-41 -6.2618e-41
5.768672e-09 5.152e-41 5.0354615e-22 1.5175e-41 -5.151e-41 5.0922e-41 -5.2697e-41 5.6203e-41
-5.5248e-41 -1.8206159e-09 -7.994005e-09 7.769096e-09 -5.0932e-41 6.2887e-41 -7.1516475e-08 5.2912e-41
4.616e-42 5.1516e-41 5.0434e-41 -2.2383352e-08 -5.1687e-41 4.9753e-41 -5.428355e-08 -3.726832e-08
6.219e-41 5.364e-41 -3.439106e-39 3.3478043e-06 4.524465e-06 -5.0059e-41 5.1607e-41 5.63e-41
1.9730126e-06 -5.095e-41 3.5792577e-20 5.6803e-41 5.19e-41 -5.1712e-41 -5.2402e-41 5.4348e-41
-6.2662e-41 7.817266e-07 2.8963357e-06 5.622463e-07 2.7771e-41 -5.0164e-41 5.4659195e-06 -2.1441e-41
4.8416e-41 4.7894e-41 -5.5262e-41 7.0520366e-07 -5.0639e-41 -5.267e-41 3.2050752e-06 5.1100888e-06
5.0314e-41 -4.9965e-41 5.0066e-41 -1.3886171e-09 6.8370426e-10 -5.2997e-41 4.9627e-41 4.9575e-41
-6.7640595e-11 -4.9952e-41 4.276255e-23 -4.9819e-41 -4.9714e-41 1.5235e-41 -4.9485e-41 5.1062e-41
-5.6671e-41 -4.5045664e-10 1.1160229e-09 -2.2545188e-10 4.91e-41 5.086e-41 -2.9396768e-10 4.9107e-41
-5.0269e-41 5.0248e-41 -4.9313e-41 -1.1366104e-08 -1.8878e-41 5.0223e-41 -1.5308876e-10 -1.9243009e-10
5.1442e-41 -5.0584e-41 -5.1402e-41 2.1296682e-09 2.4794936e-10 -4.9722e-41 -4.9306e-41 5.1157e-41
-3.8157805e-10 4.9823e-41 -8.3268674e-23 5.0305e-41 -5.0957e-41 -5.0602e-41 -5.1936e-41 3.9798e-41
-4.1347e-41 2.8292382e-10 -5.950175e-10 -7.82849e-10 5.0161e-41 2.9834e-41 2.663509e-09 5.1481e-41
-5.3279e-41 5.2664e-41 -5.447e-41 3.334719e-09 -5.0636e-41 -5.0015e-41 3.2028433e-09 -1.3648754e-09
-5.2938e-41 -4.9965e-41 4.9767e-41 3.717381e-13 3.7095384e-13 -5.2166e-41 5.2005e-41 -5.422e-41
-1.0380312e-14 -5.9957e-41 -3.0524056e-27 -5.395e-41 5.0444e-41 5.4148e-41 5.1977e-41 5.0237e-41
5.5395e-41 -2.2007895e-14 1.8297594e-13 -7.066816e-14 -4.9181e-41 -5.1953e-41 5.6892105e-13 5.4275e-41
5.0206e-41 5.3385e-41 -6.723e-42 2.4446854e-13 5.2445e-41 5.0301e-41 3.386474e-13 2.8219847e-13
4.94e-41 6.2872e-41 1.700921e-39 -2.0918668e-07 -3.1871508e-07 -4.9724e-41 -5.5647e-41 -2.8463e-41
-1.532455e-07 5.1883e-41 -2.0921817e-21 5.1652e-41 4.9726e-41 5.4956e-41 -4.2733e-41 5.2068e-41
5.3429e-41 -5.8451633e-08 -1.9425214e-07 -5.786922e-08 5.3597e-41 4.9434e-41 -3.5275883e-07 -5.4376e-41
5.118e-41 -5.5134e-41 -5.605e-41 2.8830524e-07 5.1492e-41 5.8793e-41 -3.7599338e-07 -3.7206163e-07

fno_blocks.fno_skips.2.conv.weight f4 [32, 32, 1]
00000000: 048c 0080 e589 0000 4689 0080 849d 4a30
00000010: e423 c8b0 9e89 0080 618a 0080 eb88 0000
00000020: 98fb 7caf 7389 0000 bf92 0080 428f 0080
00000030: 198b 0080 808b 0000 ee25 0080 3b89 0080
00000040: 9b09 fb13 34f9 88ae f3a5 30b0 49de 9bab
00000050: d592 0080 c491 0000 58b0 4431 078b 0000
00000060: ba8c 0000 708b 0000 5aaf 0000 bd8b de31
00000070: c189 0000 9e89 0000 b5de 0730 228b dab1
00000080: c78f 0080 758a 0080 088d 0080 bc5d 2f96
00000090: dc4a 8496 228d 0000 d48d 0000 8d8a 0080
000000a0: 0905 2d95 fb8a 0000 f4ae 0080 8f8b 0000
000000b0: 598c 0000 f08c 0080 a389 0080 5d89 0000
000000c0: b78c 0080 f29f 9b95 6bc5 1196 f16c 6f95
000000d0: 4f8a 0000 6490 0000 6eca 8f95 2989 0080
000000e0: 3b8b 0000 d28e 0080 ad8a 0080 ead7 a717
000000f0: d68a 0080 bb8a 0080 1bb9 da95 d518 5996
00000100: e98a 0080 fa8d 0000 6594 0000 d870 a524
00000110: e7c8 9725 3498 0000 fd13 0000 da88 0080
00000120: be90 0325 968b 0080 98ad 0080 6b8c 0000
00000130: 64ae 0080 e292 0000 498f 0080 c795 0000
00000140: ee79 130b 33a2 2925 8c06 7325 300c 9224
00000150: be92 0000 b58b 0000 97cc da25 958c 0080
00000160: 978c 0080 9791 0000 d193 0080 9091 65a6
00000170: f589 0080 748b 0080 552e 5224 0bc7 5526
00000180: 538a 0080 278b 0080 9d8e 0080 1f46 7e37
00000190: 8e10 1f38 318d 0080 6d89 0000 2d96 0000
000001a0: c0ab a737 ad89 0000 2b8c 0080 de9e 0080
000001b0: f28a 0000 4089 0080 9d89 0080 af99 0000
000001c0: 73c9 df1c 5a67 4ab6 d4f3 8137 b1f3 9536
000001d0: 3d8b 0000 9f99 0000 2943 ca36 2b8a 0080
000001e0: cd98 0080 4a92 0000 6e96 0080 c423 c8b8
000001f0: 6389 0080 fc88 0080 3331 9f37 1ba5 c838
00000200: a28a 0000 698c 0000 338b 0080 1c28 d02e
00000210: 89e3 e8b0 7989 0000 d58c 0080 658c 0080
00000220: 96a4 2cb0 6089 0000 0b98 0000 a093 0080
00000230: 8e9a 0080 888c 0080 3d95 0080 3e8b 0080
00000240: 8963 4494 d481 2f2f e038 38b0 8d16 25af
00000250: f99f 0000 b28d 0000 5b20 1431 838c 0080
00000260: 0c8a 0080 0d8b 0000 c1ac 0080 a8b1 c631
00000270: c78b 0080 938a 0000 197a 33af dc36 b5b1
00000280: eb90 0000 5990 0080 b898 0080 6d1c d934
00000290: 754b 5736 3d8a 0000 1199 0000 bb94 0080
000002a0: b8d8 2736 b489 0080 d2a4 0000 b98d 0000
000002b0: 14a7 0000 3da1 0080 c98f 0080 75a8 0080
000002c0: f1df 521b f8e0 6b35 fa92 dc35 5537 a235
000002d0: 408b 0000 cb8c 0080 884c 14b4 ae8f 0000
000002e0: 2eae 0080 618b 0000 0ca2 0000 c597 0cb7
000002f0: 188d 0000 618e 0080 f8a4 6c35 636d 4137
00000300: de8d 0080 948b 0080 328e 0000 900e 11a5
00000310: d13f 17a5 268c 0000 9e89 0000 3089 0080
00000320: 31b7 1f23 938b 0000 8d89 0000 7c89 0080
00000330: b98b 0000 028a 0080 2d8a 0080 5589 0000
00000340: cd40 b989 9e7a 7c23 ff71 afa3 7fd7 a023
00000350: fa88 0000 9c94 0080 163a 1ea5 158b 0080
00000360: a08a 0000 c68b 0080 6189 0080 c736 4027
00000370: ca8c 0080 218a 0080 b7d8 c0a4 10d7 67a5
00000380: f59b 0000 29af 0000 cd8c 0080 e683 572f
00000390: 6355 e82e e893 0000 7890 0080 ee8b 0080
000003a0: a268 b22d 7b8b 0000 bc90 0080 f2ad 0000
000003b0: e495 0000 5d05 0080 0298 0000 9b89 0000
000003c0: 2dd7 0d14 d72e c2ae 5ef6 0d2d 99c4 bfad
000003d0: 74a7 0000 b598 0080 25c4 b82f 7e97 0080
000003e0: a399 0080 5590 0080 5c9f 0080 75d5 292f
000003f0: 0a8a 0080 9c8f 0080 7682 2c2f ef7d 822d
-5.0228e-41 4.9467e-41 -4.9244e-41 7.3711015e-10 -1.4562116e-09 -4.9368e-41 -4.9641e-41 4.9117e-41
-2.300865e-10 4.9307e-41 -5.2643e-41 -5.1391e-41 -4.9899e-41 5.0043e-41 -1.3607e-41 -4.9229e-41
6.337078e-27 -6.228831e-11 -6.4264255e-10 -1.1075109e-12 -5.2673e-41 5.2291e-41 2.8621994e-09 4.9874e-41
5.0483e-41 5.0021e-41 6.2904e-41 6.4769368e-09 4.9417e-41 4.9368e-41 4.94292e-10 -6.3604526e-09
-5.1578e-41 -4.9669e-41 -5.0592e-41 -1.4165965e-25 -2.1372993e-25 5.0629e-41 5.0878e-41 -4.9703e-41
-3.4941044e-26 4.9857e-41 -6.2761e-41 5.0064e-41 5.0347e-41 -5.0559e-41 -4.9375e-41 4.9277e-41
-5.0479e-41 -6.285635e-26 -1.1775301e-25 -4.8351605e-26 4.9616e-41 5.1798e-41 -5.807662e-26 -4.9204e-41
4.9946e-41 -5.1234e-41 -4.9747e-41 1.0846626e-24 -4.9805e-41 -4.9767e-41 -8.8341544e-26 -1.7536956e-25
-4.9832e-41 5.0932e-41 5.3234e-41 7.174851e-17 2.633046e-16 5.46e-41 7.17e-42 -4.9093e-41
1.1411479e-16 -5.0074e-41 -6.2274e-41 5.0372e-41 -6.256e-41 5.2692e-41 -5.1401e-41 5.373e-41
2.84029e-32 1.4713369e-16 2.1079108e-16 6.333805e-17 5.2641e-41 5.0117e-41 3.7955607e-16 -5.0431e-41
-5.0434e-41 5.2228e-41 -5.3027e-41 -7.964761e-16 -4.949e-41 -5.0026e-41 4.5575736e-17 7.4168974e-16
-4.9621e-41 -4.9918e-41 -5.116e-41 1.5155906e-05 3.7923972e-05 -5.065e-41 4.9299e-41 5.3873e-41
1.9987929e-05 4.9389e-41 -5.0283e-41 -5.6991e-41 4.9844e-41 -4.9236e-41 -4.9366e-41 5.5131e-41
1.4808976e-21 -3.0160504e-06 1.549154e-05 4.4689154e-06 4.9949e-41 5.5109e-41 6.0278876e-06 -4.9565e-41
-5.4815e-41 5.2479e-41 -5.3964e-41 -9.543405e-05 -4.9285e-41 -4.9141e-41 1.8977187e-05 9.5674965e-05
4.9732e-41 5.037e-41 -4.9935e-41 9.46587e-11 -1.6944891e-09 4.9316e-41 -5.0521e-41 -5.0364e-41
-6.2807126e-10 4.9281e-41 5.4543e-41 -5.2958e-41 -5.5444e-41 -5.0413e-41 -5.3537e-41 -4.995e-41
-9.915101e-27 1.5962281e-10 -6.7019634e-10 -1.5014674e-10 5.7387e-41 5.083e-41 2.1555226e-09 -5.0406e-41
-4.9522e-41 4.9882e-41 -6.1972e-41 5.7827556e-09 -5.0143e-41 4.9711e-41 -1.6323333e-10 -5.27403e-09
5.1987e-41 -5.1782e-41 -5.4785e-41 4.0440082e-07 3.2081418e-06 4.959e-41 5.491e-41 -5.3354e-41
2.5011086e-06 -4.9399e-41 5.9126e-41 5.084e-41 5.9936e-41 -5.7841e-41 -5.158e-41 -6.0431e-41
1.7443152e-22 8.7871695e-07 1.6434053e-06 1.2086044e-06 4.9953e-41 -5.0507e-41 -1.3811416e-07 5.1543e-41
-6.2484e-41 5e-41 5.8131e-41 -8.379987e-06 5.0615e-41 -5.1076e-41 8.815691e-07 1.1529165e-05
-5.0892e-41 -5.0071e-41 5.101e-41 -1.2581679e-16 -1.3118784e-16 5.0276e-41 4.9368e-41 -4.9214e-41
8.6581996e-18 5.007e-41 4.9344e-41 -4.932e-41 5.0123e-41 -4.9508e-41 -4.9568e-41 4.9265e-41
-4.459807e-33 1.36869126e-17 -1.9021817e-17 1.7438501e-17 4.9138e-41 -5.3311e-41 -1.3723996e-16 -4.9893e-41
4.9729e-41 -5.0141e-41 -4.9282e-41 2.6675047e-15 -5.0506e-41 -4.9551e-41 -8.3633856e-17 -2.0108922e-16
5.5947e-41 6.2836e-41 -5.051e-41 1.9600996e-10 1.0565306e-10 5.3059e-41 -5.1826e-41 -5.0197e-41
2.0282723e-11 5.0036e-41 -5.1921e-41 6.24e-41 5.377e-41 -1.924e-42 5.453e-41 4.9364e-41
7.161117e-27 -8.830419e-11 8.0696266e-12 -2.1801493e-11 6.0071e-41 -5.4781e-41 3.3608774e-10 -5.4345e-41
-5.5114e-41 -5.1777e-41 -5.7167e-41 1.5446296e-10 -4.9519e-41 -5.1517e-41 1.5689658e-10 1.4835215e-11

fno_blocks.fno_skips.3.conv.weight f4 [32, 32, 1]
00000000: 2e82 0000 ae9a 0080 a05a ae03 5301 81ba
00000010: ff21 183b 62d1 fd1a 80b1 840a d876 0000
00000020: 9e49 843c 8837 0000 dd34 0100 cb4a 0100
00000030: eec7 2d04 772c 0000 922c 0080 6227 0180
00000040: 3e7f 8f38 f9e9 a73b cfa1 e03b 7b0b dd3b
00000050: 9275 fc8f fa0c d0b3 4997 51bd f233 1400
00000060: 01d4 8202 7b4a 0100 41a8 0280 3979 803d
00000070: 71ba 0080 1a96 0000 f30b c83b 836a 673d
00000080: b856 0000 9e8a 0000 2440 6483 5773 5d3a
00000090: 28f3 fdba 5bb1 8e9a 52a4 3f8a 6b8e 0080
000000a0: 6b25 71bc 4249 0080 dfcd 0080 d5b2 0080
000000b0: 27f9 1784 4796 0080 fa8c 0000 cf37 0100
000000c0: 0c16 23b8 bb72 9abb 83a3 b4bb 3104 ccbb
000000d0: 6716 b20f 2e8e 9033 1cc4 363d aa37 0e80
000000e0: dd1c 3d82 3832 0180 16c1 0200 e100 4fbd
000000f0: 743a 0000 ea90 0080 715b b2bb dbee 51bd
00000100: 8700 0080 6e98 0080 adcf 0580 abbe b435
00000110: fd6d 1435 bbb7 b894 8193 9680 0f8a 0080
00000120: cc06 32b7 8a9b 0000 a78c 0080 548f 0080
00000130: b27f 0200 e48b 0080 108a 0080 7b8b 0080
00000140: 94ec 0634 50d5 6cb6 3b04 7a35 c4a4 b4b6
00000150: ed96 3e87 6e9d c3af 876e 8437 2b37 0000
00000160: a54f 0180 a18b 0000 d834 0080 fec8 59b6
00000170: 4f8f 0000 488a 0000 9190 32b6 4f12 d7b7
00000180: a48a 0080 10a2 0080 7ecb 2080 def5 97b6
00000190: 4626 ceb7 c7e2 dc96 e36e ac85 6f8e 0080
000001a0: fecd a7b7 5189 0000 b98c 0080 ca95 0080
000001b0: d718 0580 438b 0000 8a89 0000 c68c 0000
000001c0: 72a5 52b7 a6d4 11b6 2bb4 06b8 655b 0ab7
000001d0: 0a3a 260b 8e55 fcb1 640d 8537 1187 0000
000001e0: 4f42 0380 1395 0000 21a5 0000 df92 6838
000001f0: 478b 0000 0089 0000 9a16 87b7 bf99 20b8
00000200: 9621 0000 0932 0000 1296 5e84 3fdc b13a
00000210: 0d7c 66bb 3026 769b acba cf8a 9690 0080
00000220: 7522 aabc d458 0080 c654 0080 2183 0280
00000230: 4167 c784 a28b 0000 8a62 0080 8055 0200
00000240: ddeb 0fb9 5430 d9bb 7273 30bc b482 06bc
00000250: 20a6 5210 9648 9b33 bc9e 8f3d 9cfd 2580
00000260: c902 b382 6a7c 0180 4d84 0200 5020 a3bd
00000270: 313d 0200 d32c 0080 f25a ffbb 25cf a7bd
00000280: 5612 0000 828f 0080 dc38 8202 6c65 1eba
00000290: 37c8 9f3a e383 7e19 3fb6 8709 cf45 0000
000002a0: bb59 543c b396 0000 f5d6 0000 2909 0000
000002b0: dab7 7703 1c8e 0080 f595 0000 9417 0080
000002c0: e777 13b8 90c7 8a3b 3955 493b f9dd b83b
000002d0: 58e3 008f 1c72 03b4 d571 00bd 2191 0600
000002e0: e38b 9b01 887b 0000 571a 0180 6d9e f53c
000002f0: 2280 0000 d90a 0000 a8cf 933b fd40 393d
00000300: b95b 0000 c490 0080 1f15 8d02 a00a 8eb9
00000310: c2dc 003a 3b86 ef96 4426 ac08 3291 0000
00000320: 85a5 8c3b fd44 0080 e81a 0080 2811 0080
00000330: c712 1a03 9e8c 0000 6a93 0080 288b 0080
00000340: 4b14 12b8 ad89 b63a a85e a53a 4811 003b
00000350: f033 578e 9dfe 4b34 6028 36bc acba 0100
00000360: f01b 5780 585f 0080 2f95 0080 2edb 793c
00000370: 7a99 0080 1389 0000 aa02 c23a b8e8 793c
00000380: e243 0000 043e 0080 b87d 5001 66d4 4db9
00000390: eb75 a239 09fa 5798 b5a2 6b08 8b8c 0000
000003a0: 651a 2c3b 5fa5 0000 ce89 0000 028d 0080
000003b0: 1de6 c302 8c48 0000 ba88 0080 918b 0080
000003c0: c9a2 0ab8 e613 643a 1e4c 583a 08c6 9f3a
000003d0: b269 108e 4c1e 3534 6222 ddbb 73db 0000
000003e0: 9e1f 0e80 4d94 0080 1989 0080 4e71 383c
000003f0: 5711 0000 3135 0080 3676 6b3a 9fd3 113c
4.67e-41 -5.5489e-41 1.0247607e-36 -0.0009842314 0.0023213623 1.04976624e-22 1.2777906e-32 4.2633e-41
0.016148385 1.9921e-41 1.10799e-40 1.18666e-40 2.0427855e-36 1.5951e-41 -1.5989e-41 -1.05963e-40
6.842472e-05 0.0051243273 0.0068552266 0.0067457533 -2.4894405e-29 -9.688115e-08 -0.051169667 1.855344e-39
1.9223467e-37 1.18554e-40 -2.44029e-40 0.062731214 -6.6883e-41 5.3846e-41 0.00610494 0.056498062
3.1109e-41 4.9726e-41 -6.707681e-37 0.0008447668 -0.0019374834 -5.9016357e-23 -9.227221e-33 -5.109e-41
-0.014718394 -2.628e-41 -7.3853e-41 -6.4153e-41 -1.786437e-36 -5.391e-41 5.0573e-41 1.11856e-40
-3.888276e-05 -0.004713384 -0.005512656 -0.0062260856 1.7560784e-29 6.731385e-08 0.04462062 -1.305665e-39
-1.389381e-37 -1.0985e-40 2.52937e-40 -0.050537948 2.0969e-41 -5.1985e-41 -0.0054430296 -0.05125318
-1.89e-43 -5.4681e-41 -5.33678e-40 1.3466537e-06 5.529435e-07 -1.8651721e-26 -1.3828239e-38 -4.9526e-41
-1.0611209e-05 5.5797e-41 -5.0457e-41 -5.1416e-41 2.2948e-40 -5.0183e-41 -4.9527e-41 -5.0036e-41
1.2565789e-07 -3.5290905e-06 9.3138414e-07 -5.3835993e-06 -1.4338364e-34 -3.5582154e-10 1.5787095e-05 1.979e-41
-1.20407e-40 5.009e-41 -1.8957e-41 -3.2452513e-06 5.141e-41 4.9606e-41 -2.6608216e-06 -2.5638523e-05
-4.9735e-41 -5.8137e-41 -3.011735e-39 -4.5287734e-06 -2.4574936e-05 -3.5686034e-25 -1.6215536e-35 -5.1096e-41
-2.0003874e-05 4.926e-41 -5.0482e-41 -5.3734e-41 -4.68088e-40 4.9958e-41 4.934e-41 5.05e-41
-1.2555496e-05 -2.1730461e-06 -3.2115884e-05 -8.24672e-06 3.20141e-32 -7.3438917e-09 1.5861071e-05 4.8453e-41
-2.99294e-40 5.3478e-41 5.9237e-41 5.5449895e-05 4.9963e-41 4.9146e-41 -1.6103779e-05 -3.829016e-05
1.2048e-41 1.7949e-41 -2.6164883e-36 0.0013569667 -0.0035169155 -2.0360982e-22 -2.0003593e-32 -5.1868e-41
-0.020768384 -3.1866e-41 -3.0411e-41 -2.30711e-40 -4.68795e-36 5.0091e-41 -3.5349e-41 2.14343e-40
-0.00013725409 -0.0066280756 -0.010769712 -0.008209873 4.1543176e-29 7.230953e-08 0.07012698 -3.488891e-39
-2.6303285e-37 -1.36467e-40 2.31132e-40 -0.079651475 2.05622e-40 -1.608e-41 -0.007792824 -0.081938066
6.578e-42 -5.1481e-41 1.913442e-37 -0.0006042335 0.0012190406 1.31581265e-23 3.267145e-33 2.5043e-41
0.012960847 5.406e-41 7.7112e-41 3.286e-42 7.2797827e-37 -5.0979e-41 5.3794e-41 -8.458e-42
-3.51592e-05 0.0042352155 0.0030720963 0.0056416956 -6.354672e-30 -1.2241838e-07 -0.03135856 6.03075e-40
5.7138735e-38 4.4315e-41 -1.01284e-40 0.02998277 4.5965e-41 3.891e-42 0.0045108385 0.045227993
3.2904e-41 -5.1932e-41 2.073021e-37 -0.00027092267 0.0004915708 -3.8697244e-25 1.036087e-33 5.2086e-41
0.0042921924 -2.4748e-41 -9.652e-42 -6.155e-42 4.527809e-37 5.0444e-41 -5.2882e-41 -4.992e-41
-3.4828012e-05 0.0013926529 0.0012616711 0.001954155 -2.6525803e-30 1.8998476e-07 -0.011118025 1.58801e-40
-7.99971e-39 -3.4203e-41 -5.3517e-41 0.01525001 -5.5057e-41 4.9173e-41 0.0014801819 0.015253238
2.4352e-41 -2.2247e-41 3.8293765e-38 -0.00019629448 0.00030986904 -2.7914334e-24 7.0909e-34 5.0417e-41
0.002626085 5.9324e-41 4.9435e-41 -5.0584e-41 2.8784753e-37 2.6025e-41 -4.9048e-41 -5.0067e-41
-3.305337e-05 0.0008700475 0.00082510884 0.0012189755 -1.780026e-30 1.686796e-07 -0.0067484835 7.8724e-41
-1.297039e-39 -5.32e-41 -4.9181e-41 0.011257483 6.22e-42 -1.9081e-41 0.00089821534 0.008900552

fno_blocks.channel_mlp.0.fcs.0.weight f4 [16, 32, 1]
00000000: abce e33d 2ccf 97bd 920e 0abb f071 9238
00000010: a1ec 6e3e 763f cf3d 5049 c5bc bcce 563d
00000020: c4d2 c33e 9394 c83c 82db 50bd 787a 823e
00000030: f9e6 133e a095 4ebe a33d 9637 1082 ebb9
00000040: 727f 1bbd 07ca 87be 1a6f db3b 943a 5838
00000050: 4248 fabc 4a48 e6bd 32f7 ae3d 4e86 593e
00000060: 7ee2 2c38 bd05 893c b8d6 42bd 8c02 ea3d
00000070: 078e 1dbc ca79 873a 7790 953d 23e6 4fbc
00000080: 7a6f bf3d b0da dcba b88d 923d 22e5 09b9
00000090: 1080 2fbd 60d7 043e a36e 323d cc6e dc3c
000000a0: 1a4f 85be ffc6 02be 8152 103e 5c0c 023e
000000b0: 60b5 de3a e5d5 453e ea4e 31b8 b54d 97b8
000000c0: ee11 5b3d 7737 863d 3e2a 1c3e 72f0 c937
000000d0: 910e 073d c166 cb3d 4c2a 9fbd 3cea 0b3e
000000e0: 85f6 22b8 2624 23bd 1bc9 fb3c fe2a 9f3d
000000f0: ba2f 42bd cd10 eeb9 13ea 843b 7d6f 9b3d
00000100: c01e f2bc 1d3b ec3d fff1 75bd 35e4 2e38
00000110: ba1a 133e 9ca8 9e3d a275 af3d b4e1 713d
00000120: 0453 b23e 7774 073e 85b2 bb3c ca93 cabd
00000130: 3f68 c83c cc50 97bd 3cd2 65b8 28b7 2ab9
00000140: 07d8 85bd 92da c83d 168d 1abe dbb5 dcb8
00000150: 06a2 7abb f274 44bd 800a 5bbd 0d51 32be
00000160: 79ef 4fb8 71b5 dc3d d59d 7b3d 511e 4ebd
00000170: 6955 873d 4325 c939 071c 2abd 3f0f 853c
00000180: dd1b c43c 3414 1cbb e54e fb3b ee0f 9737
00000190: b99a d6bc d048 4bbb 101f 37bc d19c bebc
000001a0: 1f2f a5bb 991e 32bb 4c8d ccba 0dc6 363d
000001b0: 7cd6 60bc 4ba2 0cbc c993 15b7 c898 fdb9
000001c0: 656c b33c 2332 22bd 025f a9bd 45ce a337
000001d0: a1db 443b 1ec5 e3ba 8a6d f1bc 76d2 283d
000001e0: 4c06 9337 880e 05bc e641 b5bd 7fdf f53c
000001f0: 7bff afbb 139b 09b8 4bd1 32bd a8f5 4f3a
00000200: e909 02bb e9bc 35bb 0635 ee3b 63c9 7c37
00000210: d7ec fe3c 9edd c6bc 46c9 67bc ee5c 0fbd
00000220: 9421 97bc 7aa4 40bc c31f 43bc 6bd9 d73d
00000230: 853f 30bc 2431 d1bc b7b0 a936 426e 36ba
00000240: c9b9 c73b e30f 3bbd 2eee f9bd e477 a137
00000250: 7c45 313b 1469 b83b f8a0 50be 3c28 be3c
00000260: fd80 22b7 e504 95bc 34c2 ea3c f593 013c
00000270: 7875 b5bc c049 db38 ba53 7d3d ea3c 2b3a
00000280: e890 8abc fb24 2b3d 9ae2 cfbb 2d6a 4db9
00000290: 6d50 66bd 5b54 b9bc 33b4 353d 9ebf 0bbd
000002a0: 920a 0c3e 6702 773c 35f2 8e3d 0d03 42bd
000002b0: d0d5 6bbc d48a b3bd 9186 bd38 0be0 8438
000002c0: 6ee8 abbb 5a88 f63d c01d 4bba 8b67 2138
000002d0: 7c8a 1bbc 465d 5ebd b5b2 2e3d a63e 8fbd
000002e0: 7d40 20b8 b05c c93d 46ec 263c 5fc2 05bd
000002f0: 580d 473d 982c 3237 6f3b 08bd 38e6 493c
00000300: f682 813c b251 a9bd d826 223d 2083 ff38
00000310: fb55 68be 7ac4 813d 2b84 713d 220a d3bc
00000320: 9237 cabe 922a 383c 1b50 c43d 5645 2abe
00000330: 50d6 9abd 03bc 6d3e 02d8 8438 0e25 e639
00000340: e1fc bc3c 15a5 0a3e 404f 4a3d 95c5 29b6
00000350: 6c82 493d 0aea da3d 0c23 cb3d 2e73 97bd
00000360: 6df6 b738 77aa dd3c ea90 87bd e125 13bd
00000370: 90ba 6cbd 19a9 403a 7f08 bc3a 2fd8 d43c
00000380: 3427 47bd 93aa 803d d11c ebbc 8e50 7c38
00000390: 9647 79bc 23d9 92bd 3c2d 453d 4280 253d
000003a0: f79d 773e fd1b 8b3e f477 ec3c a872 95be
000003b0: 6871 b1bb dd92 0ebe 63bf 8138 ee45 2b39
000003c0: 2f43 90bc 9af5 683d d083 13bd e056 cc38
000003d0: 3daf abbc 9472 c3bd 62af 883e ba92 c1be
000003e0: 2aab a438 b040 023e 9788 593e a6f1 3bbe
000003f0: aec0 c33d b9ba 48ba 9814 153e 092a 823c
0.11123403 -0.07412562 -0.0021065813 6.983045e-05 0.23332454 0.10119526 -0.02408281 0.05244325
0.3824674 0.024484908 -0.05099059 0.2548406 0.14443578 -0.20174265 1.7910095e-05 -0.00044919597
-0.03796334 -0.26521322 0.006696594 5.155297e-05 -0.030552033 -0.11244257 0.085432425 0.2124264
4.1218933e-05 0.016726369 -0.047568053 0.11426267 -0.0096163815 0.0010335979 0.07302945 -0.012689146
0.09347434 -0.0016849842 0.07155937 -0.00013150697 -0.04284674 0.12972784 0.043562543 0.0269083
-0.26036912 -0.12771223 0.14093973 0.12700027 0.001699131 0.19319876 -4.2273583e-05 -7.214715e-05
0.053483896 0.06553548 0.15250489 2.4073033e-05 0.032972876 0.09931708 -0.07771739 0.13663572
-3.88534e-05 -0.039829396 0.030735543 0.07771872 -0.047408797 -0.00045407415 0.004056224 0.07589624
-0.029555678 0.115347125 -0.06004524 4.1697367e-05 0.14365664 0.077470034 0.085673586 0.059053138
0.3482896 0.13228022 0.022912273 -0.0989147 0.02446377 -0.07388458 -5.479365e-05 -0.00016280694
-0.065353446 0.09807314 -0.15092883 -0.00010524291 -0.0038243546 -0.04796309 -0.05347681 -0.17413731
-4.9575672e-05 0.10776795 0.061429817 -0.05032188 0.066080876 0.0003836547 -0.041530635 0.016242621
0.023939067 -0.0023815753 0.007669317 1.800802e-05 -0.026196824 -0.0031018741 -0.0111768395 -0.023268135
-0.0050410177 -0.0027178882 -0.0015606075 0.04462247 -0.013723012 -0.0085836155 -8.915501e-06 -0.0004836975
0.021902272 -0.039598595 -0.082700744 1.9527166e-05 0.0030038136 -0.0017377471 -0.029471178 0.041216336
1.7526698e-05 -0.00812114 -0.0885046 0.030013798 -0.005371032 -3.280777e-05 -0.04365663 0.0007933029
-0.0019842333 -0.0027731007 0.0072695045 1.50672595e-05 0.031118793 -0.024275597 -0.014147108 -0.035000734
-0.018448628 -0.011757964 -0.011909428 0.10539516 -0.010757332 -0.025536127 5.057165e-06 -0.0006959179
0.0060951454 -0.045669448 -0.12203632 1.9248524e-05 0.0027049473 0.0056277607 -0.20373905 0.023212545
-9.685985e-06 -0.01819081 0.028657056 0.007908811 -0.02215074 0.00010456471 0.061847426 0.0006532209
-0.0169148 0.041783314 -0.0063441517 -0.00019589877 -0.056229044 -0.022623232 0.044361304 -0.034118287
0.13675907 0.015076256 0.06979791 -0.04736619 -0.014394239 -0.08766714 9.037287e-05 6.335982e-05
-0.0052462136 0.12037726 -0.00077482685 3.8481823e-05 -0.0094934665 -0.05428817 0.042650897 -0.06994371
-3.8207032e-05 0.09832132 0.010188168 -0.03265607 0.04859671 1.062001e-05 -0.033259805 0.012322955
0.015809517 -0.08267535 0.039587826 0.000121837715 -0.22689049 0.06336303 0.058963936 -0.025761668
-0.39495522 0.011240618 0.095855914 -0.16628012 -0.07560408 0.23216252 6.334485e-05 0.00043896626
0.0230698 0.13539536 0.049391985 -2.529797e-06 0.049196646 0.10689171 0.09918794 -0.07395016
8.7720204e-05 0.027058823 -0.06619437 -0.035924796 -0.057795107 0.0007349416 0.0014345794 0.02598199
-0.04862137 0.062825345 -0.028700264 6.0156504e-05 -0.015214821 -0.07170322 0.048138842 0.04040552
0.24181353 0.2716979 0.028865792 -0.29189038 -0.0054151304 -0.13923211 6.186848e-05 0.00016333882
-0.01761016 0.05687485 -0.036014378 9.74366e-05 -0.020957584 -0.095433384 0.26696306 -0.37807256
7.852011e-05 0.12719989 0.21243511 -0.183539 0.09558235 -0.00076572184 0.14558637 0.015889185

fno_blocks.channel_mlp.0.fcs.0.bias f4 [16]
00000000: 93ec af3d 4ae2 bb3d 6d6e cb3d babc 27bd
00000010: 911c 99bc 0eb9 ec3b c0a9 b4bd 3baf ca3c
00000020: 113d 36bd 4877 923d 00ef 8c3d 90e2 fa3c
00000030: aefe 5d3e 2bb8 003e 9d48 093d bee9 f53b
0.08590045 0.091740206 0.099331714 -0.040951468 -0.01869038 0.0072242087 -0.0882144 0.02474176
-0.04449183 0.07151657 0.06881523 0.030625612 0.21679184 0.12570255 0.033516515 0.007504671

fno_blocks.channel_mlp.0.fcs.1.weight f4 [32, 16, 1]
00000000: 3e89 0000 b189 0000 a594 0080 0689 0080
00000010: 5b89 0080 4d8a 0080 cc8c 0000 e58b 0000
00000020: 868a 0000 e08b 0080 f78e 0080 648b 0080
00000030: e28a 0080 0389 0080 088a 0080 b68b 0000
00000040: f489 0000 dc89 0080 898c 0000 598a 0000
00000050: 0690 0000 1c8a 0000 518a 0080 528a 0000
00000060: cf89 0000 9989 0080 808f 0080 0a73 0000
00000070: cb88 0000 0b8a 0080 618b 0000 338b 0000
00000080: 27c1 9c86 8c71 b703 bcf9 6085 85c9 8805
00000090: bc8f 9006 1ee5 9485 8d69 be06 ee6f 3a87
000000a0: c50a e204 05e1 c185 0b86 9b84 945f 7805
000000b0: c1de d286 b25f 6286 b12c 8f86 466f ec86
000000c0: a707 87be 40cb 9bbd 472e f4bc 5466 813b
000000d0: 2999 42ba 6546 e83d e669 5fbd 1480 a83e
000000e0: df68 ed3a ec3d 31bb e8c8 13bd 8321 44bb
000000f0: 59bb 8d3d 5955 cbbc 4cd7 08bd 7780 7ebd
00000100: 8fee 353e 52a2 63bd fdd5 80bd 9508 973c
00000110: 228c cdbc de79 80bd 0522 80bc 2d6b 353d
00000120: 8646 3abc a94a f13d 8ae7 f6bc 1819 1bbc
00000130: bf12 483e 85d3 3d3e 162d d8bb 191d 7ebc
00000140: 6589 0080 288a 0000 fb88 0080 7989 0080
00000150: 228a 0080 9689 0080 e099 0000 4189 0000
00000160: dd8a 0000 d789 0000 7f8b 0000 9b8b 0000
00000170: e589 0080 b988 0080 26a4 0080 868d 0080
00000180: 6a93 0000 e688 0000 f589 0000 078a 0000
00000190: ea89 0000 0d89 0080 6589 0080 268a 0000
000001a0: 0d8a 0000 6f8f 0000 708b 0000 a88c 0080
000001b0: 4089 0000 6f8a 0080 3b8a 0000 0d8f 0080
000001c0: 728a 0000 f68a 0000 7691 0000 3289 0000
000001d0: fd8e 0080 168e 0000 338a 0080 7789 0080
000001e0: 728d 0000 1892 0080 a591 0080 5994 0000
000001f0: f689 0080 ca8a 0080 4c8a 0080 0789 0000
00000200: 3f3f b33d 1e55 c73d e370 54bc b618 ea3c
00000210: c7c7 c73c eee9 35bc 2f80 2d3d 8b66 83bb
00000220: e004 383d 9b08 a53d 345d 9cbb 6e7c 7fbb
00000230: c932 cb3c e7db 0f3d 5a6e 743c 26a4 ea3c
00000240: 1289 0000 378c 0000 168c 0080 648a 0000
00000250: c993 0000 0189 0000 ea89 0000 d88b 0080
00000260: e59d 0000 e28b 0000 3989 0080 9d8c 0080
00000270: 328b 0000 888a 0000 ed89 0080 b389 0000
00000280: be8d ada6 f206 ac23 0537 a9a2 ba41 6725
00000290: 09f3 c824 f94f dda2 058c 4926 4f68 8226
000002a0: 60c0 8d25 7a69 15a5 fa23 22a4 488e 5823
000002b0: 3f4e da26 e289 a826 818a 0f26 e17f 0026
000002c0: 9098 0080 a489 0000 0e8e 0000 0d96 0000
000002d0: 0191 0080 6e38 0080 b28c 0000 7e8a 0000
000002e0: f68d 0080 e78f 0000 ce88 0000 6b97 0080
000002f0: 8089 0000 aaa5 0000 c189 0080 2b8d 0080
00000300: 8e89 0080 e18a 0000 4a8b 0080 5b8b 0080
00000310: 1e90 0080 f489 0000 cc8a 0080 d588 0000
00000320: 818d 0080 018a 0080 408a 0080 6e8d 0080
00000330: cc89 0000 4389 0000 6689 0080 cc8b 0000
00000340: 3789 0080 f388 0000 868a 0000 1589 0080
00000350: 968a 0000 9c89 0080 5c8b 0080 d088 0000
00000360: 3689 0000 e889 0000 348a 0000 208a 0000
00000370: e889 0000 7e89 0000 e889 0000 6aa0 0000
00000380: 1589 0080 ec89 0080 c588 0080 b489 0000
00000390: fd8b 0080 6b89 0080 a78c 0080 1589 0080
000003a0: 598b 0080 138a 0000 c588 0080 7c89 0080
000003b0: 0a89 0000 a68a 0000 8ea8 0000 ea88 0000
000003c0: d089 0000 eb88 0000 1889 0080 7d89 0080
000003d0: 0b8c 0080 7f89 0080 7e8e 0000 0f8b 0080
000003e0: 438d 0000 e189 0000 f789 0080 b489 0000
000003f0: 4889 0080 6089 0080 fb89 0000 8f8b 0080
4.9233e-41 4.9394e-41 -5.3324e-41 -4.9155e-41 -4.9274e-41 -4.9613e-41 5.0508e-41 5.0185e-41
4.9693e-41 -5.0178e-41 -5.1286e-41 -5.0004e-41 -4.9822e-41 -4.915e-41 -4.9516e-41 5.0119e-41
4.9488e-41 -4.9455e-41 5.0415e-41 4.963e-41 5.1666e-41 4.9544e-41 -4.9619e-41 4.962e-41
4.9436e-41 -4.9361e-41 -5.1478e-41 4.1268e-41 4.9072e-41 -4.952e-41 5e-41 4.9935e-41
-5.896449e-35 1.0781842e-36 -1.0578298e-35 1.2863405e-35 5.437798e-35 -1.4002017e-35 7.162515e-35 -1.4025978e-34
5.3142235e-36 -1.8232292e-35 -3.6563424e-36 1.1678459e-35 -7.932053e-35 -4.2576182e-35 -5.385629e-35 -8.8936835e-35
-0.26373026 -0.07607126 -0.029807223 0.003948966 -0.00074233353 0.11341552 -0.054544352 0.32910216
0.0018112919 -0.0027044965 -0.03608027 -0.00299272 0.06920499 -0.02482097 -0.033408448 -0.062134232
0.17766784 -0.055574723 -0.06290815 0.01843671 -0.025091235 -0.06273244 -0.015641222 0.044291664
-0.011369353 0.117818184 -0.030139703 -0.009466432 0.19538401 0.1853772 -0.0065971715 -0.015509867
-4.9288e-41 4.9561e-41 -4.914e-41 -4.9316e-41 -4.9553e-41 -4.9357e-41 5.52e-41 4.9237e-41
4.9815e-41 4.9448e-41 5.0042e-41 5.0081e-41 -4.9467e-41 -4.9047e-41 -5.8885e-41 -5.0769e-41
5.2882e-41 4.911e-41 4.949e-41 4.9515e-41 4.9474e-41 -4.9165e-41 -4.9288e-41 4.9558e-41
4.9523e-41 5.1454e-41 5.0021e-41 -5.0458e-41 4.9236e-41 -4.966e-41 4.9588e-41 -5.1317e-41
4.9665e-41 4.985e-41 5.2182e-41 4.9216e-41 -5.1295e-41 5.0971e-41 -4.9577e-41 -4.9313e-41
5.0741e-41 -5.2409e-41 -5.2247e-41 5.3217e-41 -4.9491e-41 -4.9788e-41 -4.9612e-41 4.9156e-41
0.087522976 0.09733032 -0.012966367 0.028576236 0.024387253 -0.011103136 0.042358574 -0.004010027
0.044926524 0.08058282 -0.004771853 -0.0038984078 0.02480449 0.035121825 0.014918888 0.028642725
4.9172e-41 5.03e-41 -5.0253e-41 4.9645e-41 5.3015e-41 4.9148e-41 4.9474e-41 -5.0166e-41
5.6642e-41 5.018e-41 -4.9226e-41 -5.0443e-41 4.9934e-41 4.9696e-41 -4.9478e-41 4.9397e-41
-1.2042706e-15 1.8651219e-17 -4.5865796e-18 2.0058325e-16 8.714789e-17 -5.9986844e-18 6.9925646e-16 9.048835e-16
2.458996e-16 -1.2959427e-16 -3.5158624e-17 1.1739513e-17 1.5147997e-15 1.1694715e-15 4.98008e-16 4.458223e-16
-5.4729e-41 4.9376e-41 5.096e-41 5.3828e-41 -5.2018e-41 -2.0243e-41 5.0472e-41 4.9682e-41
-5.0926e-41 5.1622e-41 4.9076e-41 -5.4319e-41 4.9326e-41 5.9429e-41 -4.9417e-41 -5.0642e-41
-4.9345e-41 4.982e-41 -4.9968e-41 -4.9991e-41 -5.17e-41 4.9488e-41 -4.9791e-41 4.9086e-41
-5.0762e-41 -4.9506e-41 -4.9595e-41 -5.0735e-41 4.9432e-41 4.924e-41 -4.9289e-41 5.015e-41
-4.9223e-41 4.9128e-41 4.9693e-41 -4.9176e-41 4.9715e-41 -4.9365e-41 -4.9993e-41 4.9079e-41
4.9222e-41 4.9471e-41 4.9578e-41 4.955e-41 4.9471e-41 4.9323e-41 4.9471e-41 5.7546e-41
-4.9176e-41 -4.9477e-41 -4.9064e-41 4.9399e-41 -5.0218e-41 -4.9296e-41 -5.0457e-41 -4.9176e-41
-4.9989e-41 4.9532e-41 -4.9064e-41 -4.932e-41 4.916e-41 4.9738e-41 6.0466e-41 4.9116e-41
4.9438e-41 4.9117e-41 -4.918e-41 -4.9322e-41 -5.0238e-41 -4.9324e-41 5.1117e-41 -4.9885e-41
5.0675e-41 4.9462e-41 -4.9492e-41 4.9399e-41 -4.9247e-41 -4.9281e-41 4.9498e-41 -5.0064e-41

fno_blocks.channel_mlp.0.fcs.1.bias f4 [32]
00000000: 488c 0080 7e8a 0080 81a9 9584 a509 1abd
00000010: 661e 503d 2589 0080 db88 0080 408b 0000
00000020: 5956 c73c 0d89 0000 2fb1 bb26 598a 0080
00000030: 5489 0000 2e89 0000 708a 0000 088d 0000
00000040: 0f8a 0080 fa63 513d 3f7e f73d 94e4 2f3c
00000050: 108a 0080 7a8b 0080 22fe abbc d589 0080
00000060: 5289 0080 7d8a 0000 4e8a 0000 74f2 383d
00000070: 6889 0000 9689 0080 a2a2 0f3e 5c27 9b3e
-5.0323e-41 -4.9682e-41 -3.5185396e-36 -0.037606854 0.05081024 -4.9198e-41 -4.9094e-41 4.9953e-41
0.024333166 4.9165e-41 1.3023757e-15 -4.963e-41 4.9264e-41 4.9211e-41 4.9662e-41 5.0592e-41
-4.9526e-41 0.051120736 0.120846264 0.01073565 -4.9527e-41 -5.0035e-41 -0.020995203 -4.9445e-41
-4.9261e-41 4.968e-41 4.9614e-41 0.045153096 4.9292e-41 -4.9357e-41 0.14026883 0.30303466

fno_blocks.channel_mlp.1.fcs.0.weight f4 [16, 32, 1]
00000000: 55d5 3c9c df39 a4a2 b153 541e 5284 c39f
00000010: d994 951c 582c af9c dae0 a595 9821 249e
00000020: 600d c7a1 3ff7 811f 77c6 0b1f 3b90 9f1c
00000030: 96d9 a3a2 a111 8f9a 1220 109f 79e2 379f
00000040: 9754 6121 407e 59a1 dd5e 6a1b a12c 3a9a
00000050: 9ad2 b593 0369 679b 6bd9 8a1b 12bf 621d
00000060: 8a3e 231a 5346 a8a3 fd06 f01f c96d 401d
00000070: 01e9 711d c93b 0f12 e3fe 8aa1 fb1c 2aa6
00000080: 7bd5 7618 b2e8 9f9c 8641 de18 79ad a41b
00000090: ee83 8916 e6f1 1d97 489a 0a0f 6dd4 4c1a
000000a0: cf19 db19 cbea 971a 2a15 1b1a b055 d117
000000b0: f4bd 5c9c 4dd1 8812 96f9 2299 d0cc 8297
000000c0: 8397 4e9b dfe0 1b9c 75e1 9615 e6b4 2c94
000000d0: 1271 a30d d319 8a96 5bf8 ee16 f9e5 1a18
000000e0: 7f21 c713 28c5 3c9e 4271 0219 33c5 1019
000000f0: 5154 1318 7676 990a 3489 b29b 9475 13a1
00000100: 76e8 2f33 56e6 63b8 a3e1 2c33 b80f 3db6
00000110: abad 9db0 40f5 82b1 9790 b9aa eb1c d734
00000120: 0efd bbb6 9ba7 4c35 3281 6c34 4ba4 8832
00000130: 3d38 20b7 90e8 57af 6f20 adb3 db60 b4b3
00000140: 2250 a636 baf2 1eb6 1bae e4af 4624 04af
00000150: 0a5a 8b29 392c 6db1 5b8c d630 6b12 01b1
00000160: cefb 2c2e 5610 2cb8 a21b 8634 74f7 2633
00000170: 998d 9232 537a e826 612f 64b6 c826 ed38
00000180: 6651 71b3 a65a 9138 5ef2 35b3 a657 9b36
00000190: 0534 64b1 304b 4032 5627 bb2a 1fa3 16b5
000001a0: 9cc6 cf36 5843 93b5 f56e 97b4 bd99 9db2
000001b0: 773c 8c36 55bb 882f 7364 6f33 3304 0e33
000001c0: 2d91 d6b6 cf23 eb35 137e 1a2f 1b1a bd2e
000001d0: 86b9 96a9 49d3 8a31 44cc bbb1 73ab 29b1
000001e0: 83a8 0aae a020 3c38 0c11 07b4 93cb 44b3
000001f0: 28a1 80b2 7bbf c4a6 abf6 3f36 46cf 6b3a
00000200: b949 20b3 1175 6338 646d 0cb2 4fcd a436
00000210: 4250 a131 833c 73b3 a361 1c2a d593 d5b4
00000220: efb9 9735 054c 91b5 d9cf 68b4 6675 33b2
00000230: 70c6 82b7 7a22 ea2e d868 c1b3 77ab 07b4
00000240: 8a20 8db6 6ac4 08b6 0d5e f02d 8fed c8ae
00000250: 7299 30a9 64e2 8531 b36c eb32 ac74 d1b2
00000260: 530d ca2e 0a24 3eb8 6223 b234 6f5d d1b2
00000270: 764a 09b3 3936 5325 1667 17b6 7854 263d
00000280: 60ae 8d32 62bb c4b7 d779 b132 8fe1 2ab5
00000290: c1d6 d5b0 1f7f b6b0 336d 25aa 2332 2f34
000002a0: c371 10b6 5137 a434 f91b c933 032e ea31
000002b0: 2114 b1b6 d53f 9dae 61b7 2fb3 2dc2 3cb3
000002c0: dbec ee35 d50d aab5 0b1f cfae 1542 85ae
000002d0: 198d c228 7158 b7b0 b83f ef2f 60cf e530
000002e0: 8894 c72d 0cb8 b2b7 1ab2 1134 786b 9932
000002f0: 31cf 1932 f986 6726 b053 dbb5 2c0b ad38
00000300: 3d59 c2aa 15af ceae a972 96aa 523d 16ac
00000310: 1c4c 3629 97bb b928 316c 2aa2 b1b7 82ac
00000320: 3eed 4ead e803 a7ac dcdb 04ac 31dc e2a9
00000330: 89df 91ae 6f4d 9ea5 0a2c 0eab 5d8a 95ab
00000340: 7c9e c72c 563b feac 71d7 9927 d832 62a6
00000350: 8d60 95a0 11fc 7828 662d 5326 db19 c628
00000360: 5063 5524 0737 c02d 4836 112c 0e3d 94aa
00000370: 82aa b5a9 3c88 4d1e b999 92ad 62e6 9d32
00000380: ff33 81b3 1a85 e138 8e5c 59b3 dafe 0037
00000390: 5256 d7b1 d07e fb32 2bf5 2b2b 6f7e 24b5
000003a0: 0687 1f37 0db0 acb5 dc96 aeb4 e0fb 9db2
000003b0: 75b6 2936 b4a3 df2f 3aae a333 18d5 0133
000003c0: efde 31b7 328a ac35 c600 092e dae7 072f
000003d0: 6318 afa9 ed0a 8d31 56d8 79b2 4b7a 3a31
000003e0: 7c98 91ae 1ff3 6638 63d3 f7b3 d7a2 49b3
000003f0: 2eb8 a2af de06 35a7 8f36 6c36 db5c 7e38
-6.2479707e-22 -4.4513562e-18 1.12404935e-20 -8.280462e-20 9.898469e-22 -1.1591991e-21 -6.699772e-26 -8.689035e-21
-1.3488305e-18 5.504266e-20 2.959856e-20 1.055902e-21 -4.4411617e-18 -5.9171895e-23 -3.0519714e-20 -3.893909e-20
7.634492e-19 -7.368955e-19 1.9386678e-22 -3.849995e-23 -4.5898493e-27 -1.9141803e-22 2.2970688e-22 3.0009632e-21
3.375813e-23 -1.824438e-17 1.01655515e-19 2.5467746e-21 3.2016545e-21 4.5196535e-28 -9.418712e-19 -5.9019874e-16
3.1902535e-24 -1.0581888e-21 5.7451817e-24 2.7243628e-22 2.2216803e-25 -5.1034755e-25 6.833639e-30 4.2357807e-23
2.2654493e-23 6.2831465e-23 3.2070345e-23 1.3527939e-24 -7.3037403e-22 8.634403e-28 -8.425607e-24 -8.452755e-25
-1.7088877e-22 -5.1575837e-22 6.0940226e-26 -8.719457e-27 1.0072871e-30 -2.23114e-25 3.8607708e-25 2.002014e-24
5.0267692e-27 -9.993408e-21 6.743715e-24 7.4844496e-24 1.9041874e-24 1.4777924e-32 -2.9536295e-22 -4.996115e-19
4.0956785e-08 -5.4335535e-05 4.0252086e-08 -2.8172344e-06 -1.1472613e-09 -3.8113797e-09 -3.296293e-13 4.006791e-07
-5.6024937e-06 7.623982e-07 2.2026214e-07 1.5907196e-08 -9.549837e-06 -1.9636759e-10 -8.06184e-08 -8.399521e-08
4.956514e-06 -2.368512e-06 -4.1596668e-10 -1.2018217e-10 6.188459e-14 -3.4513177e-09 1.5610441e-09 -1.878244e-09
3.933192e-11 -4.102321e-05 2.497955e-07 3.8874944e-08 1.7061028e-08 1.613139e-15 -3.4002226e-06 0.00011308264
-5.6186217e-08 6.9310234e-05 -4.2362778e-08 4.6295636e-06 -3.3207936e-09 1.11929666e-08 3.3245168e-13 -5.6116727e-07
6.192202e-06 -1.0971953e-06 -2.8206674e-07 -1.8347118e-08 4.179364e-06 2.4871363e-10 5.5737882e-08 3.306577e-08
-6.3945977e-06 1.7519286e-06 1.4051009e-10 8.599362e-11 -6.693521e-14 4.040349e-09 -5.4656386e-09 -2.4690194e-09
-3.1527236e-11 4.4853077e-05 -1.2579056e-07 -4.5819956e-08 -1.4974447e-08 -1.3652133e-15 2.8604798e-06 0.0008995425
-3.7319953e-08 5.4230044e-05 -8.173945e-09 4.911482e-06 4.694841e-09 -5.663288e-08 1.3889458e-13 -3.9781904e-07
1.130449e-06 -1.0825466e-06 -2.1682298e-07 -1.0445865e-08 -1.5589612e-05 1.0647212e-10 -9.006334e-08 -1.2635233e-07
-4.2059155e-06 -2.0379907e-06 2.7326608e-11 -9.137146e-11 -3.9212943e-14 3.896547e-09 2.7407031e-08 -2.4383858e-08
9.188263e-11 -4.5333094e-05 3.3180828e-07 -2.4373291e-08 -3.196552e-08 1.8319704e-16 -2.2560757e-06 0.0406079
1.6493857e-08 -2.3452278e-05 2.0660918e-08 -6.3658166e-07 -1.5558826e-09 -1.3278373e-09 -1.469283e-13 1.6316385e-07
-2.152389e-06 3.0587628e-07 9.36488e-08 6.8155273e-09 -5.2773544e-06 -7.150872e-11 -4.0912145e-08 -4.3948763e-08
1.7801316e-06 -1.2670013e-06 -9.4187845e-11 -6.059878e-11 2.1599518e-14 -1.3340139e-09 4.3519122e-10 1.6720882e-09
2.2689642e-11 -2.1304957e-05 1.356897e-07 1.7860415e-08 8.952882e-09 8.0327147e-16 -1.6341128e-06 8.251364e-05
-3.4523244e-13 -9.398896e-11 -2.6724914e-13 -2.1350322e-12 4.0478132e-14 2.062048e-14 -2.3096572e-18 -3.715216e-12
-1.1762423e-11 -4.746859e-12 -1.8880375e-12 -1.0074613e-13 -6.6335444e-11 -2.7461102e-16 -5.050965e-13 -1.062549e-12
5.6735155e-12 -7.225702e-12 4.2699613e-15 -7.8478407e-16 -2.5305474e-19 1.3821424e-14 7.3266857e-16 2.1993629e-14
4.6271134e-17 2.185231e-11 2.0635871e-12 -2.6332446e-13 -8.067593e-14 1.0880782e-20 -1.6666545e-11 1.8381972e-08
-6.0164886e-08 0.00010753628 -5.0608428e-08 7.688732e-06 -6.267137e-09 2.9277913e-08 6.1091643e-13 -6.1278746e-07
9.508576e-06 -1.2866236e-06 -3.251979e-07 -1.8391745e-08 2.5289166e-06 4.0679782e-10 7.6219706e-08 3.022896e-08
-1.0601928e-05 1.2855219e-06 3.115088e-11 1.2360549e-10 -7.7757916e-14 4.104882e-09 -1.4542897e-08 2.7136078e-09
-6.620923e-11 5.5062697e-05 -1.1540285e-07 -4.694706e-08 -2.9598496e-10 -2.5122519e-15 3.5198498e-06 6.0644797e-05
