model_checkpoints_naca/naca_fno_final_r6.pth (torch, 332919 bytes, 35 tensors)

fno_blocks.convs.0.bias f4 [32, 1, 1]
000000 bc 6a fc bc d3 0d 8d 3b 9e a5 f5 3d 7a 7a 16 bd
       -0.030812614 0.0043046265 0.119944796 -0.036737897
000010 9e fc 90 3d ef f2 33 bd 3a 64 4e bd c7 33 42 3d
       0.07079433 -0.04393285 -0.050388552 0.04741266
000020 48 79 bf 3c db 00 ce bb 0f ce b8 bb 9b 1e 08 bc
       0.023373261 -0.006286723 -0.0056397985 -0.008308078
000030 57 1d 3c 3e 09 c1 ec 3a 37 33 c7 bc b6 16 b6 bd
       0.18370567 0.00180629 -0.024316413 -0.088910505
000040 b9 f9 2f bd 4f c2 01 bb 0c b8 2e bc 7c 42 8a 3c
       -0.042962763 -0.0019799655 -0.010663997 0.016877405
000050 d0 c0 75 3b d4 f3 fd b9 6c 97 6f bd a8 68 04 be
       0.0037498958 -0.00048437587 -0.058494017 -0.12930548
000060 c4 73 38 3d 0a f9 a9 3d 1a 37 01 bc da 8e 57 3d
       0.045032278 0.082994536 -0.007886672 0.05262647
000070 c3 21 29 be 7f b6 3f 3b 5b 61 8b bc 96 94 8f 3c
       -0.16516785 0.0029253063 -0.017014196 0.017526906

fno_blocks.convs.1.bias f4 [32, 1, 1]
000000 2d 6b 13 31 58 cf a7 b6 d5 40 ab 35 57 ba 28 25
       2.1452238e-09 -5.001126e-06 1.2759361e-06 1.4634812e-16
000010 b4 31 e8 35 94 28 3c 38 df c4 bf 1d 69 1b 33 2d
       1.7299812e-06 4.4860484e-05 5.076084e-21 1.0181058e-11
000020 a0 99 91 ae f0 0b 46 ab f8 00 15 a9 c9 3a 44 26
       -6.621126e-11 -7.03603e-13 -3.3085486e-14 6.808083e-16
000030 68 d1 56 38 03 d4 c2 b3 4d 1c 00 2a bb e9 85 9d
       5.12166e-05 -9.072394e-08 1.1378503e-13 -3.544648e-21
000040 8b 52 3f a8 ef 6d 72 a8 17 bb ae b5 c4 fd 09 31
       -1.06205285e-14 -1.3457537e-14 -1.301846e-06 2.0080373e-09
000050 b6 78 1f 38 63 87 e8 33 b2 ff 0c a8 90 f6 c0 af
       3.8020975e-05 1.08279686e-07 -7.827006e-15 -3.509979e-10
000060 dd 23 29 ac fa ac 78 b3 a9 6c 62 32 fe 19 2b aa
       -2.4036253e-12 -5.789932e-08 1.3179638e-08 -1.5196869e-13
000070 38 c9 1d b5 2b 09 d0 b2 01 9d e9 25 7c bd ea 36
       -5.877987e-07 -2.4218556e-08 4.0525447e-16 6.9958023e-06

fno_blocks.convs.2.bias f4 [32, 1, 1]
000000 32 a7 a5 b5 83 d5 d4 33 03 eb 9e b4 47 99 08 2f
       -1.2342118e-06 9.910857e-08 -2.9600787e-07 1.2423583e-10
000010 08 2b 76 af f3 4f ad b8 de d0 da 32 d9 8b ec 31
       -2.2388857e-10 -8.2641745e-05 2.5473522e-08 6.884403e-09
000020 7f bd 8e b2 b9 49 1e 30 7b 50 fe ad 32 b4 72 b9
       -1.6617149e-08 5.758483e-10 -2.8912197e-11 -0.00023146046
000030 2d 48 58 2e 6b 5c 1f b2 d4 59 84 b6 32 c8 cc 2c
       4.917682e-11 -9.2760315e-09 -3.944364e-06 5.820255e-12
000040 6e 37 a7 37 56 62 45 b2 9c 6d 00 37 4f 50 40 30
       1.9933763e-05 -1.1489268e-08 7.654915e-06 6.996332e-10
000050 cc 64 c1 b4 fb 88 a0 b0 83 e6 87 b8 23 ba 16 30
       -3.602239e-07 -1.1680464e-09 -6.480238e-05 5.48342e-10
000060 5c 7c c1 af 3c 17 fa 36 48 be 6c b4 af ae 30 b8
       -3.5194858e-10 7.4532854e-06 -2.2048437e-07 -4.2124357e-05
000070 09 d2 19 37 eb f0 bd b4 27 76 0e 39 8b a4 77 b9
       9.168413e-06 -3.5379284e-07 0.0001358619 -0.00023617053

fno_blocks.convs.3.bias f4 [32, 1, 1]
000000 54 1d 42 3d a6 66 a8 bc 49 2d 97 3d db 81 78 bb
       0.04739125 -0.02055676 0.07381684 -0.0037919197
000010 b5 2d c6 3c 1b 73 66 3d 9d 82 a2 3d 7d 99 1a 3d
       0.024191717 0.056262117 0.07935069 0.037744034
000020 84 90 91 3c cd d1 bf bb c4 e5 21 bc c5 f7 0d bd
       0.017769106 -0.0058538676 -0.009881441 -0.03466012
000030 01 79 9f 3c 81 92 95 bd 56 44 17 3c ae 17 fe bd
       0.019466879 -0.07303334 0.009232601 -0.1240686
000040 b1 36 9b bc af d1 a5 3a 02 78 e4 bc 3b 4e d5 bb
       -0.018946977 0.0012650992 -0.027889255 -0.00650957
000050 38 55 be 3c b1 08 a4 bd fa ae 11 bd 80 b7 0c bc
       0.023233995 -0.0800947 -0.03556726 -0.008588672
000060 48 0e 06 bc 44 e5 b6 bb 49 61 59 bd f6 93 68 3d
       -0.008182116 -0.00558153 -0.053071294 0.05678173
000070 2b b2 da bc 93 d7 29 bd ce a2 96 bd 31 34 8c bc
       -0.026696285 -0.041465353 -0.07355271 -0.01711473

fno_blocks.fno_skips.0.conv.weight f4 [32, 32, 1]
000000 29 50 a4 3e dc b2 78 3d 0e 07 ac b8 78 74 96 3e
       0.32092407 0.06071745 -8.202913e-05 0.29385734
000010 7d b7 f5 bd b7 ed 6d 3a ff ae eb 3e 05 6b 5a 3d
       -0.11997888 0.0009076255 0.4603195 0.053324718
000020 48 22 91 bc 68 d7 56 bc c2 d1 67 be f9 3b f4 be
       -0.017716542 -0.01311288 -0.2263861 -0.47702006
000030 45 a7 2b 3a 07 9c 40 3a 46 2b 6f 3c 4f 9e 10 3f
       0.00065480574 0.00073474686 0.01459772 0.5649156
000040 11 2b 10 be d3 c5 cf 39 c9 95 e3 3e 48 da 4b 37
       -0.14078929 0.00039629507 0.44450215 1.2150565e-05
000050 c2 ed e0 39 1f d4 d4 3d d6 8e 23 be ef 61 90 3e
       0.00042901753 0.103920214 -0.15972456 0.28199717
000060 9a 6b c2 3d e9 8d 0d bf c1 23 e1 bc e0 b4 ca b9
       0.094931796 -0.5529466 -0.02748287 -0.00038663205
000070 2f 7f fe 39 db 7e 76 3e 36 8f b4 3e a3 c9 31 b9
       0.00048541414 0.24071829 0.3526551 -0.00016955151
000080 1f 4f af 3c e3 ac 91 3b 9c 50 cd b9 0e 5a fa 3c
       0.021400033 0.0044456585 -0.00039160706 0.03056052
000090 4c 71 b9 bb d2 76 70 b9 5b 8d 0e 3d e8 7b da ba
       -0.005659258 -0.00022932448 0.034802776 -0.0016669007
0000a0 7c 46 d0 3a 37 7b fa 3a e1 f8 87 bc 32 83 e4 bc
       0.0015890147 0.0019110207 -0.016598167 -0.02789459
0000b0 4b 8f 49 3a 21 ea c5 39 6d cb 88 b9 cd 59 09 3d
       0.0007688894 0.00037749208 -0.00026091505 0.033532906
0000c0 0b 7f 83 bc 00 66 0e 39 96 cb 05 3d 11 df 69 39
       -0.01605179 0.00013580173 0.032664858 0.0002230371
0000d0 27 78 d3 b9 71 2a 45 3b 32 48 7f bc 1c 91 d7 3c
       -0.00040334577 0.0030085112 -0.015581178 0.02631431
0000e0 0e 23 f2 3a ce 39 18 bd c3 cf 57 3c cc 27 00 ba
       0.0018473582 -0.0371645 0.013172093 -0.00048887427
0000f0 f6 eb 78 b8 eb 91 df 3c d3 88 95 3c a9 b6 e6 39
       -5.9347563e-05 0.027291259 0.01825372 0.0004400511
000100 bb 59 92 bd c1 d2 84 bb 15 8b 40 b9 35 c8 9e bd
       -0.07146021 -0.004053444 -0.00018362359 -0.0775303
000110 f9 0e e2 3c 63 8f 9c 39 6f ef ee bd 70 33 f8 bc
       0.02759503 0.0002986147 -0.11666762 -0.030297965
000120 43 b9 88 bc f5 ef 63 bd 52 b0 07 3e 63 34 eb 3d
       -0.016689902 -0.055648763 0.13250855 0.11484601
000130 11 20 db 39 2e 82 23 39 b5 18 af 3d 9b 5e 00 be
       0.00041794826 0.00015593387 0.08549634 -0.12536089
000140 d7 ae 64 3d 16 40 ae 39 13 4e e1 bd ec 1f 5e 39
       0.055830803 0.00033235614 -0.110012196 0.00021183462
000150 89 d2 d4 39 a2 57 9d 3c d6 b6 b3 3d 44 07 b8 bd
       0.00040592652 0.019206826 0.087751076 -0.08985761
000160 6d e7 9e 3b 21 a8 0e 3e 75 5b 7e 3c 41 59 0f ba
       0.0048493654 0.13931324 0.015524735 -0.0005468317
000170 f0 02 8a 39 18 f0 4d bd 7a 98 2d bc eb 11 08 b7
       0.000263236 -0.0502778 -0.010595435 -8.1104035e-06
000180 76 5d 68 3d 94 c0 e4 3b 56 f5 3c b8 55 69 14 3d
       0.056729756 0.006980965 -4.505118e-05 0.036233265
000190 7d 23 e0 bb 0f c2 06 b7 29 29 29 3d 9d ea ac 3c
       -0.006840168 -8.032205e-06 0.04129902 0.021107966
0001a0 c9 aa a8 3c dc c7 3e bc 09 b9 a5 3c 2f 1d 30 bd
       0.02058925 -0.01164433 0.020229833 -0.04299658
0001b0 a3 99 84 39 d9 79 81 39 6a 54 6d bc 20 71 ad 3d
       0.0002529147 0.0002469558 -0.014485458 0.084688425
0001c0 99 6a 13 bd 27 e9 01 39 a9 42 51 3d c6 0a 2a 38
       -0.03599033 0.00012389255 0.051088963 4.0541192e-05
0001d0 f9 79 af 39 ec fa 0b bd e0 64 31 bd 05 32 47 3d
       0.00033469478 -0.034174845 -0.043309093 0.048631687
0001e0 1b cc 78 bc 31 c4 57 bd af df 0a bd 40 a5 59 b9
       -0.015185381 -0.052677337 -0.033904728 -0.00020756293
0001f0 ba 0c f9 38 f4 9f c0 3c 52 77 78 3d 09 58 92 b9
       0.00011875616 0.023513772 0.060660668 -0.0002791288
000200 35 49 2c 3c 97 6d 89 39 68 ef f8 b8 16 69 98 3c
       0.010515501 0.00026212327 -0.000118701544 0.018604796
000210 7a 13 8c 3c cc 69 a8 b9 c9 f9 18 bc de f0 0b 3c
       0.01709913 -0.00032122282 -0.009336897 0.008541314
000220 fb 0b 40 3c 2d 2b 9c bc b9 8f 53 bb 9c c9 e8 3c
       0.011721606 -0.019063557 -0.003228171 0.028416447
000230 98 78 ae 38 e6 3b 33 b9 52 31 3a 3a 5d 6f 05 bc
       8.319429e-05 -0.00017093084 0.0007102686 -0.008144227
000240 59 a4 f1 bb f9 aa c0 37 0b e0 c9 b9 72 75 07 b8
       -0.007374328 2.2967799e-05 -0.00038504633 -3.2295888e-05
000250 48 18 4a b9 9e 24 b6 3c 89 85 09 3b 85 b3 56 bb
       -0.00019273267 0.022234257 0.0020984134 -0.003276081
000260 5b ec 4e 3d 7d 07 2c 3c e2 90 4a bc f6 1e 5a 39
       0.050518375 0.010499832 -0.012363644 0.00020801634
000270 c3 1b aa b9 88 56 3b 3c 39 3f bb 3c 26 bb 97 38
       -0.0003244561 0.011434205 0.022857295 7.2351e-05
000280 cb f1 97 3b e0 ac 71 3d a8 f1 6f b9 04 2b 14 bc
       0.0046369783 0.059002757 -0.0002288284 -0.009043459
000290 c9 b6 90 3c 89 7c 28 38 de ac ea bc 05 f4 8e 3c
       0.017665284 4.0170304e-05 -0.028646883 0.017450342
0002a0 a2 07 70 bc 84 0b 77 3d 61 0d 2f 3d f2 43 4b 3d
       -0.014650257 0.060313717 0.04273737 0.049625345
0002b0 ab b4 1b b8 44 fa 14 3a 8d f2 2e 3d 62 44 1c bd
       -3.712314e-05 0.00056830444 0.042711783 -0.038151152
0002c0 14 10 42 3d a4 9b 9b 38 08 63 e3 bc d6 33 b3 37
       0.047378615 7.419966e-05 -0.027757183 2.13626e-05
0002d0 0b 52 97 b9 27 5a 17 bd df 21 cf 3c 75 58 6f bd
       -0.0002886209 -0.03695121 0.025284706 -0.05843397
0002e0 71 ea 84 3d fe bd 2c 3d e2 94 4d bd ff a4 13 ba
       0.06490029 0.04217338 -0.050190814 -0.00056321913
0002f0 1a a5 c0 39 b8 c6 19 bd bf 4d 26 3d 96 f8 da 39
       0.00036744104 -0.03754303 0.04060149 0.0004176541
000300 a5 65 5f 3d 98 e5 51 3d f6 27 0b ba 82 d4 fb 3c
       0.054540295 0.05124435 -0.0005308384 0.03074098
000310 9b 52 50 3c 36 41 75 b9 68 4a 6f 3d c3 14 75 3c
       0.012715007 -0.00023389314 0.05842057 0.014958563
000320 cb cd fe bc 12 6b 7b 3d ee a9 8e 3c 1b 55 05 bc
       -0.03110399 0.061381407 0.017415013 -0.0081379665
000330 ba 5a bd 3a 6b e5 2e 3a 1d 2d 0d 3d e0 7e 48 3d
       0.0014446594 0.0006671759 0.03446685 0.048949122
000340 c8 c4 d0 3c bb a0 d0 39 a4 eb 11 3d 1c f8 ab 39
       0.025484458 0.00039792605 0.035625115 0.00032800518
000350 3a 0d 0d 39 0c 43 35 bd 46 be f9 bc 50 15 bd bb
       0.00013451735 -0.044253394 -0.030486237 -0.005770363
000360 a2 1e 1e 3d 33 68 2f bd 06 70 e3 bc 21 9f 2d ba
       0.038603432 -0.04282398 -0.027763378 -0.00066231383
000370 85 41 33 39 fc d5 0e 3c 40 04 82 3d e2 bd 33 ba
       0.00017095178 0.00871801 0.06348467 -0.0006856603
000380 f1 a2 ca 3d f9 e1 a1 3c fb 48 e7 b9 51 e6 87 3d
       0.0989436 0.019761072 -0.00044114128 0.06635726
000390 ad 4f b3 bc 46 c0 ee b9 04 71 82 3d b9 52 63 3c
       -0.021888578 -0.00045538152 0.06369212 0.013874703
0003a0 2f cf 16 bd 0f a0 18 3d 16 fd a0 bd 44 bc a6 bd
       -0.03681868 0.03726202 -0.07860772 -0.081413776
0003b0 b4 95 30 3a b1 6a 62 3a 71 fe 86 3c ba 3c e3 3d
       0.00067361747 0.0008637114 0.016478749 0.11095567
0003c0 38 03 2e bd 72 39 c7 39 ac 91 91 3d 35 f0 90 39
       -0.04248354 0.00037999038 0.07107863 0.00027644788
0003d0 81 8c ec 39 1b 90 1a 3c 5b 1f 5b bd 8b 99 81 3d
       0.0004511811 0.0094337715 -0.0534967 0.06328114
0003e0 ad e7 8a 3d 6e 93 a6 bd fd 1c b9 bd 8a a1 18 ba
       0.0678247 -0.08133589 -0.09038732 -0.0005822411
0003f0 6f 56 1a 3a 41 00 85 3c 83 ad 3a 3e 22 a4 c9 39
       0.00058875134 0.016235473 0.18230252 0.00038459996

fno_blocks.fno_skips.1.conv.weight f4 [32, 32, 1]
000000 94 89 00 80 bd 89 00 80 b3 90 00 80 e7 8a 00 80
       -4.9354e-41 -4.9411e-41 -5.1908e-41 -4.9829e-41
000010 61 8c 00 00 06 8a 00 80 a0 89 00 80 df 8a 00 00
       5.0358e-41 -4.9513e-41 -4.937e-41 4.9818e-41
000020 5a d3 90 b0 ee 89 00 80 a7 7f d0 30 f4 33 ef 30
       -1.0537449e-09 -4.948e-41 1.5170273e-09 1.7404305e-09
000030 4a 8a 00 00 68 89 00 80 10 94 00 00 21 3f d3 30
       4.9609e-41 -4.9292e-41 5.3115e-41 1.5370213e-09
000040 13 90 00 80 d3 89 00 80 16 8c 00 00 c0 8c 00 80
       -5.1684e-41 -4.9442e-41 5.0253e-41 -5.0492e-41
000050 1e 89 00 80 64 9d da 30 32 81 93 af 32 52 ce 30
       -4.9188e-41 1.5906321e-09 -2.6830943e-10 1.5011834e-09
000060 a1 8a 00 00 bd 92 00 80 d3 d5 c8 30 0a 8c 00 80
       4.973e-41 -5.264e-41 1.4612688e-09 -5.0237e-41
000070 71 9b 00 80 02 8b 00 80 69 93 00 00 ba 8e 00 00
       -5.5762e-41 -4.9867e-41 5.2881e-41 5.12e-41
000080 f6 90 00 80 0e 8a 00 80 09 8a 00 80 b3 90 00 00
       -5.2002e-41 -4.9525e-41 -4.9518e-41 5.1908e-41
000090 60 a7 00 80 5e 8f 00 00 10 8a 00 80 77 8c 00 80
       -6.0043e-41 5.143e-41 -4.9527e-41 -5.0389e-41
0000a0 ba 6c 18 b6 89 93 00 00 62 e0 46 b5 e2 29 b2 b6
       -2.2713052e-06 5.2926e-41 -7.408727e-07 -5.309689e-06
0000b0 98 8a 00 00 a9 89 00 00 33 a1 00 80 40 f2 db b6
       4.9718e-41 4.9383e-41 -5.7827e-41 -6.55491e-06
0000c0 d4 90 00 00 c1 8a 00 80 e1 8a 00 00 fa 96 00 80
       5.1955e-41 -4.9776e-41 4.982e-41 -5.416e-41
0000d0 0e 8f 00 00 e2 1e 89 b7 4a fa e3 36 8a e9 a5 b7
       5.1318e-41 -1.6346054e-05 6.7942647e-06 -1.9778283e-05
0000e0 9c 8a 00 80 60 8f 00 00 94 9b b1 b6 61 8e 00 80
       -4.9724e-41 5.1433e-41 -5.2931227e-06 -5.1076e-41
0000f0 90 8c 00 00 b8 8c 00 80 fb 9d 00 00 85 89 00 80
       5.0424e-41 -5.048e-41 5.6673e-41 -4.9333e-41
000100 0e ac 00 00 10 8c 00 80 90 95 00 00 69 8f 00 80
       6.1722e-41 -5.0245e-41 5.3653e-41 -5.1446e-41
000110 ec a6 00 00 95 95 00 80 7a 8a 00 00 47 8a 00 00
       5.988e-41 -5.366e-41 4.9676e-41 4.9605e-41
000120 97 0c 8e b5 b6 8b 00 80 41 95 94 37 80 29 8f 37
       -1.0583489e-06 -5.0119e-41 1.7712477e-05 1.7066253e-05
000130 45 94 00 00 00 8c 00 80 bc a5 00 80 30 de 5a 36
       5.3189e-41 -5.0223e-41 -5.9454e-41 3.2613862e-06
000140 34 9c 00 00 e6 89 00 80 24 8e 00 00 90 91 00 80
       5.6035e-41 -4.9469e-41 5.099e-41 -5.2218e-41
000150 3a 8d 00 00 e8 5b 9a b7 47 b5 86 37 a2 ba 68 b7
       5.0663e-41 -1.8401028e-05 1.6058459e-05 -1.3871731e-05
000160 9e 8c 00 80 dd 8c 00 00 f8 e5 c8 b5 ca 98 00 80
       -5.0444e-41 5.0532e-41 -1.4968091e-06 -5.481e-41
000170 c3 97 00 80 70 90 00 00 8b 99 00 00 ef 8d 00 00
       -5.4442e-41 5.1814e-41 5.5081e-41 5.0916e-41
000180 41 8c 00 80 7d 89 00 00 78 8c 00 00 19 4c 00 80
       -5.0314e-41 4.9322e-41 5.039e-41 -2.7299e-41
000190 18 8a 00 80 62 8b 00 80 08 89 00 00 c3 88 00 00
       -4.9539e-41 -5.0001e-41 4.9158e-41 4.9061e-41
0001a0 c0 f6 7d a5 f7 88 00 80 bc c4 65 a6 fa 81 1e a7
       -2.2027854e-16 -4.9134e-41 -7.971696e-16 -2.1997365e-15
0001b0 98 8b 00 00 a5 89 00 80 7d 8b 00 00 6a 7f 83 a6
       5.0077e-41 -4.9378e-41 5.0039e-41 -9.124487e-16
0001c0 a8 8d 00 80 32 89 00 80 b3 8a 00 00 9b 89 00 00
       -5.0817e-41 -4.9216e-41 4.9756e-41 4.9364e-41
0001d0 cd 90 00 00 7c 66 d1 a6 66 e3 2c 27 12 40 87 a7
       5.1945e-41 -1.4530067e-15 2.3993068e-15 -3.7539492e-15
0001e0 6e 8a 00 00 ac 8a 00 80 e7 9d e2 a5 df 88 00 80
       4.9659e-41 -4.9746e-41 -3.931175e-16 -4.91e-41
0001f0 62 97 00 00 52 89 00 80 6e 8b 00 00 cb 8a 00 80
       5.4306e-41 -4.9261e-41 5.0018e-41 -4.979e-41
000200 a5 8e 00 80 dc 88 00 00 16 8a 00 80 d9 93 00 00
       -5.1171e-41 4.9096e-41 -4.9536e-41 5.3038e-41
000210 e8 90 00 80 ee 9d 00 80 5b 8a 00 00 a6 11 00 80
       -5.1983e-41 -5.6654e-41 4.9633e-41 -6.331e-42
000220 0e 7b 83 35 97 8d 00 80 ff d1 bb 35 64 05 0e 36
       9.796074e-07 -5.0793e-41 1.3993703e-06 2.1162787e-06
000230 71 8f 00 00 a8 8e 00 80 fa 8d 00 00 56 71 69 36
       5.1457e-41 -5.1175e-41 5.0932e-41 3.4785676e-06
000240 a5 a2 00 00 29 8e 00 80 8a 90 00 80 56 8e 00 00
       5.8346e-41 -5.0997e-41 -5.1851e-41 5.106e-41
000250 ee a2 00 80 32 1b 1f b6 d8 48 d1 b5 f1 08 2a 36
       -5.8448e-41 -2.3708676e-06 -1.5592914e-06 2.5337179e-06
000260 07 8b 00 80 54 8d 00 80 56 0d 98 34 09 93 00 80
       -4.9874e-41 -5.0699e-41 2.832191e-07 -5.2746e-41
000270 cc ab 00 00 3f 8b 00 00 dc 8b 00 00 3a 8e 00 80
       6.1629e-41 4.9952e-41 5.0172e-41 -5.1021e-41
000280 b6 8c 00 00 84 8d 00 80 d0 53 00 00 8a 99 00 80
       5.0478e-41 -5.0766e-41 3.0066e-41 -5.508e-41
000290 91 8c 00 80 52 9b 00 00 56 8a 00 00 c4 6e 00 00
       -5.0426e-41 5.5718e-41 4.9626e-41 3.9735e-41
0002a0 be ad e7 b6 65 8b 00 80 32 d4 49 36 21 47 2e b6
       -6.9045627e-06 -5.0005e-41 3.0074848e-06 -2.5969423e-06
0002b0 02 8d 00 00 2b 93 00 80 95 8f 00 80 7b 61 3f 37
       5.0584e-41 -5.2794e-41 -5.1508e-41 1.1407184e-05
0002c0 21 8c 00 00 d5 8d 00 00 dd 88 00 00 1f 90 00 00
       5.0269e-41 5.088e-41 4.9097e-41 5.1701e-41
0002d0 77 94 00 80 76 95 1b 38 66 d9 89 36 a9 76 ab 36
       -5.3259e-41 3.7094076e-05 4.1082267e-06 5.110011e-06
0002e0 8b 58 00 00 5e 90 00 00 9e c1 e2 37 7f 92 00 80
       3.1763e-41 5.1789e-41 2.703146e-05 -5.2553e-41
0002f0 9c 91 00 00 a2 8c 00 00 cb 97 00 80 ef 8c 00 00
       5.2235e-41 5.045e-41 -5.4453e-41 5.0557e-41
000300 f8 8c 00 80 02 8d 00 80 47 8e 00 00 9e 8c 00 00
       -5.057e-41 -5.0584e-41 5.104e-41 5.0444e-41
000310 e4 98 00 80 50 97 00 00 43 8b 00 00 e7 13 00 00
       -5.4847e-41 5.428e-41 4.9958e-41 7.14e-42
000320 87 c9 44 1c 7d 94 00 00 c5 7b 27 1f 7b 14 a5 1f
       6.511143e-22 5.3268e-41 3.5466005e-20 6.99141e-20
000330 28 8b 00 80 31 66 00 80 90 97 00 80 65 a4 98 9d
       -4.992e-41 -3.666e-41 -5.437e-41 -4.0404045e-21
000340 f6 8b 00 80 8f 8c 00 00 b1 8b 00 00 24 98 00 80
       -5.0209e-41 5.0423e-41 5.0112e-41 -5.4578e-41
000350 81 89 00 00 00 0f 9e 9e f3 92 8c 9e 44 8f 16 1f
       4.9327e-41 -1.6735105e-20 -1.4883853e-20 3.1882242e-20
000360 54 a4 00 00 2a 99 00 00 01 eb 8c 1e 3c 8c 00 00
       5.895e-41 5.4945e-41 1.4920272e-20 5.0307e-41
000370 bf 8b 00 00 1b 97 00 80 90 97 00 00 42 89 00 80
       5.0131e-41 -5.4206e-41 5.437e-41 -4.9239e-41
000380 8b 78 00 00 9a 8b 00 80 9e 8a 00 00 bd 78 00 80
       4.3243e-41 -5.008e-41 4.9726e-41 -4.3313e-41
000390 22 a0 00 00 fa 8a 00 00 92 8d 00 80 5d 8f 00 00
       5.7445e-41 4.9855e-41 -5.0786e-41 5.1429e-41
0003a0 5f 59 98 ac 3f 89 00 80 75 1e ec ac 3e d7 7d ac
       -4.330022e-12 -4.9235e-41 -6.710905e-12 -3.6072946e-12
0003b0 18 8b 00 00 46 8a 00 80 41 ae 00 80 2a ba cc ac
       4.9897e-41 -4.9603e-41 -6.251e-41 -5.818697e-12
0003c0 8a 8e 00 80 2c 8d 00 80 4d 99 00 00 cd 92 00 00
       -5.1133e-41 -5.0643e-41 5.4994e-41 5.2662e-41
0003d0 51 94 00 80 a7 5c cc 2d 3c c0 04 ad 1d 99 12 2d
       -5.3206e-41 2.323326e-11 -7.546016e-12 8.333137e-12
0003e0 7d 9b 00 80 0e 91 00 00 b2 6a 89 aa 56 91 00 80
       -5.5779e-41 5.2036e-41 -2.4410123e-13 -5.2137e-41
0003f0 a9 93 00 80 6a 9c 00 00 bf a8 00 00 52 8a 00 00
       -5.297e-41 5.6111e-41 6.0535e-41 4.962e-41

fno_blocks.fno_skips.2.conv.weight f4 [32, 32, 1]
000000 9e 99 00 00 9a a2 00 80 49 89 00 80 a5 8e 00 80
       5.5107e-41 -5.833e-41 -4.9249e-41 -5.1171e-41
000010 ba 0d 08 0c 07 93 00 00 8c 8d 00 80 68 90 00 00
       1.048119e-31 5.2743e-41 -5.0777e-41 5.1803e-41
000020 de 27 af b3 b8 8b 00 80 f2 1e 8f 35 c4 26 73 35
       -8.156324e-08 -5.0122e-41 1.0663337e-06 9.0580966e-07
000030 69 ad 00 80 23 89 00 80 3c 8a 00 00 fc 48 d6 34
       -6.2208e-41 -4.9195e-41 4.9589e-41 3.991371e-07
000040 92 6a 02 90 ae 8f 00 80 45 8d 00 00 83 99 00 00
       -2.5720078e-29 -5.1543e-41 5.0678e-41 5.507e-41
000050 2e 8f 00 80 2f 5e ae b5 f0 00 4c b1 04 64 09 b3
       -5.1363e-41 -1.2991421e-06 -2.968644e-09 -3.1988762e-08
000060 31 a9 00 80 bc 91 00 00 3d 8c 93 34 0f ac 00 00
       -6.0694e-41 5.228e-41 2.748292e-07 6.1723e-41
000070 f1 92 00 00 02 91 00 00 40 92 00 00 d4 8b 00 00
       5.2713e-41 5.2019e-41 5.2465e-41 5.0161e-41
000080 57 ae 00 80 47 a3 00 00 a5 92 00 00 a5 8c 00 80
       -6.2541e-41 5.8573e-41 5.2606e-41 -5.0454e-41
000090 e1 0e 9f 8b 18 aa 00 80 ce 8c 00 00 63 95 00 00
       -6.126696e-32 -6.1018e-41 5.0511e-41 5.359e-41
0000a0 02 30 5e 34 5a 8e 00 00 88 a4 88 34 6d 5c fb 33
       2.0692826e-07 5.1066e-41 2.5451686e-07 1.17049105e-07
0000b0 88 90 00 00 0d 4d 00 80 48 a4 00 00 e8 ce a2 34
       5.1848e-41 -2.764e-41 5.8933e-41 3.0325396e-07
0000c0 2d c1 b8 0e 05 8d 00 80 9c 98 00 80 f2 8b 00 80
       4.5545524e-30 -5.0588e-41 -5.4746e-41 -5.0203e-41
0000d0 5d 95 00 00 f3 2a 9d 32 e7 d5 a7 b4 b6 97 e1 34
       5.3581e-41 1.8296737e-08 -3.1261808e-07 4.20199e-07
0000e0 a9 93 00 80 07 aa 00 00 a9 43 41 34 cf ad 00 00
       -5.297e-41 6.0994e-41 1.799914e-07 6.2351e-41
0000f0 91 a4 00 80 61 9a 00 80 d5 92 00 00 30 90 00 00
       -5.9035e-41 -5.5381e-41 5.2673e-41 5.1725e-41
000100 07 89 00 80 d6 8d 00 00 d0 8d 00 80 91 91 00 80
       -4.9156e-41 5.0881e-41 -5.0873e-41 -5.222e-41
000110 87 cd 5a 0b 8e 83 00 00 87 89 00 00 26 8f 00 00
       4.2139894e-32 4.7193e-41 4.9336e-41 5.1352e-41
000120 5a 10 dd b2 32 8e 00 80 31 d7 a5 34 fa c2 a3 34
       -2.5735222e-08 -5.101e-41 3.0890217e-07 3.050298e-07
000130 a5 89 00 00 61 89 00 80 b3 9f 00 00 1f 67 38 34
       4.9378e-41 -4.9282e-41 5.7289e-41 1.717385e-07
000140 38 1f 44 8f 8e 4b 00 00 ea 8f 00 00 24 8a 00 00
       -9.6695586e-30 2.7104e-41 5.1627e-41 4.9556e-41
000150 06 8e 00 00 38 13 a5 b4 2a c3 b3 b3 26 25 e5 33
       5.0948e-41 -3.0747628e-07 -8.370837e-08 1.0670401e-07
000160 f6 a7 00 80 20 8a 00 00 41 9d 90 33 d1 9a 00 00
       -6.0253e-41 4.955e-41 6.734127e-08 5.5538e-41
000170 3d 9d 00 00 2b 8d 00 80 ee 9d 00 80 68 8e 00 00
       5.6406e-41 -5.0642e-41 -5.6654e-41 5.1086e-41
000180 a4 8c 00 00 e6 98 00 00 c8 90 00 80 f9 8c 00 80
       5.0452e-41 5.485e-41 -5.1938e-41 -5.0571e-41
000190 8c 90 85 85 2f a0 00 80 64 8b 00 00 9c 89 00 00
       -1.2560358e-35 -5.7463e-41 5.0004e-41 4.9365e-41
0001a0 36 12 9d 2d 47 8f 00 80 d2 e4 31 ae 27 34 66 ae
       1.785692e-11 -5.1398e-41 -4.0448374e-11 -5.2342266e-11
0001b0 05 97 00 00 fb 8c 00 80 61 a7 00 80 01 12 a6 2d
       5.4176e-41 -5.0574e-41 -6.0044e-41 1.888001e-11
0001c0 3d f5 a0 09 5c 96 00 80 4b ac 00 00 79 8a 00 00
       3.874922e-33 -5.3939e-41 6.1807e-41 4.9675e-41
0001d0 28 ab 00 80 ee a2 0d 2f 3e 9c 7c ae 0f 3b 59 2e
       -6.1399e-41 1.288176e-10 -5.7436937e-11 4.9392542e-11
0001e0 ae a7 00 00 c5 91 00 00 46 f9 ef 2d 8e 96 00 00
       6.0152e-41 5.2292e-41 2.7281854e-11 5.4009e-41
0001f0 fd 99 00 00 b4 93 00 80 89 94 00 80 1d 0a 00 80
       5.524e-41 -5.2986e-41 -5.3284e-41 -3.628e-42
000200 34 95 00 00 b1 9e 00 00 a1 00 00 80 a7 97 00 80
       5.3524e-41 5.6928e-41 -2.26e-43 -5.4403e-41
000210 78 0e 42 0b 53 a8 00 80 da 89 00 80 8d 8f 00 00
       3.7373926e-32 -6.0383e-41 -4.9452e-41 5.1496e-41
000220 67 1d a5 ad 99 90 00 80 ba cc 45 af 08 01 1b af
       -1.8771385e-11 -5.1872e-41 -1.7989779e-10 -1.4097534e-10
000230 f2 99 00 00 bc 89 00 80 90 9b 00 80 dc 83 95 ac
       5.5225e-41 -4.941e-41 -5.5805e-41 -4.249474e-12
000240 cb 29 ac 07 3d 13 00 80 a7 94 00 80 62 8a 00 00
       2.5904247e-34 -6.901e-42 -5.3326e-41 4.9642e-41
000250 81 94 00 80 d8 94 b0 2e 5f e7 71 af 3a 2c 06 af
       -5.3273e-41 8.029993e-11 -2.2001022e-10 -1.2202941e-10
000260 f4 9b 00 80 85 8d 00 00 96 00 01 af fb a3 00 00
       -5.5945e-41 5.0768e-41 -1.173269e-10 5.8825e-41
000270 75 a4 00 80 0e 9a 00 80 8a 99 00 00 16 af 00 80
       -5.8996e-41 -5.5264e-41 5.508e-41 -6.2809e-41
000280 30 93 00 00 68 9b 00 00 01 8c 00 00 43 8f 00 80
       5.2801e-41 5.5749e-41 5.0224e-41 -5.1393e-41
000290 ef 75 be 0f 08 a0 00 00 53 8a 00 00 15 a6 00 00
       1.8780873e-29 5.7408e-41 4.9621e-41 5.9579e-41
0002a0 b5 36 ec b7 a0 8a 00 00 77 4b ff 38 9e bc f7 38
       -2.8158867e-05 4.9729e-41 0.00012173404 0.000118130105
0002b0 0a 9d 00 80 37 92 00 00 02 93 00 80 ee eb 5e 38
       -5.6335e-41 5.2452e-41 -5.2736e-41 5.314865e-05
0002c0 5d f5 b1 93 8a 8d 00 80 74 8a 00 00 cf 89 00 00
       -4.492303e-27 -5.0775e-41 4.9668e-41 4.9436e-41
0002d0 a0 a6 00 00 55 37 d2 b8 1e 54 9f b6 61 6a 2b 38
       5.9774e-41 -0.00010023887 -4.748362e-06 4.086865e-05
0002e0 6e 9c 00 80 92 8b 00 00 7a 04 ab 37 4d 94 00 80
       -5.6116e-41 5.0068e-41 2.0386873e-05 -5.32e-41
0002f0 b0 9e 00 80 ca ac 00 80 88 a0 00 80 fc 8b 00 80
       -5.6926e-41 -6.1985e-41 -5.7588e-41 -5.0217e-41
000300 1e 8b 00 80 48 8a 00 00 10 4b 00 80 14 8c 00 00
       -4.9906e-41 4.9606e-41 -2.6927e-41 5.025e-41
000310 92 f1 93 0a 99 97 00 80 a0 89 00 00 d2 91 00 00
       1.4246454e-32 -5.4383e-41 4.937e-41 5.231e-41
000320 d3 03 86 b0 6e a9 00 80 95 31 19 b2 1d 86 d6 b1
       -9.75087e-10 -6.078e-41 -8.917046e-09 -6.2434666e-09
000330 96 8f 00 00 63 89 00 00 96 a6 00 00 83 f2 74 b1
       5.1509e-41 4.9285e-41 5.976e-41 -3.5644525e-09
000340 cd 72 07 8c 3e 8c 00 80 df 92 00 00 fb 88 00 80
       -1.0434568e-31 -5.031e-41 5.2687e-41 -4.914e-41
000350 ed 8b 00 00 bd e1 d7 b3 02 da 7b 32 b8 dc 1d 2f
       5.0196e-41 -1.0052779e-07 1.4659692e-08 1.4357482e-10
000360 68 89 00 80 a3 8c 00 00 73 80 f8 b0 fe a1 00 00
       -4.9292e-41 5.0451e-41 -1.8080882e-09 5.8112e-41
000370 22 aa 00 80 d8 94 00 80 84 a1 00 00 88 8b 00 80
       -6.1032e-41 -5.3395e-41 5.7941e-41 -5.0054e-41
000380 72 8a 00 00 1f 8f 00 80 47 8a 00 80 85 8a 00 80
       4.9665e-41 -5.1342e-41 -4.9605e-41 -4.9691e-41
000390 0f 74 2b 88 d2 91 00 00 e1 88 00 80 5a 8b 00 00
       -5.1594867e-34 5.231e-41 -4.9103e-41 4.999e-41
0003a0 db d7 01 32 69 80 00 00 18 cc a3 30 ae ea 1d b0
       7.557868e-09 4.6065e-41 1.1917818e-09 -5.7449767e-10
0003b0 2e 8e 00 00 28 8d 00 00 67 95 00 80 c3 ac cc 31
       5.1004e-41 5.0637e-41 -5.3595e-41 5.956822e-09
0003c0 92 96 82 0b db 8b 00 80 90 8c 00 00 5e 8b 00 00
       5.030073e-32 -5.017e-41 5.0424e-41 4.9996e-41
0003d0 6d 8b 00 80 19 0b e8 31 a4 2e 3d b2 61 64 53 32
       -5.0017e-41 6.7533503e-09 -1.1011853e-08 1.230464e-08
0003e0 0d 8a 00 80 18 3f 00 00 40 cf 6f 31 40 8e 00 00
       -4.9523e-41 2.2634e-41 3.4896885e-09 5.103e-41
0003f0 36 8c 00 00 bb af 00 80 40 97 00 80 c0 8a 00 00
       5.0298e-41 -6.304e-41 -5.4258e-41 4.9774e-41

fno_blocks.fno_skips.3.conv.weight f4 [32, 32, 1]
000000 8e 9a ca 35 57 2a 8b b5 8e 50 9d b8 b2 80 44 31
       1.5095154e-06 -1.036863e-06 -7.501348e-05 2.8594909e-09
000010 41 e8 fe 38 6f 7f 9c 39 14 b7 ab b3 7c 66 85 b5
       0.000121549245 0.00029849584 -7.99611e-08 -9.939099e-07
000020 3b c2 9d bc 27 a7 32 34 3c 93 32 bd 5e 10 84 bc
       -0.019257655 1.6638351e-07 -0.043597445 -0.016121086
000030 7a 6c 65 32 12 7c f1 38 9b 2f 24 3a cd f6 fd b9
       1.3354219e-08 0.000115148854 0.0006263197 -0.000484398
000040 05 9a fa b9 22 e8 8b 35 22 5a 05 35 0d fa 86 b5
       -0.0004779847 1.0423867e-06 4.967752e-07 -1.0056552e-06
000050 51 30 0b b8 52 fc 9c 39 37 99 dc bc 04 c8 50 bc
       -3.318518e-05 0.00029942632 -0.026928527 -0.012743
000060 45 53 d5 33 22 61 42 b3 b6 3b 88 bd b0 d8 82 33
       9.933732e-08 -4.5257487e-08 -0.06652014 6.093012e-08
000070 be 01 46 34 fb bc 88 b5 13 2d 71 34 5f 8c 1c b5
       1.8440821e-07 -1.018779e-06 2.2461272e-07 -5.8318795e-07
000080 43 be 90 b6 10 bc f3 b6 38 c5 a1 37 79 44 7d 33
       -4.313684e-06 -7.2638577e-06 1.9284533e-05 5.896843e-08
000090 75 11 1e bc 0d ae c5 37 e9 55 ea b4 a5 d2 af b6
       -0.009647717 2.3565279e-05 -4.3648404e-07 -5.2399287e-06
0000a0 b8 b7 94 ba ee 6c b6 b4 90 98 57 bd 2e ed 53 bd
       -0.0011346256 -3.3979398e-07 -0.05263573 -0.051739864
0000b0 8c 77 eb 33 ea 12 83 b9 42 4e d4 3b 2a f8 16 bd
       1.0964786e-07 -0.0002500036 0.0064790556 -0.03685776
0000c0 ee 9c 26 3c 77 38 fd 36 9a e2 12 b6 4b f2 3b b7
       0.010169251 7.546561e-06 -2.1887595e-06 -1.1202482e-05
0000d0 03 42 91 39 a6 a7 ed bc 87 b3 98 3d 83 49 10 bd
       0.00027705738 -0.029010605 0.07456117 -0.035226356
0000e0 d9 9c 97 b4 5d 5d 05 b5 4f 6d a6 bd 73 37 ee 35
       -2.8240063e-07 -4.968222e-07 -0.08126318 1.774852e-06
0000f0 47 cb 59 34 3c 97 1e b7 b5 28 6b 35 df fa 74 35
       2.0283652e-07 -9.452746e-06 8.760356e-07 9.126215e-07
000100 a0 01 b4 b7 4c 2b c7 b5 09 cf 64 b8 fb d3 66 33
       -2.1458429e-05 -1.4839256e-06 -5.4552253e-05 5.3743843e-08
000110 03 57 24 3c c0 4c 45 39 6e df a4 b4 ee 4d 0c b6
       0.010030511 0.00018815976 -3.0709947e-07 -2.0906987e-06
000120 89 56 ef bb e0 ce bd b6 74 2c 35 3d cc 67 63 3d
       -0.007304017 -5.6567224e-06 0.044231847 0.05551891
000130 ed f2 d2 33 a0 d5 33 39 f0 c7 eb bb a7 42 e4 3c
       9.823075e-08 0.00017150352 -0.0071954653 0.027863814
000140 81 c3 11 bc ee 0d 33 36 d5 f6 a2 b6 97 4c 13 b6
       -0.008896709 2.6681187e-06 -4.8567113e-06 -2.1949288e-06
000150 60 cc 06 b9 5e 4e 84 bd e1 a2 1b bd 5d ff eb 3c
       -0.00012855371 -0.0646026 -0.03799713 0.02880829
000160 cb 23 03 b6 6e fd f6 b3 07 b8 28 3d 75 29 00 33
       -1.9541355e-06 -1.1501366e-07 0.041191127 2.9840027e-08
000170 c4 46 d9 35 92 be 69 b6 64 80 a8 34 1d fd b0 36
       1.6188355e-06 -3.4830632e-06 3.1385855e-07 5.274675e-06
000180 11 97 d1 b5 19 9e cc 35 35 ed 55 b8 db 83 d9 b2
       -1.561568e-06 1.5245197e-06 -5.1004074e-05 -2.5322086e-08
000190 8b 77 24 3c 60 80 35 39 2c 6c a4 33 10 2a 7f 35
       0.010038267 0.00017309329 7.6565215e-08 9.505611e-07
0001a0 bf 95 b4 bc 3d 8a 2e 33 40 b2 08 3d 0e a9 2e 3d
       -0.02204406 4.063826e-08 0.033373117 0.042641692
0001b0 3c b5 f2 b2 a0 4a 35 39 66 2a ce bb 9f 82 03 3d
       -2.8254924e-08 0.00017289305 -0.0062916754 0.03210699
0001c0 b2 6d 26 bc 0b 28 d4 b5 db 5d d0 35 7a a8 0e 36
       -0.010157989 -1.5806885e-06 1.5524523e-06 2.1257715e-06
0001d0 41 ed 0f b9 86 4d 63 bd 97 ee 65 bd 8f f3 f8 3c
       -0.00013725927 -0.055493854 -0.05613574 0.030389575
0001e0 52 9e b0 34 75 8b 02 34 af 2b c9 bc 64 9c 59 b4
       3.2897748e-07 1.2157928e-07 -0.024556963 -2.0266594e-07
0001f0 91 a7 a0 b4 e3 09 81 35 7c 9f ae b2 18 8c ac b5
       -2.9924243e-07 9.614126e-07 -2.0328791e-08 -1.2855771e-06
000200 2e 37 83 b5 0f db d5 b5 b7 d2 96 b8 e1 fc 81 31
       -9.77632e-07 -1.5933491e-06 -7.191806e-05 3.783143e-09
000210 66 43 a5 3b 4e c7 99 39 7a 51 04 b4 5a ca be b5
       0.005043435 0.00029330928 -1.2323099e-07 -1.4214995e-06
000220 05 20 da bc a4 f0 dd 34 5c 75 46 bd 76 2f 71 bc
       -0.026626596 4.1339547e-07 -0.048451766 -0.014720788
000230 e1 69 b7 32 25 c2 fa 38 be 66 01 bb b0 f7 14 3c
       2.1352152e-08 0.00011957091 -0.0019745077 0.009092256
000240 b3 34 f7 bb 57 08 de 35 87 1d 3a 35 d8 87 17 b6
       -0.007544124 1.6542716e-06 6.933337e-07 -2.2579825e-06
000250 55 f6 18 b8 ae 19 0a 3d 79 01 a0 bd 7d 81 96 bc
       -3.646904e-05 0.033715896 -0.07812781 -0.018372292
000260 b4 d0 3e 34 92 5c b5 b3 2d b1 81 bd 61 43 d1 34
       1.7771055e-07 -8.445308e-08 -0.06332622 3.8978308e-07
000270 8e 91 0d 34 ed ce 2c b6 eb 5a ba 34 d8 d9 6e b5
       1.3184601e-07 -2.5750444e-06 3.471135e-07 -8.8978913e-07
000280 dd df 46 35 21 fb 17 b6 6f f5 e4 b8 51 4f ad 32
       7.408651e-07 -2.264693e-06 -0.00010917603 2.017592e-08
000290 1c 3b 84 bb 63 db e0 39 7c 0e 25 b4 0d 92 08 b6
       -0.0040353667 0.00042888065 -1.5372092e-07 -2.0350592e-06
0002a0 59 0d 09 bd 55 20 bd 33 74 1d 98 bd 92 eb 21 bd
       -0.033459995 8.8068795e-08 -0.07427493 -0.039531298
0002b0 01 e3 09 33 16 a6 5b 38 e2 87 46 3b e2 82 1b bd
       3.2104257e-08 5.236835e-05 0.0030293395 -0.037966616
0002c0 55 5c 82 3b 8c e8 32 36 ac ac c8 b4 8e 1f f3 b5
       0.003978292 2.6659427e-06 -3.7378538e-07 -1.8114094e-06
0002d0 a6 6c 7e 38 35 25 97 bc 5c c4 f4 3c 98 c7 0e bd
       6.0659506e-05 -0.018450359 0.029878788 -0.034858316
0002e0 27 36 49 33 d5 7f 13 b4 48 cd e8 bd 45 63 aa b3
       4.684821e-08 -1.3736947e-07 -0.11367279 -7.934299e-08
0002f0 22 06 19 34 e7 16 02 b5 ee 58 c9 34 87 d3 fe b4
       1.4251466e-07 -4.84621e-07 3.7503872e-07 -4.7465093e-07
000300 91 e1 17 b7 9e b1 a4 b5 ab ca 87 b8 f2 36 1d b2
       -9.05282e-06 -1.2270646e-06 -6.4750515e-05 -9.151096e-09
000310 ab 15 3e 3c 17 83 88 39 e5 71 b9 b3 6e db a0 b5
       0.011601846 0.0002603761 -8.635451e-08 -1.1984791e-06
000320 52 02 ba bb 55 80 a7 35 3e 18 0f bd 82 ee 6c 3c
       -0.005676546 1.2479819e-06 -0.03493523 0.014461162
000330 a5 59 84 32 90 3d 0e 39 99 aa e4 bb 76 12 41 3c
       1.5407588e-08 0.00013565109 -0.0069783446 0.011784187
000340 0e 6b 4b bc b5 6b b4 35 91 25 f0 35 c5 ab 0b b6
       -0.012415661 1.3442392e-06 1.7892327e-06 -2.0812597e-06
000350 c8 ca 82 b8 07 9d 78 bd 85 65 b1 bd 31 8b 4f bc
       -6.236654e-05 -0.060696628 -0.086619414 -0.012667463
000360 2e 56 dc 33 8e e8 8f b3 59 63 88 bd be e1 11 35
       1.0260224e-07 -6.701258e-08 -0.06659574 5.434521e-07
000370 b7 ea 59 33 96 4b 3b b6 da a7 bf 34 a0 f0 1b b5
       5.073772e-08 -2.7909168e-06 3.569865e-07 -5.8092155e-07
000380 0f 3e 48 b6 6c e0 5e b6 ee a2 a8 b8 be 0d 84 32
       -2.9838445e-06 -3.3211209e-06 -8.041212e-05 1.5373072e-08
000390 1f 36 fd 3b 21 d3 b8 39 61 af 7b b4 db b3 35 b6
       0.007727399 0.00035252518 -2.3439999e-07 -2.7075791e-06
0003a0 84 17 0a bd 2f a9 0f 35 0b a2 a1 bd 7f 8b d0 bc
       -0.033713832 5.3517846e-07 -0.07892235 -0.025457142
0003b0 c7 36 4c 33 bb 45 c5 38 3e 77 54 bb a6 8a a0 bb
       4.754727e-08 9.40668e-05 -0.0032419707 -0.0048993407
0003c0 24 56 23 bc e2 93 66 36 15 bf 06 35 0f 6f a7 b6
       -0.009969268 3.435875e-06 5.019695e-07 -4.9899168e-06
0003d0 2a ec 27 37 ac a5 04 bd ab 2f 9a bd e0 9a 04 bd
       1.0008962e-05 -0.03238456 -0.07528623 -0.032374263
0003e0 9a e0 32 34 c3 82 57 b4 9f d6 d9 bd 32 1f 63 35
       1.6659251e-07 -2.0071006e-07 -0.10636639 8.4609485e-07
0003f0 b9 b1 40 34 52 66 aa b6 d3 42 1d 35 4b d4 71 b5
       1.7946049e-07 -5.0783065e-06 5.85843e-07 -9.0088423e-07

fno_blocks.channel_mlp.0.fcs.0.weight f4 [16, 32, 1]
000000 75 47 16 bd db 6c 1e bd 49 62 ab 3d 06 aa d2 bd
       -0.03668924 -0.03867803 0.08368356 -0.10286336
000010 80 4f 41 bd 4b 6a 29 bd c7 e7 df 3d 5e 7b ef bd
       -0.047194958 -0.041361134 0.1093288 -0.11693452
000020 76 0d 2a be 75 71 a8 be 44 68 0a be 24 ee a9 bd
       -0.16606697 -0.3289906 -0.13516337 -0.08297375
000030 40 87 7b bb b9 e3 4f 3c 1f cf 87 3c 84 84 1d be
       -0.0038380176 0.012688571 0.016578255 -0.15382582
000040 36 aa fd bb 76 57 04 be 00 90 9c 3d cf 63 b8 bd
       -0.007741238 -0.12923989 0.07644653 -0.09003412
000050 8f 80 f4 3d da 82 22 3d 0a 32 38 3e 81 57 8c 3e
       0.11938583 0.03967557 0.17987838 0.2741051
000060 92 d5 14 bd 35 f7 36 3e 61 ec 38 bd 6d 1b 5b 3e
       -0.03633649 0.1786774 -0.045147303 0.21397181
000070 d1 81 2b be 54 7b 4f 3c 8b c9 a3 3c f5 77 20 bd
       -0.1674874 0.012663681 0.019993564 -0.0391769
000080 ed 6b b1 be 79 cb e1 bb 07 5f be 3d f9 4a 9e bc
       -0.34652653 -0.006890711 0.09295469 -0.01932286
000090 bb 2b cd bd 15 b5 b1 3d 15 5b aa 3a 28 f7 82 bc
       -0.100181065 0.08677117 0.0012997115 -0.015986994
0000a0 63 12 80 bd e2 0a c0 bd c5 78 81 3d 6a 6b e8 3c
       -0.06253507 -0.09377076 0.06321863 0.028371532
0000b0 54 bf e7 bd 59 98 c5 bd 40 0b d4 bc 39 2b b3 bc
       -0.1131579 -0.09648199 -0.02588427 -0.021871196
0000c0 ba 8f 97 bd c6 a4 7a 3c 52 cf a9 bd 70 35 8a bd
       -0.074004605 0.015298074 -0.08291496 -0.06748474
0000d0 23 61 a8 3d b7 9e 93 bb 48 dd 4c bd 15 5a 5e 3d
       0.08221652 -0.0045050043 -0.050015718 0.054285128
0000e0 a4 8e 3a bd 97 a5 3d 3d 1f 21 17 3d ef d3 0c 3e
       -0.04554619 0.046300497 0.03689682 0.13752721
0000f0 75 04 3f bd 4e f5 f1 bc ee 3c 2f 3a de 47 93 3d
       -0.04663511 -0.029535916 0.00066847994 0.07191442
000100 1f 79 7c 3d 03 89 23 3c 1a 37 aa bb 47 1d b6 3c
       0.061638948 0.009981397 -0.005194557 0.022230757
000110 59 81 bc 3d 23 a7 1a bd 78 73 15 bd 9d a1 7e bc
       0.092043586 -0.03775705 -0.036487073 -0.015541461
000120 e3 b1 de 3d 33 ee aa 3d 75 23 65 bd a0 77 6d bc
       0.10873773 0.08346214 -0.055942018 -0.014493853
000130 dd 62 08 3d 89 a0 04 bd 63 d7 1d 3d 45 3d 24 3d
       0.03329741 -0.03237966 0.038535487 0.040097494
000140 d9 0c a8 3b 79 46 80 bd 55 89 5c 3d e0 92 42 3d
       0.0051284847 -0.062634416 0.053841908 0.047503352
000150 6c ec 09 bd 94 56 8e bd 7f 7b 39 bd 7a 20 80 bd
       -0.033672735 -0.06950107 -0.04528379 -0.062561944
000160 cf 43 b2 3c f0 c9 ae 3d 80 a7 5d 3c 33 ae ee 3d
       0.02176085 0.0853461 0.013528705 0.116543196
000170 b4 69 bf 3b 61 92 fa 3d fc e4 88 3d 07 81 f1 bd
       0.005841458 0.12234951 0.066843 -0.11792188
000180 01 29 68 be cf 3e d5 bc 5f 3f dc be bc 58 cb bd
       -0.22671892 -0.026030926 -0.43017098 -0.09929034
000190 04 a9 f0 3c b0 be f7 bd f9 c0 b0 be 41 0a a4 bd
       0.029377468 -0.12096918 -0.34522226 -0.08009768
0001a0 31 e2 72 3d e1 71 0e be 2f 71 c8 3c 2d 30 92 be
       0.059297744 -0.13910629 0.024468033 -0.2855238
0001b0 ec ff b6 bd 94 0b 39 3d 3b 53 35 3e 38 4b 35 be
       -0.08935532 0.045177057 0.17707531 -0.17704475
0001c0 7e cf 88 bb ff 10 16 3e c2 2b 13 be ec b6 ea 3a
       -0.0041751256 0.14654921 -0.14372161 0.0017907298
0001d0 4a ef e0 3b e0 81 9f 3d 23 6a d0 bd e1 9f 30 be
       0.006864463 0.077884436 -0.10176494 -0.17248489
0001e0 36 92 a8 3d d0 be 20 be 0b 54 46 3d b2 69 51 bd
       0.082310125 -0.15697789 0.048419993 -0.05112619
0001f0 12 ac 80 3e 21 48 5e 3d 91 2e eb bd 79 00 67 3d
       0.2513128 0.054268006 -0.11483491 0.056396935
000200 7b 8a 8e 3d 32 01 79 bc 3c ed 9b bd ac 74 23 3e
       0.06960007 -0.015198039 -0.07613608 0.15962476
000210 70 5f d8 3d 2f b7 9b be f6 cf c8 be cd 4d 04 3e
       0.10565078 -0.30413195 -0.39221162 0.12920304
000220 eb 5c 2b bc e7 1e 79 bd 24 98 55 3b 12 79 39 be
       -0.010459165 -0.060820486 0.0032591904 -0.18112591
000230 de 28 b5 3c 17 38 d4 ba 34 6f 89 3e ea 16 36 be
       0.022114214 -0.0016191032 0.26842654 -0.17782179
000240 a3 5a 19 3e 4d e4 b2 3d 56 65 9b bd 48 bb d9 3d
       0.14975981 0.08734951 -0.07587688 0.10631424
000250 e8 cf 25 be 82 16 ab 3d 78 96 c3 bd 92 2e e8 bd
       -0.16192591 0.083539024 -0.09550184 -0.113370076
000260 a1 ef 7f 3e 09 0a 98 bc 1c a5 a6 bc da 43 68 bc
       0.24993755 -0.018559473 -0.020342402 -0.014176333
000270 dd 96 32 3e a9 51 ac 3d 6f d6 0b be 9c 48 0a bd
       0.17440362 0.08414013 -0.13656019 -0.033760652
000280 d3 03 2e be 9b f6 50 bc 69 ac b1 bd 65 18 0a 3d
       -0.16993646 -0.012754108 -0.08675463 0.03371467
000290 62 51 f7 bc 76 8b 7f 3d 3b 0e 66 bd 86 84 3c 3e
       -0.030190174 0.06238886 -0.056165915 0.18409929
0002a0 7e 88 75 3c a1 5f 3b be a5 84 51 bd 08 c2 e8 bd
       0.014986156 -0.18298198 -0.05115189 -0.113651335
0002b0 c3 5e 7a be 20 08 e0 3d fc c8 78 bd 82 d0 86 bd
       -0.24450211 0.1093905 -0.06073855 -0.065827385
0002c0 6f 4e f1 3d 5d 30 cb bd 88 28 16 3e 27 e2 fb bc
       0.11782538 -0.09921334 0.14663899 -0.030747486
0002d0 2a a2 29 3e 43 5d c7 3d b1 3e 07 3e 2f 6a 38 3e
       0.16565767 0.09734585 0.13207509 0.18009256
0002e0 17 64 43 be 35 98 5f 3d d6 16 eb 3a 86 65 4c 3d
       -0.1908115 0.054588515 0.0017935883 0.049901508
0002f0 1f 48 39 be fd 0a 30 be 01 70 23 3e 11 24 46 3d
       -0.18093918 -0.17191692 0.15960695 0.04837424
000300 d0 40 31 be 81 0f b3 bc bb 2a 25 bd 73 6b 9f 3c
       -0.1730988 -0.021857979 -0.040323954 0.019460415
000310 e5 84 af bd cb a2 89 3d 3a a6 f5 bc 4d fa 82 3d
       -0.085702695 0.067205034 -0.02998649 0.06395397
000320 cf c2 35 bd 5f e1 05 be bf d3 36 bc fb a2 16 3e
       -0.044375237 -0.13074253 -0.011158883 0.1471061
000330 0a b6 c4 bd 9f 91 0f bd 43 d9 7f 3c d6 da 81 bc
       -0.09605034 -0.035050984 0.015615764 -0.01585142
000340 11 80 37 3c 05 27 3c bd c4 d7 3b 3d 89 af 1d bd
       0.011199967 -0.04593565 0.045860067 -0.03849748
000350 a3 d5 a8 3d 04 2c cf bb d8 25 9e 3d dc 3e be 3d
       0.08243873 -0.0063223857 0.07722062 0.09289333
000360 1c 5e f8 3b 18 ca c5 3b 0e cd ce 3c db b2 85 3d
       0.007579578 0.0060360543 0.025244262 0.065282546
000370 1a c9 55 bd 47 b0 2c bd 30 6a 19 3d 4a 59 51 3d
       -0.05219374 -0.0421603 0.037454784 0.051110543
000380 14 74 6d 3e 52 25 09 bd 5c 21 7d bd 3a 50 f0 3d
       0.23188812 -0.033482857 -0.061799392 0.11734052
000390 95 e6 ab bd 30 84 1c 3e 3a 68 47 3e 99 95 21 3d
       -0.083935894 0.152848 0.19473353 0.039449308
0003a0 7a b8 be bd 96 91 72 3e 71 ec 09 bd 28 bb 08 3d
       -0.0931253 0.23688349 -0.033672754 0.03338161
0003b0 19 9f 5d 3e c4 1e 1a be 70 d6 ac bd 41 64 aa bd
       0.21642722 -0.15050799 -0.08439338 -0.08319903
0003c0 60 74 2c be 20 0d 0c 3c 97 f1 35 bd b7 45 86 3b
       -0.16841269 0.008548051 -0.04441985 0.004097666
0003d0 80 c5 b3 3c 71 85 4c 3d 64 bf 09 be c3 ed dc bd
       0.021944761 0.049931947 -0.13451916 -0.10787537
0003e0 e8 fb 19 3d 76 0f 20 3e 4d b5 8e bd 40 97 86 be
       0.037593752 0.15630898 -0.06968174 -0.2628727
0003f0 e4 19 eb 3c b4 9b 3f be 49 23 85 bc b8 ca d7 bd
       0.028698869 -0.1871174 -0.016252177 -0.105367124

fno_blocks.channel_mlp.0.fcs.0.bias f4 [16]
000000 f3 50 87 3d 84 bc 19 bd 4d 43 90 3d b3 ad a8 bc
       0.06607237 -0.037533298 0.070440866 -0.020590639
000010 75 23 31 3e 98 73 90 3d 51 5c cb 3c 48 60 d2 bc
       0.17298682 0.07053298 0.024824293 -0.025680676
000020 6b 14 39 bd fa 12 74 bc 1f 5d 15 3d 64 e2 70 3d
       -0.045185488 -0.0148971025 0.03646576 0.058809653
000030 ff fc e2 3b ae b5 a1 3b 74 85 34 3d a6 eb 06 3e
       0.006927132 0.004934988 0.044072583 0.1317583

fno_blocks.channel_mlp.0.fcs.1.weight f4 [32, 16, 1]
000000 d1 87 00 80 71 8c 00 00 26 8a 00 80 bc 8a 00 80
       -4.8722e-41 5.0381e-41 -4.9558e-41 -4.9769e-41
000010 23 8a 00 00 7b 19 00 80 1e 8d 00 00 5a 8e 00 80
       4.9554e-41 -9.14e-42 5.0623e-41 -5.1066e-41
000020 e3 88 00 00 d5 89 00 80 81 8f 00 00 af 89 00 80
       4.9106e-41 -4.9445e-41 5.148e-41 -4.9392e-41
000030 ef 90 00 00 3a 8d 00 00 db 88 00 80 46 89 00 00
       5.1992e-41 5.0663e-41 -4.9094e-41 4.9244e-41
000040 3b 8b 00 00 82 8b 00 00 29 8d 00 00 be 8d 00 00
       4.9946e-41 5.0046e-41 5.0639e-41 5.0848e-41
000050 04 89 00 00 8f 8b 00 00 ac 8a 00 80 b3 8f 00 80
       4.9152e-41 5.0064e-41 -4.9746e-41 -5.155e-41
000060 bf 89 00 00 ca 8a 00 80 ba 8f 00 80 8a 8b 00 80
       4.9414e-41 -4.9788e-41 -5.156e-41 -5.0057e-41
000070 e1 8c 00 80 06 89 00 00 cd 92 00 00 41 8b 00 80
       -5.0538e-41 4.9155e-41 5.2662e-41 -4.9955e-41
000080 b9 8b 00 80 6e 8c 00 80 b0 94 00 00 0c 8a 00 80
       -5.0123e-41 -5.0377e-41 5.3339e-41 -4.9522e-41
000090 bd 8a 00 00 25 8a 00 80 85 8c 00 00 0f 92 00 00
       4.977e-41 -4.9557e-41 5.0409e-41 5.2396e-41
0000a0 bd 99 00 00 bc 8a 00 00 3d 93 00 00 3b 89 00 80
       5.5151e-41 4.9769e-41 5.2819e-41 -4.9229e-41
0000b0 c5 94 00 80 9c 96 00 80 32 8c 00 80 82 8a 00 00
       -5.3368e-41 -5.4028e-41 -5.0293e-41 4.9687e-41
0000c0 16 8a 00 00 6f 89 00 80 39 8a 00 80 f9 8a 00 00
       4.9536e-41 -4.9302e-41 -4.9585e-41 4.9854e-41
0000d0 e0 88 00 00 be 88 00 80 6d 89 00 00 a6 89 00 80
       4.9101e-41 -4.9054e-41 4.9299e-41 -4.9379e-41
0000e0 51 8a 00 80 90 89 00 00 27 8b 00 80 d4 88 00 80
       -4.9619e-41 4.9348e-41 -4.9918e-41 -4.9085e-41
0000f0 dd 8c 00 00 4f 89 00 80 85 8b 00 00 81 89 00 80
       5.0532e-41 -4.9257e-41 5.005e-41 -4.9327e-41
000100 c5 8a 00 00 d3 88 00 80 bc 8d 00 00 38 8a 00 00
       4.9781e-41 -4.9083e-41 5.0845e-41 4.9584e-41
000110 55 8b 00 80 c1 88 00 80 0d 9e 00 00 ff a5 00 00
       -4.9983e-41 -4.9058e-41 5.6698e-41 5.9548e-41
000120 9c 90 00 00 c5 8a 00 80 10 8a 00 00 ab 8d 00 80
       5.1876e-41 -4.9781e-41 4.9527e-41 -5.0821e-41
000130 b5 92 00 80 9a 8b 00 80 88 9d 00 00 99 8c 00 80
       -5.2629e-41 -5.008e-41 5.6512e-41 -5.0437e-41
000140 ed 88 00 80 2d 8c 00 00 56 8b 00 00 64 8b 00 80
       -4.912e-41 5.0286e-41 4.9984e-41 -5.0004e-41
000150 44 8b 00 80 28 89 00 80 10 9e 00 80 0f 8f 00 00
       -4.9959e-41 -4.9202e-41 -5.6702e-41 5.132e-41
000160 38 89 00 80 69 89 00 80 d9 8f 00 00 9a 89 00 80
       -4.9225e-41 -4.9293e-41 5.1603e-41 -4.9362e-41
000170 e3 8d 00 00 d2 89 00 00 35 8b 00 00 16 8a 00 80
       5.09e-41 4.944e-41 4.9938e-41 -4.9536e-41
000180 73 8b 00 00 af 8a 00 00 74 8c 00 00 54 89 00 80
       5.0025e-41 4.975e-41 5.0385e-41 -4.9264e-41
000190 68 8a 00 00 fa 88 00 00 9a 8b 00 00 7b 89 00 00
       4.9651e-41 4.9138e-41 5.008e-41 4.9319e-41
0001a0 e0 90 00 00 7e 89 00 00 d2 8f 00 00 78 89 00 00
       5.1971e-41 4.9323e-41 5.1593e-41 4.9314e-41
0001b0 96 89 00 00 fc 88 00 00 be 8d 00 00 00 89 00 00
       4.9357e-41 4.9141e-41 5.0848e-41 4.9146e-41
0001c0 2b 8b 00 80 60 11 00 00 4d 89 00 80 7c 89 00 00
       -4.9924e-41 6.233e-42 -4.9254e-41 4.932e-41
0001d0 1d 8a 00 80 f3 89 00 00 5a 74 00 00 c5 8a 00 00
       -4.9546e-41 4.9487e-41 4.1739e-41 4.9781e-41
0001e0 41 89 00 80 64 89 00 00 6b 8b 00 00 98 89 00 00
       -4.9237e-41 4.9286e-41 5.0014e-41 4.936e-41
0001f0 8c 8a 00 80 1f 89 00 00 97 8b 00 80 d8 88 00 00
       -4.9701e-41 4.919e-41 -5.0075e-41 4.909e-41
000200 27 04 64 3e cb 81 72 3c b0 00 76 ba d8 06 00 3e
       0.22267209 0.014801453 -0.0009384258 0.1250261
000210 c4 8a 9f 3e 23 34 e7 3d 2b 31 27 3a c1 eb 2d be
       0.31160557 0.11289241 0.0006377871 -0.16984464
000220 5e 28 29 be b3 d9 a0 3d ef 15 ca bd 47 8f e1 3d
       -0.16519305 0.07854023 -0.09867465 0.11013656
000230 af 87 32 bd eb 01 0d be 65 73 b5 bd ed 0a da 3c
       -0.04358643 -0.13770263 -0.088599004 0.026616538
000240 dc 51 00 80 b5 89 00 00 1c 8f 00 00 4f 8a 00 80
       -2.9366e-41 4.94e-41 5.1338e-41 -4.9616e-41
000250 1d 90 00 00 af 89 00 00 f2 88 00 80 98 9e 00 00
       5.1698e-41 4.9392e-41 -4.9127e-41 5.6893e-41
000260 03 40 00 80 6e 89 00 80 c0 88 00 80 e9 89 00 00
       -2.2963e-41 -4.93e-41 -4.9057e-41 4.9473e-41
000270 f3 92 00 80 54 89 00 00 36 8e 00 80 53 89 00 00
       -5.2715e-41 4.9264e-41 -5.1016e-41 4.9263e-41
000280 fd 53 44 bd e7 41 f1 bc 0a 69 c6 3c fe 4b 16 3d
       -0.04793166 -0.02945037 0.024220008 0.036693566
000290 67 59 4e 3d 0a a7 db bc 98 23 a0 3c 30 69 9f 3d
       0.05037823 -0.026813049 0.019548222 0.07783735
0002a0 74 c5 e2 bc 79 27 c0 3d 59 bc e8 3c f2 87 85 bd
       -0.027682044 0.09382529 0.028410124 -0.0652007
0002b0 98 6f 94 bc 73 be c4 3d f3 a8 e8 3c 30 a4 9a bd
       -0.018119618 0.09606638 0.028400874 -0.075508475
0002c0 0b af 0d bc e7 35 a8 b9 1d 3a b6 3d 26 ca e0 3a
       -0.0086476905 -0.00032083617 0.08897803 0.0017150089
0002d0 41 6c be bb 50 1e 51 bc 98 d6 de 3b aa 33 87 3d
       -0.0058112447 -0.012763575 0.006800484 0.06601651
0002e0 ee 90 8f 3c 47 d8 43 3c 83 37 14 3c 50 6f 77 bc
       0.017525163 0.01195342 0.009046438 -0.015102223
0002f0 59 4a 1f bb 98 0d 6d 3d 76 87 51 bb 66 97 66 bc
       -0.002430579 0.057874292 -0.003197161 -0.014074182
000300 29 8a 00 80 98 89 00 80 b5 8d 00 00 47 8c 00 00
       -4.9563e-41 -4.936e-41 5.0835e-41 5.0322e-41
000310 b5 89 00 00 ee 89 00 80 70 8d 00 80 0d 8f 00 80
       4.94e-41 -4.948e-41 -5.0738e-41 -5.1317e-41
000320 95 94 00 00 63 89 00 00 ba 8a 00 80 d0 88 00 80
       5.3301e-41 4.9285e-41 -4.9766e-41 -4.9079e-41
000330 3c 91 00 80 f8 88 00 00 14 8a 00 00 15 8a 00 00
       -5.21e-41 4.9135e-41 4.9533e-41 4.9534e-41
000340 d2 8a 00 00 9e 8b 00 80 80 8b 00 80 01 8a 00 80
       4.98e-41 -5.0085e-41 -5.0043e-41 -4.9506e-41
000350 55 89 00 00 87 89 00 00 00 8e 00 00 0c 8c 00 00
       4.9265e-41 4.9336e-41 5.094e-41 5.024e-41
000360 fb 89 00 00 c7 88 00 00 8a 8a 00 00 50 89 00 00
       4.9498e-41 4.9066e-41 4.9698e-41 4.9258e-41
000370 ad 25 00 00 e3 89 00 00 cc 89 00 80 fe 88 00 00
       1.3516e-41 4.9464e-41 -4.9432e-41 4.9144e-41
000380 c7 8b 00 00 56 89 00 00 52 8a 00 80 d6 8a 00 00
       5.0143e-41 4.9267e-41 -4.962e-41 4.9805e-41
000390 0b 89 00 80 ae 89 00 80 76 8a 00 80 b0 8a 00 00
       -4.9162e-41 -4.939e-41 -4.967e-41 4.9752e-41
0003a0 c8 88 00 00 3c 89 00 80 c7 88 00 80 ce 89 00 80
       4.9068e-41 -4.923e-41 -4.9066e-41 -4.9435e-41
0003b0 3d 8c 00 80 e8 89 00 00 44 92 00 00 51 89 00 80
       -5.0308e-41 4.9471e-41 5.247e-41 -4.926e-41
0003c0 79 76 ce 3d 68 db 57 bc fe 2d e1 3b 08 fe 26 bc
       0.100811906 -0.013174869 0.006871938 -0.010192402
0003d0 32 a4 60 bd a6 02 9b bc 2a 2f 2a 3d 63 4a af 3c
       -0.05484409 -0.018922161 0.041548885 0.021397775
0003e0 a2 ad 31 3d 11 3c f6 3d cd 69 83 3c 61 84 e2 3b
       0.04337848 0.120231755 0.01604166 0.0069127535
0003f0 dd 79 94 3b 1a ae 9a 3d e3 4d 80 3d ab 4d 07 3e
       0.004531129 0.075527385 0.06264856 0.13213222

fno_blocks.channel_mlp.0.fcs.1.bias f4 [32]
000000 06 89 00 80 9e 89 00 00 9e 8a 00 80 06 89 00 00
       -4.9155e-41 4.9368e-41 -4.9726e-41 4.9155e-41
000010 be 88 00 80 2d 89 00 80 8a 89 00 00 97 89 00 80
       -4.9054e-41 -4.921e-41 4.934e-41 -4.9358e-41
000020 2c fa 2c 3e 53 89 00 00 86 14 0a 3e e4 18 43 3c
       0.16892308 4.9263e-41 0.13484392 0.01190779
000030 ea 88 00 80 f2 88 00 00 9e 89 00 00 5b 37 b0 bc
       -4.9116e-41 4.9127e-41 4.9368e-41 -0.02151077
000040 30 8a 00 00 f5 88 00 80 57 89 00 00 2d 89 00 80
       4.9572e-41 -4.9131e-41 4.9268e-41 -4.921e-41
000050 06 8a 00 00 bf 72 17 3e c3 0f 5d 3e bc 86 15 3d
       4.9513e-41 0.14789866 0.21588044 0.036505446
000060 aa 89 00 00 37 89 00 00 32 c5 fe 3d b4 89 00 80
       4.9385e-41 4.9223e-41 0.12439956 -4.9399e-41
000070 b1 89 00 00 68 89 00 80 57 89 00 80 64 89 00 00
       4.9394e-41 -4.9292e-41 -4.9268e-41 4.9286e-41
