model_checkpoints_naca/naca_fno_final_r12.pth (torch, 136357 bytes, 35 tensors)

fno_blocks.convs.0.bias f4 [32, 1, 1]
-2.2235643e-05 0.009871348 0.0001274779 0.02021839 0.044814494 -1.8485793e-05 0.013680825 0.096116476
0.0055430788 -0.04085597 -0.024554573 -0.015844626 0.08026036 0.087014265 0.013068264 0.045695193
-0.050393414 0.07674093 0.044386555 -6.355486e-06 7.0849346e-06 -0.14251514 0.08883877 -0.042360842
-0.023239244 0.015051748 0.13460764 -0.011548933 0.0007043025 0.017911525 0.06527519 -0.00088284013
00000000: ae86 bab7 6fbb 213c 97ab 0539 09a1 a53c
00000010: 678f 373d f011 9bb7 8a25 603c b7d8 c43d
00000020: b7a2 b53b 9758 27bd ac26 c9bc 97cc 81bc
00000030: 8b5f a43d 8934 b23d 461c 563c e22a 3b3d
00000040: 5369 4ebd 592a 9d3d adce 353d 3641 d5b6
00000050: 20bb ed36 7def 11be 1af1 b53d 9082 2dbd
00000060: 3a60 bebc 9b9b 763c 96d6 093e bc37 3dbc
00000070: f1a0 383a 31bb 923c 00af 853d 666e 67ba

fno_blocks.convs.1.bias f4 [32, 1, 1]
-1.1106944e-08 2.908345e-08 3.1751688e-09 2.663628e-10 -2.9390371e-06 3.4650165e-07 -7.881207e-09 2.8318198e-13
3.7944436e-13 -3.0670913e-12 1.6165098e-08 -9.93002e-15 4.4230884e-08 2.1007894e-14 -7.416055e-13 -8.290195e-07
-4.0384857e-12 2.1344565e-11 3.7626508e-14 4.4095994e-11 5.273114e-09 -3.0498373e-07 1.5236092e-14 6.483524e-15
-6.2808423e-13 2.6817136e-13 -4.22606e-13 1.674277e-39 4.6387205e-13 -1.1210795e-07 -3.416499e-07 3.4020229e-37
00000000: dbd0 3eb2 2fd3 f932 2932 5a31 3b6f 922f
00000010: 463c 45b6 d306 ba34 ea65 07b2 d36a 9f2a
00000020: b29b d52a ced3 57ac 6ddb 8a32 22e2 32a8
00000030: 5ff8 3d33 e838 bd28 4fbe 50ab c989 5eb5
00000040: 7217 8eac b0bf bb2d 6974 2929 adef 412e
00000050: cd2e b531 a5bc a3b4 093c 8928 f497 e927
00000060: 3dca 30ab 91f7 962a f1e7 edaa 343b 1200
00000070: 8191 022b ffbf f0b3 016c b7b4 9987 e702

fno_blocks.convs.2.bias f4 [32, 1, 1]
-7.964786e-05 3.8902356e-24 -3.0969494e-16 9.2966525e-07 3.9493375e-07 -5.1078464e-10 -0.0003023721 -8.960838e-05
-9.5260584e-05 7.6547807e-10 -9.244853e-05 -4.1434378e-05 -6.4601256e-05 -4.3234042e-14 2.5156248e-14 -6.632334e-10
-6.450464e-13 -7.2672043e-07 -6.0999295e-10 -1.0590973e-07 9.480198e-07 9.3186395e-26 0.000100583704 -1.2549209e-10
4.484229e-13 3.2902902e-15 -6.129264e-08 3.7169792e-09 5.3569094e-11 3.2183408e-08 4.6056755e-08 4.4893233e-05
00000000: 9f08 a7b8 077f 9618 e886 b2a5 1c8e 7935
00000010: 4807 d434 4667 0cb0 b287 9eb9 22ec bbb8
00000020: a3c6 c7b8 bb69 5230 ede0 c1b8 d3c9 2db8
00000030: 897a 87b8 75b5 42a9 5c96 e228 e74e 36b0
00000040: 7e90 35ab d913 43b5 70ac 27b0 7d70 e3b3
00000050: 6d7b 7e35 e5b7 e615 77f0 d238 e2fa 09af
00000060: 8d70 fc2a 2417 6d27 fc9f 83b3 ca6d 7f31
00000070: 7099 6b2e 083a 0a33 f0cf 4533 be4b 3c38

fno_blocks.convs.3.bias f4 [32, 1, 1]
8.794867e-09 -2.7380545e-05 -1.2760756e-07 -2.1566587e-08 -1.5144188e-08 -3.6077947e-09 8.146139e-07 4.9968266e-06
5.430619e-10 -6.565706e-08 5.545266e-08 4.653068e-05 5.2242813e-06 -4.7446196e-05 8.3118207e-10 1.0072643e-11
-1.214324e-08 -5.1940333e-07 -1.1071515e-08 -4.9185564e-06 0.00022660328 0.00014629222 1.08158524e-07 -9.914693e-07
2.7943388e-09 -3.3874081e-09 -7.451437e-08 -3.849731e-07 -7.0267175e-05 1.44120955e-08 -6.9488717e-09 5.6296434e-10
00000000: 3c18 1732 46af e5b7 8004 09b4 6d41 b9b2
00000010: 6c16 82b2 ffec 77b1 d7ab 5a35 6aaa a736
00000020: 9546 1530 5aff 8cb3 d82a 6e33 f029 4338
00000030: 3c4c af36 f700 47b8 3d79 6430 2733 312d
00000040: 899e 50b2 206d 0bb5 0a35 3eb2 140a a5b6
00000050: 5b9c 6d39 0566 1939 c744 e833 a012 85b5
00000060: 8706 4031 eac7 68b1 b504 a0b3 4dae ceb4
00000070: 675c 93b8 1199 7732 ecc2 eeb1 18bf 1a30

fno_blocks.fno_skips.0.conv.weight f4 [32, 32, 1]
-1.9559378e-05 -2.5031156e-07 4.4012766e-05 -2.5093655e-05 -1.1219214e-05 1.3467263e-05 1.1691391e-07 -1.2003885e-05
-2.7041386e-05 5.861731e-07 4.723482e-05 -5.2670224e-05 1.0133304e-07 -2.083567e-06 -1.9860152e-05 2.783436e-05
-6.9727845e-05 -3.087668e-05 -2.558812e-05 5.43833e-05 -4.7517595e-05 -5.4845543e-05 2.1169266e-05 -1.16847055e-07
-3.27531e-05 7.2178335e-07 -6.670428e-05 -1.3596615e-05 3.178807e-05 2.1484693e-05 3.8103433e-05 3.162963e-05
0.0005702023 7.587577e-06 -0.017102372 0.018547488 -0.011815003 -0.023354748 -1.296357e-05 0.03396007
0.004702455 5.1659106e-05 -0.00055952795 0.04475216 -5.5805417e-06 0.013601738 -0.029582003 -0.001943431
0.010130444 0.007745648 0.011350581 -0.009940792 0.0004650663 0.03071101 -0.03594197 -2.153541e-05
0.0058494294 5.4183045e-05 0.011747074 -0.04276345 -0.007220835 -0.014481568 -0.022301653 0.020903023
1.7232556e-05 1.0496641e-06 -1.4616998e-05 9.969913e-05 -9.0859954e-05 -0.00014407495 5.3740274e-07 0.00016667486
3.4037155e-05 3.286117e-06 -4.823879e-05 6.601196e-06 -6.057683e-07 7.43117e-05 -0.00017202177 -1.9693889e-05
4.5583205e-05 4.428839e-05 7.399518e-05 -8.485733e-05 4.7651793e-05 5.99257e-05 -0.00015754232 -1.0921075e-06
3.6564117e-05 2.4008302e-06 1.0659414e-05 -0.00024875702 -4.3179592e-05 -6.576652e-05 -8.088504e-05 9.9415636e-05
-7.484922e-05 0.00015543148 0.012158572 -0.008635649 0.0016161645 0.005605162 4.8909274e-05 -0.012519555
-0.0018174166 0.0003955551 -0.0018495431 -0.011941783 -8.1238846e-05 -0.0061627883 0.008480654 0.0013444069
-0.0033424457 -0.004918498 -0.004358461 0.0035605924 0.003584301 -0.010281918 0.011120566 -0.00011438398
-0.0030102856 0.00031831616 -0.0042699943 0.015924554 0.0034482318 0.00943076 0.007850794 -0.002403668
-0.0029328133 -7.3848656e-05 0.025843496 -0.05193609 0.034499165 0.06050657 -4.5691584e-05 -0.0882413
-0.015769409 -0.00018495988 -0.011279152 -0.050665177 6.6097855e-05 -0.048926216 0.08722393 0.008790587
-0.011820649 -0.025536876 -0.03419087 0.019360209 0.01747424 -0.04661154 0.08902002 5.9526737e-05
-0.020936536 -6.355911e-05 -0.001331635 0.11692415 0.024294674 0.043996 0.045720547 -0.053689037
9.1046314e-07 9.309724e-08 -2.4671266e-05 2.00583e-07 1.4648691e-06 2.6863247e-05 8.210992e-08 -3.435319e-05
8.742826e-06 1.0730433e-06 1.0582412e-05 8.4296975e-05 -1.5062334e-07 -2.5095133e-05 3.5692996e-05 -7.1772574e-06
3.0124333e-05 1.3264606e-05 1.4830736e-06 -7.806422e-06 -1.0589767e-05 3.1769017e-05 4.5603974e-05 8.62144e-09
1.1534017e-05 6.459395e-07 4.6597666e-05 7.2890376e-05 -1.2182185e-05 -3.433958e-06 -3.5140745e-06 -4.8134436e-05
-0.005876141 -1.9297682e-05 -0.011375194 -0.002365458 0.019282332 0.023362404 -1.6708374e-05 -0.017713837
-0.0044519086 -4.3676297e-05 -0.00024039685 0.0004536111 1.0854421e-05 -0.013968711 0.026467139 0.0036232693
0.009430886 0.0017563889 -0.006522021 -0.0023553318 0.00027623188 0.0006982699 0.02839768 1.9395115e-05
-0.0010828902 -2.819433e-05 0.012494937 0.04242651 0.0003202393 -0.0033243597 0.010732945 -0.010957536
-0.012528716 -0.00012539432 0.01672387 -0.080771096 0.08455827 0.12869933 -2.9306393e-05 -0.15942363
-0.02973246 -0.00024362575 -0.03285504 -0.005083536 1.1610994e-05 -0.0933617 0.177134 0.019236373
0.03158864 -0.038400073 -0.056678556 0.011311943 0.050616775 -0.03166127 0.13882133 -1.5285172e-05
-0.03036155 -9.166457e-05 0.06347411 0.2810353 0.033374853 0.06712547 0.068449974 -0.08401921
00000000: 7213 a4b7 8f62 86b4 599a 3838 3780 d2b7
00000010: 283a 3cb7 74f1 6137 1a12 fb33 4b64 49b7
00000020: efd6 e2b7 8259 1d35 001e 4638 39ea 5cb8
00000030: 6e9c d933 69d3 0bb6 5a99 a6b7 d57d e937
00000040: da3a 92b8 9581 01b8 12a6 d6b7 a019 6438
00000050: a14d 47b8 f409 66b8 a794 b137 59ed fab3
00000060: 6060 09b8 93c0 4135 96e3 8bb8 041d 64b7
00000070: 2e54 0538 073a b437 40d1 1f38 0eaa 0438
00000080: a179 153a ca98 fe36 461a 8cbc e7f0 973c
00000090: b793 41bc 7552 bfbc 1c7e 59b7 b719 0b3d
000000a0: 0d17 9a3b 8bac 5838 49ad 12ba 0a4e 373d
000000b0: 7d40 bbb6 d3d9 5e3c f555 f2bc b9ba feba
000000c0: 29fa 253c 34cf fd3b caf7 393c b4de 22bc
000000d0: 24d4 f339 a895 fb3c e337 13bd f1a6 b4b7
000000e0: 92ac bf3b 9a42 6338 cd76 403c ba28 2fbd
000000f0: c19c ecbb 1944 6dbc f5b1 b6bc d13c ab3c
00000100: a28e 9037 2fe2 8c35 873b 75b7 9015 d138
00000110: 118c beb8 d312 17b9 0942 1035 71c5 2e39
00000120: 1ec3 0e38 0f87 5c36 0254 4ab8 d87f dd36
00000130: 159c 22b5 cad7 9b38 be60 34b9 4e34 a5b7
00000140: 9830 3f38 4cc2 3938 dc2d 9b38 6ff5 b1b8
00000150: b9dd 4738 bb58 7b38 f231 25b9 8794 92b5
00000160: 6c5c 1938 f31d 2136 d6d5 3237 9a6b 82b9
00000170: bc1b 35b8 22ec 89b8 d3a0 a9b8 5d7d d038
00000180: 5ef8 9cb8 52fb 2239 bf34 473c 8a7c 0dbc
00000190: 7bd5 d33a 82ab b73b ef23 4d38 d21e 4dbc
000001a0: 6236 eeba 8262 cf39 5e6c f2ba 78a7 43bc
000001b0: c65e aab8 37f1 c9bb 71f2 0a3c cf36 b03a
000001c0: ef0c 5bbb 5a2b a1bb 6cd1 8ebb d458 693b
000001d0: 98e6 6a3b 7d75 28bc 0933 363c 6fe1 efb8
000001e0: 3648 45bb ace3 a639 4feb 8bbb 3674 823c
000001f0: bbfb 613b 7983 1a3c 9ea0 003c db86 1dbb
00000200: 7134 40bb 32df 9ab8 bdb5 d33c f0ba 54bd
00000210: ff4e 0d3d bdd5 773d f7a4 3fb8 dbb7 b4bd
00000220: d92e 81bc caf1 41b9 31cc 38bc 4a86 4fbd
00000230: 049e 8a38 db66 48bd 76a2 b23d 6506 103c
00000240: 65ab 41bc b632 d1bc ba0b 0cbd 4d99 9e3c
00000250: 2326 8f3c beeb 3ebd 2150 b63d 59ac 7938
00000260: 1983 abbc 0a4b 85b8 428a aeba ee75 ef3d
00000270: a005 c73c 2635 343d 7845 3b3d 09e9 5bbd
00000280: 8d66 7435 c0ec c733 24f5 ceb7 d65f 5734
00000290: 859c c435 6258 e137 6854 b033 7516 10b8
000002a0: 27ae 1237 7d05 9035 1d8b 3137 98c8 b038
000002b0: 07bb 21b4 6383 d2b7 10b5 1538 2cd4 f0b6
000002c0: 83b3 fc37 0d8b 5e37 050e c735 54f8 02b7
000002d0: b4aa 31b7 b93f 0538 e546 3f38 7e1d 1432
000002e0: 3a82 4137 a064 2d35 dd71 4338 b9dc 9838
000002f0: 1662 4cb7 f372 66b6 57d3 6bb6 f5e3 49b8
00000300: a58c c0bb 75e1 a1b7 065f 3abc cd05 1bbb
00000310: fbf5 9d3c 8362 bf3c f628 8cb7 9c1c 91bc
00000320: 51e1 91bb 1131 37b8 0a13 7cb9 a7d2 ed39
00000330: 621b 3637 05dd 64bc 9dd1 d83c 5f74 6d3b
00000340: 0184 1a3c a236 e63a adb6 d5bb e95b 1abb
00000350: 37d3 9039 1a0c 373a 40a2 e83c b1b2 a237
00000360: c4ef 8dba dd82 ecb7 90b7 4c3c 6cc7 2d3d
00000370: cbe5 a739 80dd 59bb 3cd9 2f3c 3d87 33bc
00000380: 3e45 4dbc 487c 03b9 7f00 893c 516b a5bd
00000390: e32c ad3d c2c9 033e 00d7 f5b7 f33f 23be
000003a0: 7d91 f3bc ca75 7fb9 0293 06bd ca93 a6bb
000003b0: d7cc 4237 6b34 bfbd 9e62 353e 9995 9d3c
000003c0: 1763 013d 6549 1dbd c627 68bd ba55 393c
000003d0: 8953 4f3d 3faf 01bd 2e27 0e3e a838 80b7
000003e0: c9b8 f8bc 0b3c c0b8 b7fe 813d dce3 8f3e
000003f0: 12b4 083d 1479 893d 802f 8c3d 4312 acbd

fno_blocks.fno_skips.1.conv.weight f4 [32, 32, 1]
-5.9175e-41 -5.0438e-41 3.2444197e-10 5.3992e-41 -5.4892e-41 -5.2892e-41 -5.3939e-41 -5.4162e-41
5.4543e-41 4.9551e-41 5.2282e-41 5.5788e-41 5.1882e-41 5.1697e-41 -5.7254e-41 5.226e-41
8.899163e-33 5.1747e-41 -5.461e-41 -5.1453e-41 -5.3933e-41 5.2484e-41 -1.727994e-08 -4.9771e-41
4.9613e-41 -5.2434e-41 5.2338e-41 -1.3201439e-08 -5.0577e-41 5.3654e-41 1.5076082e-10 5.3431943e-09
-5.0329e-41 5.0651e-41 3.8711883e-09 4.9355e-41 -4.9882e-41 4.9463e-41 -4.9595e-41 5.0098e-41
-4.9467e-41 4.9888e-41 5.0836e-41 -4.9141e-41 4.9438e-41 4.936e-41 4.9068e-41 -4.9557e-41
4.9474676e-32 -4.9858e-41 -5.0975e-41 5.107e-41 -4.9148e-41 -4.9494e-41 1.8624002e-08 -5.0881e-41
5.0372e-41 5.0448e-41 -5.1735e-41 2.9744784e-08 -4.952e-41 -5.0884e-41 1.0231722e-09 1.9643856e-08
5.3279e-41 -5.9321e-41 2.0646422e-09 -5.4212e-41 5.3723e-41 5.2919e-41 3.4997e-41 -5.0458e-41
5.1544e-41 -5.0469e-41 4.9076e-41 -5.5472e-41 -4.9174e-41 4.9173e-41 3.9804e-41 5.488e-41
-1.9171747e-33 -5.1018e-41 5.003e-41 -5.2392e-41 -6.246e-41 5.0209e-41 2.759569e-09 5.0433e-41
-5.016e-41 -6.2948e-41 5.1942e-41 -2.2881805e-09 5.1115e-41 -4.9069e-41 1.0647125e-09 1.6011138e-09
4.9184e-41 3.7052e-41 4.610712e-11 -5.3685e-41 -5.5606e-41 5.0399e-41 -5.3385e-41 5.5075e-41
5.1373e-41 5.225e-41 5.1877e-41 -5.6856e-41 -4.958e-41 5.3567e-41 -5.1894e-41 6.0742e-41
6.011888e-34 -5.0762e-41 5.179e-41 -4.9113e-41 -5.024e-41 -5.6044e-41 5.314777e-10 5.8116e-41
5.1465e-41 -5.1593e-41 5.4986e-41 6.204421e-10 5.3472e-41 4.9972e-41 1.6202607e-11 -3.6196995e-10
-4.9254e-41 -4.947e-41 -3.346178e-07 5.015e-41 -4.9707e-41 4.9309e-41 -5.076e-41 -4.9292e-41
-5.7862e-41 -5.0375e-41 -5.734e-42 -4.3264e-41 4.9131e-41 -4.9163e-41 4.9249e-41 -5.059e-41
-4.327795e-30 4.9204e-41 -4.9965e-41 -4.9236e-41 -4.9987e-41 4.9467e-41 -1.5917636e-06 -5.0001e-41
-4.9141e-41 -4.9425e-41 5.0817e-41 -2.769769e-06 -4.941e-41 -4.9787e-41 -2.9308186e-08 -1.9750212e-06
5.1897e-41 5.0608e-41 -3.7083666e-07 5.5445e-41 9.35e-42 -5.0316e-41 -1.3493e-41 -4.9216e-41
-4.9312e-41 4.9854e-41 -5.1419e-41 -4.9502e-41 -5.1833e-41 -4.9438e-41 -5.3699e-41 -5.384e-41
-2.027704e-30 -5.1437e-41 1.5975e-41 5.0033e-41 4.9577e-41 -4.977e-41 1.2821263e-06 5.1255e-41
-5.1454e-41 4.9654e-41 -5.2868e-41 1.7399154e-06 -5.2993e-41 5.1028e-41 -2.6077157e-07 -1.0837921e-06
4.9404e-41 5.3444e-41 7.2247865e-08 -5.5588e-41 5.3813e-41 -5.0734e-41 5.2201e-41 -4.9495e-41
-4.909e-41 -4.9225e-41 5.02e-41 -5.592e-41 -5.2078e-41 5.0926e-41 5.1786e-41 5.14e-41
5.0552924e-31 -5.2357e-41 -5.6889e-41 -5.1995e-41 4.9123e-41 -4.9781e-41 -2.0145315e-07 -5.0941e-41
-5.3346e-41 4.9326e-41 4.0451e-41 -3.2435378e-07 -5.3869e-41 5.0112e-41 5.0700844e-08 2.3486666e-07
5.1642e-41 5.0332e-41 5.9124946e-14 5.2025e-41 5.5836e-41 -3.567e-41 5.306e-41 6.0697e-41
-5.1226e-41 -5.3289e-41 -5.7516e-41 -6.2146e-41 -5.1744e-41 -5.8314e-41 4.9116e-41 -4.9942e-41
5.1743674e-36 -5.2295e-41 -5.5214e-41 -5.705e-42 5.3425e-41 -5.4239e-41 -1.06619744e-13 5.6715e-41
-6.2962e-41 -5.2651e-41 4.7388e-41 -4.086225e-13 5.6556e-41 5.2779e-41 1.14891e-14 2.2398617e-13
00000000: f5a4 0080 9a8c 0080 265d b22f 8296 0000
00000010: 0499 0080 7193 0080 5c96 0080 fb96 0080
00000020: 0b98 0000 218a 0000 be91 0000 849b 0000
00000030: a090 0000 1c90 0000 9a9f 0080 ae91 0000
00000040: 11d4 380a 4090 0000 3b98 0080 6e8f 0080
00000050: 5896 0080 4e92 0000 fd6e 94b2 be8a 0080
00000060: 4d8a 0000 2a92 0080 e691 0000 8bcc 62b2
00000070: fd8c 0080 9195 0000 66c3 252f 3c97 b731
00000080: 4c8c 0080 328d 0000 5503 8531 9589 0000
00000090: 0d8b 0080 e289 0000 408a 0080 a78b 0000
000000a0: e589 0080 118b 0000 b68d 0000 fc88 0080
000000b0: d089 0000 9889 0000 c888 0000 258a 0080
000000c0: 9071 800b fc8a 0080 198e 0080 5d8e 0000
000000d0: 0189 0080 f889 0080 9dfa 9f32 d68d 0080
000000e0: 6b8c 0000 a18c 0000 3790 0080 7981 ff32
000000f0: 0b8a 0080 d88d 0080 ac9f 8c30 4cbd a832
00000100: 8594 0000 5da5 0080 92e1 0d31 1f97 0080
00000110: c295 0000 8493 0000 8f61 0000 a88c 0080
00000120: af8f 0000 b08c 0080 ce88 0000 a29a 0080
00000130: 1489 0080 1389 0000 f56e 0000 fc98 0000
00000140: cc45 1f89 388e 0080 778b 0000 0c92 0080
00000150: 1dae 0080 f68b 0000 daa2 3d31 968c 0000
00000160: d38b 0080 79af 0080 cb90 0000 193e 1db1
00000170: 7d8e 0000 c988 0080 3e55 9230 2f0e dc30
00000180: 1b89 0000 4967 0000 01c8 4a2e a795 0080
00000190: 029b 0080 7e8c 0000 d194 0080 8799 0000
000001a0: 358f 0000 a791 0000 9d90 0000 7e9e 0080
000001b0: 358a 0080 5395 0000 a990 0080 53a9 0000
000001c0: 7dc7 4708 818d 0080 5f90 0000 e888 0080
000001d0: 0c8c 0080 3a9c 0080 6b17 1230 01a2 0000
000001e0: 778f 0000 d28f 0080 4799 0000 bb8b 2a30
000001f0: 0f95 0000 4d8b 0000 0785 8e2d befe c6af
00000200: 4d89 0080 e789 0080 85a5 b3b4 cc8b 0000
00000210: 908a 0080 7489 0000 808d 0080 6889 0080
00000220: 4ca1 0080 6d8c 0080 fc0f 0080 9a78 0080
00000230: f588 0000 0c89 0080 4989 0000 068d 0080
00000240: 658e af8e 2989 0000 488b 0080 4089 0080
00000250: 588b 0080 e589 0000 95a4 d5b5 628b 0080
00000260: fc88 0080 c789 0080 a88d 0000 45e0 39b6
00000270: bc89 0080 c98a 0080 62c1 fbb2 9b8a 04b6
00000280: ab90 0000 138d 0000 6717 c7b4 8f9a 0000
00000290: 101a 0000 438c 0080 9d25 0080 3289 0080
000002a0: 7689 0080 f98a 0000 568f 0080 fe89 0080
000002b0: 7d90 0080 d089 0080 b195 0080 1696 0080
000002c0: c481 248e 638f 0080 882c 0000 798b 0000
000002d0: 338a 0000 bd8a 0080 8615 ac35 e18e 0000
000002e0: 6f8f 0080 6a8a 0000 6093 0080 0a87 e935
000002f0: b993 0080 3f8e 0000 2c00 8cb4 d076 91b5
00000300: b889 0000 fb94 0000 af26 9b33 f59a 0080
00000310: 0296 0000 6d8d 0080 8491 0000 f989 0080
00000320: d888 0080 3889 0080 f08b 0000 e29b 0080
00000330: 2c91 0080 f68d 0000 5c90 0000 488f 0000
00000340: ba0d 240d f391 0080 959e 0080 f190 0080
00000350: ef88 0000 c58a 0080 054f 58b4 018e 0080
00000360: b594 0080 8089 0000 c370 0000 d822 aeb4
00000370: 2a96 0080 b18b 0000 2bc2 5933 a82f 7c34
00000380: f58f 0000 4e8c 0000 3623 8529 0691 0000
00000390: a69b 0000 6f63 0080 e993 0000 33a9 0000
000003a0: cc8e 0080 8c94 0080 55a0 0080 3dad 0080
000003b0: 3e90 0080 8ea2 0080 ea88 0000 388b 0080
000003c0: df17 dc04 c791 0080 ea99 0080 e70f 0080
000003d0: ed94 0000 3297 0080 1916 f0a9 199e 0000
000003e0: 83af 0080 c592 0080 1984 0000 b508 e6aa
000003f0: a89d 0000 2093 0000 1ff8 4e28 9e2f 7c2a

fno_blocks.fno_skips.2.conv.weight f4 [32, 32, 1]
4.9456e-41 4.9708e-41 -7.2617404e-05 -5.0375e-41 5.0462e-41 4.9329e-41 5.0779e-41 4.9934e-41
-4.9307e-41 4.9289e-41 4.9083e-41 -5.0176e-41 5.414e-41 5.0032e-41 5.2617e-41 5.1066e-41
1.0238401e-05 -4.958e-41 -5.5114e-41 -4.9145e-41 -4.9144e-41 6.2307e-41 -0.000120051314 4.948e-41
-4.9476e-41 4.9337e-41 -5.3186e-41 0.0003072432 5.0098e-41 4.9467e-41 1.1615731e-05 1.5910038e-05
-4.9435e-41 4.9379e-41 4.7302516e-25 -5.8263e-41 -5.0779e-41 -4.9383e-41 5.0193e-41 -4.9689e-41
-4.9054e-41 -5.1031e-41 5.0183e-41 5.1149e-41 -3.4175e-41 -4.9378e-41 -5.041e-41 5.1423e-41
2.0041917e-25 5.058e-41 -5.2472e-41 -4.9949e-41 5.0427e-41 -5.0416e-41 -1.7029728e-24 -4.9722e-41
-5.7085e-41 -5.0346e-41 -5.111e-41 -1.0320764e-23 5.2487e-41 -4.9742e-41 1.1585743e-24 4.35728e-24
-4.9976e-41 -5.0024e-41 -4.842927e-17 5.6321e-41 5.1715e-41 5.0971e-41 5.9044e-41 -4.9784e-41
4.9099e-41 5.1807e-41 -4.9589e-41 -5.1767e-41 -5.5525e-41 -4.9324e-41 5.3495e-41 5.6838e-41
-4.35785e-17 -5.1458e-41 2.2784e-41 5.0408e-41 5.3559e-41 -5.8246e-41 -3.30523e-16 5.0155e-41
-5.4813e-41 4.9181e-41 6.184e-41 5.3223385e-17 5.667e-41 -5.0853e-41 -3.9011452e-17 -6.401932e-17
4.9216e-41 -4.9277e-41 6.937555e-08 -5.7396e-41 -9.548e-42 5.038e-41 -4.9488e-41 5.2882e-41
4.933e-41 5.0585e-41 -5.0258e-41 5.2992e-41 5.7677e-41 -5.0742e-41 5.7998e-41 5.7052e-41
6.7164066e-08 -4.9124e-41 -5.5116e-41 -4.924e-41 5.3925e-41 5.0158e-41 1.2086657e-06 5.1108e-41
5.809e-41 5.1386e-41 -5.7515e-41 -1.2041987e-05 5.0934e-41 5.0555e-41 3.29315e-08 3.781659e-07
5.2048e-41 4.9083e-41 6.199384e-08 6.2474e-41 -6.0488e-41 5.6139e-41 -5.1484e-41 -4.9745e-41
-4.9179e-41 -4.9787e-41 4.9739e-41 5.5337e-41 5.8595e-41 4.9815e-41 -4.982e-41 6.0701e-41
1.582558e-08 -5.1353e-41 5.2036e-41 5.078e-41 5.6783e-41 5.7631e-41 2.6420187e-07 5.1261e-41
-5.5564e-41 -6.3004e-41 -5.8381e-41 -8.6782585e-08 4.9523e-41 5.6314e-41 -4.575519e-08 1.3715822e-07
4.9389e-41 -4.9705e-41 -4.6255416e-10 5.0347e-41 5.074e-41 -4.905e-41 -6.0187e-41 4.5025e-41
4.9492e-41 -5.376e-41 4.9386e-41 -5.0258e-41 5.2303e-41 4.984e-41 5.0096e-41 -5.1304e-41
-3.6924033e-11 -5.0213e-41 -5.1763e-41 -4.9085e-41 5.1149e-41 -5.806e-41 -5.6502997e-10 -4.9973e-41
4.9411e-41 4.906e-41 -5.2882e-41 1.1035889e-09 -5.2536e-41 -5.1084e-41 -7.322131e-11 -3.3465022e-10
-4.9343e-41 4.9418e-41 -0.00024452232 -4.5441e-41 -4.9969e-41 5.077e-41 5.1286e-41 -4.9085e-41
-6.2623e-41 5.1523e-41 5.0811e-41 5.1395e-41 -5.0085e-41 -4.9179e-41 5.013e-41 -4.9875e-41
4.226979e-05 5.6027e-41 5.0825e-41 -4.9216e-41 5.0412e-41 4.9522e-41 -0.00012786694 -5.0088e-41
-5.1872e-41 5.3238e-41 -5.1461e-41 0.0010966227 -5.0686e-41 4.9242e-41 3.8575257e-05 1.5937074e-05
-5.1659e-41 -5.1171e-41 -8.721861e-05 4.9132e-41 -6.022e-41 -5.4082e-41 5.2882e-41 -5.297e-41
6.1794e-41 -5.8047e-41 -5.0733e-41 4.9998e-41 4.9812e-41 -5.3185e-41 -5.0979e-41 -5.013e-41
1.6837452e-06 -5.3552e-41 5.2344e-41 -4.9968e-41 2.1688e-41 -6.0027e-41 -9.8286386e-05 5.064e-41
-5.0758e-41 5.5574e-41 6.0358e-41 0.0002669299 -5.8545e-41 -4.9193e-41 7.549088e-06 -1.1663877e-05
00000000: dd89 0000 918a 0000 2c4a 98b8 6d8c 0080
00000010: ab8c 0000 8289 0000 8d8d 0000 328b 0000
00000020: 7389 0080 6689 0000 d388 0000 df8b 0080
00000030: ec96 0000 788b 0000 ad92 0000 5a8e 0000
00000040: 99c5 2b37 358a 0080 a399 0080 ff88 0080
00000050: fe88 0080 b0ad 0000 0fc4 fbb8 ee89 0000
00000060: eb89 0080 8889 0000 4394 0080 7c15 a139
00000070: a78b 0000 e589 0000 2fe1 4237 8c76 8537
00000080: ce89 0080 a689 0000 ea64 1217 6aa2 0080
00000090: 8d8d 0080 a989 0080 eb8b 0000 838a 0080
000000a0: be88 0080 418e 0080 e48b 0000 958e 0000
000000b0: 445f 0080 a589 0080 868c 0080 598f 0000
000000c0: 5f1b 7816 ff8c 0000 4592 0080 3d8b 0080
000000d0: 928c 0000 8a8c 0080 dac2 0398 9b8a 0080
000000e0: 219f 0080 588c 0080 798e 0080 f3a1 4799
000000f0: 5092 0000 a98a 0080 db47 b317 6990 a818
00000100: 508b 0080 728b 0080 3157 5fa4 009d 0000
00000110: 2990 0000 168e 0000 97a4 0000 c78a 0080
00000120: de88 0000 6b90 0000 3c8a 0080 4e90 0080
00000130: c89a 0080 7f89 0080 1f95 0000 719e 0000
00000140: 69f8 48a4 728f 0080 833f 0000 848c 0000
00000150: 4d95 0000 5ea2 0080 9688 bea5 d08b 0000
00000160: cc98 0080 1989 0000 62ac 0000 1573 7524
00000170: f99d 0000 c28d 0080 98e8 33a4 569e 93a4
00000180: 3289 0000 5d89 0080 9dfb 9433 ff9f 0080
00000190: 9e1a 0080 708c 0000 f489 0080 6a93 0000
000001a0: 8389 0000 038d 0000 198c 0080 b893 0000
000001b0: c8a0 0000 738d 0080 ada1 0000 0a9f 0000
000001c0: d63b 9033 f088 0080 a499 0080 4389 0080
000001d0: 5296 0000 d28b 0000 7039 a235 788e 0000
000001e0: eea1 0000 3e8f 0000 54a0 0080 f107 4ab7
000001f0: fc8d 0000 ed8c 0000 9170 0d33 ba06 cb34
00000200: 1791 0000 d388 0000 7921 8533 27ae 0000
00000210: 9ea8 0080 7e9c 0000 848f 0080 ab8a 0080
00000220: 1789 0080 c98a 0080 a78a 0000 429a 0000
00000230: 57a3 0000 dd8a 0000 e18a 0080 36a9 0000
00000240: d2f0 8732 278f 0080 0e91 0000 8e8d 0000
00000250: 4a9e 0000 a7a0 0000 a1d7 8d34 e58e 0000
00000260: e49a 0080 a1af 0080 bea2 0080 3b5d bab3
00000270: 0d8a 0000 fb9c 0000 5d84 44b3 c445 1334
00000280: ad89 0000 8f8a 0080 b64a feaf 598c 0000
00000290: 718d 0000 bb88 0080 c7a7 0080 837d 0000
000002a0: f789 0000 dc95 0080 ab89 0000 198c 0080
000002b0: cd91 0000 ef8a 0000 a68b 0000 048f 0080
000002c0: c464 22ae f98b 0080 4b90 0080 d488 0080
000002d0: 958e 0000 d9a1 0080 7350 1bb0 4e8b 0080
000002e0: bd89 0000 c288 0000 6a93 0080 15ad 9730
000002f0: 7392 0080 678e 0080 ef03 a1ae d5f9 b7af
00000300: 8c89 0080 c289 0000 3b33 80b9 ac7e 0080
00000310: 4b8b 0080 878d 0000 f78e 0000 d488 0080
00000320: 91ae 0080 a08f 0000 a48d 0000 458f 0000
00000330: 9e8b 0080 1789 0080 be8b 0000 088b 0080
00000340: d74a 3138 2e9c 0000 ae8d 0000 3289 0080
00000350: 878c 0000 0c8a 0000 0514 06b9 a08b 0080
00000360: 9990 0080 6894 0000 748f 0080 8dbc 8f3a
00000370: 4b8d 0080 4489 0000 decb 2138 9bb0 8537
00000380: 0190 0080 a58e 0080 22e9 b6b8 f688 0000
00000390: dea7 0080 c296 0080 6a93 0000 a993 0080
000003a0: 42ac 0000 d0a1 0080 6c8d 0080 608b 0000
000003b0: db8a 0000 4294 0080 1c8e 0080 be8b 0080
000003c0: 0bfd e135 4895 0080 ea91 0000 4a8b 0080
000003d0: 753c 0000 55a7 0080 1a1f ceb8 2a8d 0000
000003e0: 7e8d 0080 eb9a 0000 41a8 0000 baf2 8b39
000003f0: 33a3 0080 2189 0080 2c4e fd36 f8af 43b7

fno_blocks.fno_skips.3.conv.weight f4 [32, 32, 1]
4.9146e-41 6.0309e-41 4.655999e-10 -5.9998e-41 1.2977694e-11 -7.821087e-13 5.0826e-41 -5.5654e-41
4.9144e-41 -5.6635e-41 -4.9232e-41 -1.1258992e-19 -1.5787988e-29 -5.2992e-41 -5.178e-41 -5.636e-41
1.369093e-09 5.1775e-41 2.1751954e-09 -4.984e-41 7.130363e-27 3.739284e-10 3.3209198e-09 -1.4798206e-37
3.6538966e-18 5.7945e-41 5.5996e-41 -1.1117552e-08 4.6766185e-11 5.2022e-41 8.786269e-10 2.4680664e-09
-4.9603e-41 -3.238092e-39 -3.1068294e-06 -5.4232e-41 -5.1494645e-08 3.2034948e-09 -5.922e-41 -5.6556e-41
-5.8608e-41 -8.72219e-40 -4.9733e-41 4.417998e-16 5.884159e-26 -5.7375e-41 5.956e-41 -5.6167e-41
-5.2821492e-06 -5.146e-41 -8.290837e-06 -5.1674e-41 -3.8750403e-23 -1.6095598e-06 -7.948617e-06 5.8091783e-34
-1.4382091e-14 -5.0386e-41 -5.4216e-41 2.0402787e-05 -1.7852457e-07 -5.3052e-41 -2.5105533e-06 -1.12126e-05
-5.0649e-41 -1.5466e-41 -3.4303167e-08 5.2561e-41 -8.0449376e-11 -3.5148422e-11 -5.9628e-41 5.385e-41
-5.0751e-41 4.9509e-41 5.2303e-41 9.790953e-19 -4.461548e-29 5.2333e-41 5.3069e-41 5.5732e-41
6.8766054e-10 5.2277e-41 -2.4724276e-08 5.175e-41 1.8248364e-24 4.3229567e-10 -3.8403222e-08 -4.7497068e-36
-3.100633e-17 5.3307e-41 -5.4861e-41 -1.3924708e-07 -2.6834115e-10 5.092e-41 1.2920129e-08 -3.3614267e-08
5.0468e-41 -5.3754e-41 -1.7835171e-09 -5.6327e-41 -3.406451e-11 1.6449437e-12 -6.1416e-41 -5.1494e-41
4.9668e-41 -5.0543e-41 -5.124e-41 3.0805997e-19 3.9718327e-29 -4.9453e-41 -5.7079e-41 -5.6158e-41
-3.4168037e-09 -5.2329e-41 -5.850191e-09 -4.955e-41 2.0294215e-27 -1.0219801e-09 -8.628669e-09 3.220344e-37
-1.00460275e-17 4.5709e-41 -5.782e-42 2.0954177e-08 -1.2459266e-10 5.1e-41 -1.8453177e-09 -6.6073422e-09
-5.0494e-41 -5.205e-41 -1.0523123e-09 -5.5543e-41 -2.095408e-11 6.957249e-13 -5.5821e-41 -6.128e-41
4.9874e-41 -5.5975e-41 -4.9471e-41 1.8162944e-19 2.5057546e-29 5.087e-42 5.606e-41 -6.1996e-41
-2.1240487e-09 5.6192e-41 -3.7508268e-09 -4.9934e-41 1.5762794e-26 -5.310048e-10 -9.122742e-09 1.5940041e-37
-5.8670337e-18 -5.0291e-41 -5.2064e-41 2.4055996e-08 -7.372842e-11 -5.1994e-41 -1.429306e-09 -2.1926982e-09
-4.9054e-41 -5.32e-41 -1.7750665e-10 -5.3761e-41 -2.326288e-12 3.9369393e-14 5.154e-41 -5.8835e-41
4.9093e-41 -5.2032e-41 -5.0997e-41 1.9446564e-20 2.9746588e-30 5.0832e-41 -5.375e-41 -6.1084e-41
-2.7881739e-10 1.977e-42 -4.7630955e-10 5.1268e-41 4.2018333e-27 -7.0183824e-11 -2.59036e-09 1.481654e-38
-6.2237447e-19 -4.987e-41 -5.2935e-41 8.705049e-09 -8.327109e-12 5.1251e-41 -2.281849e-10 -1.3443424e-10
-5.0375e-41 1.66763e-40 1.3842846e-07 -4.9382e-41 7.724471e-10 9.2691306e-11 5.1634e-41 -6.1844e-41
4.9099e-41 -6.3732e-41 5.0073e-41 -7.039447e-18 -4.820424e-28 5.0651e-41 -5.2605e-41 -5.3126e-41
2.9406433e-08 -5.0443e-41 1.4438233e-07 5.1059e-41 -6.164589e-24 1.5819786e-08 2.1707213e-07 1.1038006e-35
2.254799e-16 -5.1436e-41 5.0457e-41 -1.5054266e-07 2.7201146e-09 -5.0036e-41 -4.2060822e-08 1.5590703e-07
-4.9827e-41 1.036818e-39 1.0552974e-06 6.054e-41 4.5622395e-09 4.4310838e-10 5.2497e-41 -5.9771e-41
4.9784e-41 -1.58815e-40 -5.0932e-41 -4.3035378e-17 -2.9515044e-27 4.9078e-41 6.2334e-41 5.055e-41
1.14979265e-07 3.9362e-41 7.433464e-07 6.2809e-41 -3.0958477e-23 1.1782597e-07 2.304875e-06 4.948958e-35
1.3827982e-15 -5.2776e-41 5.3085e-41 -2.476393e-06 1.6348723e-08 -5.0782e-41 -1.6247526e-07 6.655546e-07
00000000: 0089 0000 1ea8 0000 5cf7 ff2f 40a7 0080
00000010: 564e 642d df24 5cab af8d 0000 249b 0080
00000020: fe88 0000 e09d 0080 3d89 0080 37ec 04a0
00000030: f61b a08f b893 0080 5790 0080 1c9d 0080
00000040: ad2a bc30 5490 0000 717a 1531 ef8a 0080
00000050: 3c3b 0d14 be91 cd2f 3d36 6431 396c 4982
00000060: 14ce 8622 87a1 0000 189c 0000 83ff 3eb2
00000070: 0bae 4d2e 0491 0000 df83 7130 af9a 2931
00000080: 468a 0080 7c42 2380 ec7e 50b6 2d97 0080
00000090: f62a 5db3 7a24 5c31 15a5 0080 a89d 0080
000000a0: 60a3 0080 647f 0980 a38a 0080 25ae fe25
000000b0: 4aaf 9115 f09f 0080 07a6 0000 929c 0080
000000c0: 513d b1b6 738f 0080 e018 0bb7 0c90 0080
000000d0: ad62 3b9a 0e08 d8b5 0d5b 05b7 060b 4108
000000e0: d88a 81a8 758c 0080 2297 0080 a726 ab37
000000f0: 76b0 3fb4 e393 0080 fa7a 28b6 c01d 3cb7
00000100: 308d 0080 1d2b 0080 bb54 13b3 8592 0000
00000110: f9e8 b0ae 9b95 1aae 38a6 0080 1d96 0000
00000120: 798d 0080 038a 0000 cd91 0000 2d7d 9021
00000130: 343a 6290 e291 0000 ef93 0000 5c9b 0000
00000140: cf05 3d30 ba91 0000 4261 d4b2 4290 0000
00000150: 9c30 0d18 35a8 ed2f caf0 24b3 ba07 ca84
00000160: d0fd 0ea4 9994 0000 ee98 0080 f283 15b4
00000170: a985 93af f28d 0000 54f7 5d32 475f 10b3
00000180: af8c 0000 d895 0080 ee1f f5b0 049d 0080
00000190: 3bd1 15ae 5881 e72b 34ab 0080 8b8f 0080
000001a0: 748a 0000 e58c 0080 d68e 0080 b5d8 b520
000001b0: 5665 4910 db89 0080 1d9f 0080 8c9c 0080
000001c0: 0ccd 6ab1 df91 0080 d302 c9b1 208a 0080
000001d0: 8fc9 2013 ba75 8cb0 4a3d 14b2 4e2a db02
000001e0: 0651 39a3 6b7f 0000 1e10 0080 b9fe b332
000001f0: b7fd 08af 2b8e 0000 589e fdb0 cc06 e3b1
00000200: c28c 0080 1891 0080 f3a0 90b0 d59a 0080
00000210: 6550 b8ad 43d4 432b 9b9b 0080 d3aa 0080
00000220: 078b 0000 099c 0080 e889 0080 216e 5620
00000230: 1c1d fe0f 2e0e 0000 469c 0000 d2ac 0080
00000240: a9f6 11b1 a49c 0000 9fe0 80b1 328b 0080
00000250: 6e1b 9c14 24f6 11b0 3eba 1cb2 f0f6 5802
00000260: 9174 d8a2 318c 0080 2291 0080 b2a3 ce32
00000270: 6921 a2ae f090 0080 3c71 c4b0 5bae 16b1
00000280: be88 0080 4d94 0080 ae2b 43af dd95 0080
00000290: aeb2 23ac d24d 3129 ac8f 0000 02a4 0080
000002a0: da88 0000 0b91 0080 298e 0080 e8aa b71e
000002b0: 3f55 710e b38d 0000 d595 0080 47aa 0080
000002c0: 0f48 99af 8305 0000 4eed 02b0 ea8e 0000
000002d0: a773 a613 fb55 9aae 1802 32b1 7c56 a100
000002e0: 49b1 37a1 048b 0080 9093 0080 368d 1532
000002f0: f77d 12ad de8e 0000 57e4 7aaf e0cf 13af
00000300: 6d8c 0080 ded0 0100 eda2 1434 a889 0080
00000310: 2254 5430 91d4 cb2e ef8f 0000 65ac 0080
00000320: de88 0000 a9b1 0080 958b 0000 d9da 01a3
00000330: edc3 1892 328d 0000 a492 0080 1894 0080
00000340: 6e99 fc32 9d8c 0080 8307 1b34 558e 0000
00000350: 227b ee98 14e4 8732 5514 6934 9fc0 6a05
00000360: f6fa 8125 628f 0080 a78c 0000 daa4 21b4
00000370: c3ec 3a31 7b8b 0080 5da6 34b3 6667 2734
00000380: e68a 0080 3a4a 0b00 bea3 8d35 c3a8 0000
00000390: e2c1 9c31 f699 f32f 5792 0000 9ea6 0080
000003a0: c78a 0000 b6ba 0180 fa8d 0080 3577 46a4
000003b0: 9fd7 6993 cf88 0000 c3ad 0000 ea8c 0000
000003c0: 85ea f633 ba6d 0000 608a 4735 16af 0000
000003d0: bdb4 159a 8307 fd33 73ad 1a36 dd90 8306
000003e0: 4048 c726 1e93 0080 fb93 0000 1c30 26b6
000003f0: 396f 8c32 8f8d 0080 dc74 2eb4 90a8 3235

fno_blocks.channel_mlp.0.fcs.0.weight f4 [16, 32, 1]
-3.512975e-05 -0.098134354 -4.7832873e-05 0.05596219 0.19361353 0.00013152361 -0.03960459 0.18713121
0.15025963 -0.012500932 -0.11226951 0.075507134 0.14707072 -0.092214845 0.03650128 -0.101203136
-0.21358003 -0.2068736 0.0063152974 -0.00011405917 -0.0001249953 0.38973066 0.04073784 0.17946672
-0.12536493 0.01985646 -0.08786076 0.028499924 -0.0091940705 0.0324428 0.080413364 -0.082384974
5.2345415e-05 0.020250538 -0.00010718604 0.09788791 0.03864084 7.741415e-05 0.024465846 -0.09970304
-0.017149996 -0.13399957 0.13227884 0.031008793 0.008156075 0.1245786 -0.003112828 0.03960477
-0.02070182 0.035911407 0.009786034 5.875096e-05 6.568032e-05 -0.03742812 -0.018763136 0.033950265
-0.022811458 -0.0063862796 0.047239147 -0.030039554 -0.14294107 -0.0052201133 0.12230595 0.05401775
-3.365773e-05 0.09730041 -0.000457316 -0.009980781 0.111122675 8.878147e-05 0.0798344 0.13082334
0.09209727 0.14290263 0.007946488 0.021671133 0.050173342 0.019429795 0.041162077 0.024385205
-0.14878634 0.1365913 -0.10921166 1.5549119e-06 -2.0457098e-06 0.4163763 -0.06717828 0.061321598
-0.18728285 0.07975794 0.049868383 0.018482935 0.12443769 -0.027656013 -0.0667228 0.10860872
4.292373e-06 -0.03007326 0.00011539747 -0.003364084 -0.045081846 -6.742345e-05 -0.0092843855 0.037858736
0.01440991 0.011175294 -0.026818942 0.004441062 -0.014594493 0.012780997 0.042144515 0.031270944
0.06451214 -0.049423043 -0.14176008 1.0546137e-05 7.079893e-06 0.115208596 0.06469867 0.014958521
0.012697856 -0.0033419847 -0.13963641 0.07218659 0.073012136 -0.027975662 -7.007209e-05 -0.031644054
5.7472073e-05 -0.022978973 0.00023743391 0.07734012 -0.020496242 -0.00020892006 -0.016430914 -0.087685406
-0.07247228 -0.20618293 -0.028335148 -0.009198865 -0.09851621 -0.16707852 -0.022058938 -0.07758657
0.09051495 -0.12370312 -0.065892756 1.7584964e-05 2.8906737e-05 -0.41303 -0.23077404 0.027329804
0.1906426 0.004512075 -0.063492954 0.026564654 -0.066309564 0.12467678 0.08081761 -0.026474344
-6.878537e-05 -0.030707153 -0.00029542096 -0.04983933 -0.12283301 0.00019155514 0.06430561 0.19951956
-0.044124633 0.15825813 -0.0690696 -0.04025884 0.19209024 -0.34761822 0.09148716 0.16381492
-0.040946074 0.13931186 0.111925155 5.1567433e-05 -8.4242265e-06 -0.34731305 0.14755028 -0.0943653
-0.040380348 0.06213214 0.034680426 -0.07184388 0.18092611 -0.06612155 -0.07654807 0.024804158
-7.235838e-05 -0.011977304 -2.4140729e-05 -0.027938178 -0.113817126 -3.3271866e-05 0.01966884 -0.08072734
-0.0006543873 -0.015397418 0.13745375 -0.009990351 -0.17846656 0.16372404 -0.022633389 0.033010628
-0.03301698 0.04463206 0.0037412634 -6.7250396e-05 -4.568459e-05 -0.035896357 0.077956565 -0.008570122
-0.021637248 -0.009532642 -0.031666204 -0.0076482776 -0.05673796 -0.0054775923 -0.087294124 0.028578997
-4.3879678e-05 0.017442087 -0.00024987664 0.01381531 -0.06638517 0.00021920561 0.044928227 0.14787139
-0.026142348 0.21032 -0.045592487 -0.0061668605 0.107502885 -0.22881337 0.01670827 0.10497774
-0.01533791 0.0661397 -0.082934014 1.4266523e-05 -3.6396006e-05 -0.36092198 0.15386733 -0.034440856
0.010863666 0.046507355 0.119936675 -0.029869257 0.1082525 -0.044431172 0.078035526 0.100069605
00000000: 4858 13b8 aafa c8bd 28a0 48b8 9c38 653d
00000010: a042 463e 9ae9 0939 6c38 22bd 539f 3f3e
00000020: a9dd 193e b6d0 4cbc 8fed e5bd 7ca3 9a3d
00000030: b599 163e 23db bcbd 5e82 153d 9743 cfbd
00000040: b9b4 5abe acd6 53be 8ef0 ce3b 0d33 efb8
00000050: 2c11 03b9 c78a c73e b9dc 263d 20c6 373e
00000060: aa5f 00be 04aa a23c 58f0 b3bd ac78 e93c
00000070: baa2 16bc bee2 043d c3af a43d 74b9 a8bd
00000080: 768d 5b38 75e4 a53c 11c9 e0b8 7579 c83d
00000090: dc45 1e3d 6859 a238 996c c83c 1c31 ccbd
000000a0: 267e 8cbc 2f37 09be 1b74 073e 2706 fe3c
000000b0: 0fa1 053c 1123 ff3d 9600 4cbb 9c38 223d
000000c0: dd96 a9bc d717 133d 9a55 203c 5d6b 7638
000000d0: dabd 8938 3a4e 19bd 26b5 99bc 6f0f 0b3d
000000e0: 18df babc ff43 d1bb d67d 413d 8315 f6bc
000000f0: 255f 12be 7c0d abbb 8b7b fa3d b741 5d3d
00000100: b62b 0db8 7045 c73d eac3 efb9 6e86 23bc
00000110: 4994 e33d 3030 ba38 3880 a33d 8ef6 053e
00000120: 7e9d bc3d 1155 123e fd31 023c a987 b13c
00000130: 9082 4d3d 3c2b 9f3c 9199 283d 7bc3 c73c
00000140: 725b 18be 97de 0b3e 5daa dfbd 5eb2 d035
00000150: 0749 09b6 462f d53e c494 89bd 5b2c 7b3d
00000160: 13c7 3fbe 2158 a33d ca42 4c3d 8669 973c
00000170: 30d9 fe3d dd8e e2bc f7a5 88bd 406e de3d
00000180: 3407 9036 335c f6bc 8c01 f238 f777 5cbb
00000190: bea7 38bd b065 8db8 891d 18bc c311 1b3d
000001a0: 8b17 6c3c 9518 373c 66b3 dbbc 5486 913b
000001b0: be1d 6fbc 6367 513c ba9f 2c3d f615 003d
000001c0: f11e 843d d16f 4abd 8e29 11be 50ef 3037
000001d0: d18f ed36 7cf2 eb3d bc80 843d 9614 753c
000001e0: ab0a 503c 3305 5bbb d9fc 0ebe 90d6 933d
000001f0: 6387 953d 372d e5bc abf3 92b8 329d 01bd
00000200: 2b0e 7138 663e bcbc aef7 7839 7f64 9e3d
00000210: bce7 a7bc 8d11 5bb9 209a 86bc 6894 b3bd
00000220: 596c 94bd 9e21 53be 1d1f e8bc d6b6 16bc
00000230: dec2 c9bd a216 2bbe f2b4 b4bc b5e5 9ebd
00000240: e75f b93d 1058 fdbd c8f2 86bd 6c83 9337
00000250: bf7c f237 ab78 d3be 0850 6cbe c1e2 df3c
00000260: d037 433e 07da 933b 9808 82bd 1e9e d93c
00000270: 4fcd 87bd 8a56 ff3d b483 a53d b9e0 d8bc
00000280: dd40 90b8 918d fbbc bbe2 9ab9 5324 4cbd
00000290: e08f fbbd 31dc 4839 a9b2 833d db4e 4c3e
000002a0: 08bc 34bd 6b0e 223e 5d74 8dbd 74e6 24bd
000002b0: 4eb3 443e 04fb b1be 9f5d bb3d 19bf 273e
000002c0: 12b7 27bd c5a7 0e3e 0439 e53d 1c4a 5838
000002d0: c755 0db7 04d3 b1be 6c17 173e 9842 c1bd
000002e0: dd65 25bd 457e 7e3d 100d 0e3d e222 93bd
000002f0: b244 393e bc6a 87bd 3cc5 9cbd 1732 cb3c
00000300: 1cbf 97b8 743c 44bc d281 cab7 9bde e4bc
00000310: f418 e9bd 658d 0bb8 8c20 a13c 6054 a5bd
00000320: 308b 2bba 7445 7cbc adc0 0c3e 92ae 23bc
00000330: f0bf 36be 46a7 273e a869 b9bc 2736 073d
00000340: d03c 07bd 1bd0 363d fc2f 753b c808 8db8
00000350: 749d 3fb8 0f08 13bd b1a7 9f3d b269 0cbc
00000360: 9940 b1bc cc2e 1cbc 6cb4 01bd 679e fabb
00000370: 1066 68bd 607d b3bb 43c7 b2bd 801e ea3c
00000380: 720b 38b8 b5e2 8e3c e001 83b9 9c59 623c
00000390: f3f4 87bd 8fda 6539 a906 383d 996b 173e
000003a0: 7a28 d6bc 205e 573e 30bf 3abd 6013 cabb
000003b0: 792a dc3d 0d4e 6abe c8df 883c 92fe d63d
000003c0: db4b 7bbc 4074 873d 4fd9 a9bd 405a 6f37
000003d0: eaa7 18b8 c4ca b8be 668f 1d3e db11 0dbd
000003e0: 85fd 313c 7f7e 3e3d 5ca1 f53d 5fb0 f4bc
000003f0: 7db3 dd3d 76fd 35bd 17d1 9f3d 4bf1 cc3d

fno_blocks.channel_mlp.0.fcs.0.bias f4 [16]
0.08366511 0.11108157 0.021048442 -0.089281745 0.040076025 0.06378215 -0.09332781 -0.03884577
-0.061635133 0.05287893 0.08910177 0.09446069 0.21607536 0.09548655 0.043864112 -0.023806978
00000000: 9d58 ab3d bc7e e33d c86d ac3c 59d9 b6bd
00000010: c226 243d 37a0 823d a722 bfbd be1c 1fbd
00000020: 1f75 7cbd 9497 583d fd7a b63d 9b74 c13d
00000030: dc42 5d3e 748e c33d dbaa 333d da06 c3bc

fno_blocks.channel_mlp.0.fcs.1.weight f4 [32, 16, 1]
-5.3888e-41 4.9467e-41 -5.0504e-41 4.917e-41 5.2186e-41 4.915e-41 4.9386e-41 2.794e-42
5.0068e-41 -5.1267e-41 5.0639e-41 4.9158e-41 -4.982e-41 -5.1084e-41 -4.913e-41 4.9061e-41
4.9658e-41 -4.9614e-41 4.9917e-41 -4.9457e-41 -4.9991e-41 -4.9691e-41 4.9163e-41 -4.9722e-41
4.9605e-41 -5.1774e-41 5.1252e-41 4.9406e-41 -4.9389e-41 -4.982e-41 4.916e-41 4.9107e-41
0.017258983 -0.005459402 0.0057839486 -0.0136513105 -0.013234947 -0.026482021 -0.0025772285 -0.033246472
-0.0015602773 -0.0066087632 -0.034919437 -0.04508567 0.1710135 0.038497616 -0.004144982 -0.001447834
-5.0581e-41 -3.9026e-41 5.0119e-41 -4.9471e-41 -5.253e-41 -4.9137e-41 -4.9165e-41 4.932e-41
-5.0476e-41 -5.0082e-41 -4.9322e-41 -4.9659e-41 4.9076e-41 4.9613e-41 4.9167e-41 5.8591e-41
4.9467e-41 5.0647e-41 4.9106e-41 4.9638e-41 5.0563e-41 -4.9392e-41 4.9333e-41 4.9679e-41
4.9132e-41 5.1097e-41 -4.986e-41 4.9114e-41 -4.9127e-41 4.9051e-41 4.963e-41 5.0061e-41
-5.0032e-41 4.9715e-41 -4.9379e-41 4.9131e-41 -5.0358e-41 -4.922e-41 4.9386e-41 -4.9399e-41
-4.993e-41 -4.9975e-41 -4.9362e-41 -5.1087e-41 4.9309e-41 2.8634e-41 5.0074e-41 -5.0553e-41
-4.917e-41 -4.9272e-41 5.0358e-41 -4.9806e-41 -5.0455e-41 4.9288e-41 4.9655e-41 4.938e-41
-4.9352e-41 -4.989e-41 -6.2767e-41 5.0349e-41 -4.9295e-41 4.908e-41 -4.939e-41 -4.9344e-41
-5.0298e-41 -4.9249e-41 5.1533e-41 -4.979e-41 4.9907e-41 -4.9295e-41 -4.906e-41 4.9218e-41
-4.9652e-41 4.9554e-41 -4.9478e-41 -5.1985e-41 -4.961e-41 -4.9659e-41 4.9204e-41 4.9086e-41
5.081e-41 -5.0115e-41 -5.1579e-41 4.987e-41 -5.1108e-41 4.929e-41 -5.2397e-41 -5.435e-41
-5.1524e-41 5.38e-41 5.2452e-41 5.3244e-41 5.0804e-41 -4.9665e-41 5.0644e-41 -5.2992e-41
-4.9652e-41 -4.9099e-41 5.0724e-41 -4.9281e-41 -4.947e-41 -4.9114e-41 4.9418e-41 5.019e-41
-5.1496e-41 4.9662e-41 -5.7862e-41 4.9725e-41 -4.9526e-41 -4.9249e-41 -4.9372e-41 5.0592e-41
-4.9058e-41 -5.0078e-41 4.9155e-41 4.9354e-41 5.2668e-41 5.0293e-41 5.0815e-41 5.1736e-41
5.1184e-41 5.381e-41 2.5267e-41 5.2676e-41 -4.9556e-41 5.0137e-41 4.9851e-41 -5.3081e-41
-4.9177e-41 4.9607e-41 5.0004e-41 -5.1414e-41 -5.5196e-41 -4.9588e-41 -5.878e-41 -4.951e-41
5.2236e-41 -5.4749e-41 4.9767e-41 5.1238e-41 4.9169e-41 -5.0203e-41 4.9222e-41 -5.1716e-41
-4.9357e-41 -4.9066e-41 -4.9515e-41 4.9491e-41 5.5773e-41 4.9418e-41 5.0005e-41 4.9413e-41
-5.002e-41 -4.9893e-41 -4.9415e-41 -4.91e-41 -4.9357e-41 4.9408e-41 -4.9446e-41 -4.9191e-41
-5.0476e-41 -4.979e-41 -5.0997e-41 -4.9827e-41 5.0555e-41 -5.0684e-41 -5.0707e-41 -5.1592e-41
4.967e-41 5.3071e-41 5.5409e-41 -5.0877e-41 5.0218e-41 -4.9669e-41 -5.065e-41 -5.0744e-41
4.9169e-41 -4.9589e-41 -4.9118e-41 -4.9148e-41 -5.1104e-41 -5.2273e-41 5.2466e-41 4.9948e-41
-4.9879e-41 -4.9387e-41 -4.9977e-41 -4.9547e-41 4.9249e-41 4.9662e-41 -4.909e-41 -4.9235e-41
-4.9195e-41 -4.9076e-41 -4.9469e-41 4.913e-41 -5.033e-41 4.9435e-41 4.9745e-41 -4.9275e-41
-5.1374e-41 5.1128e-41 -4.922e-41 -4.9506e-41 4.9376e-41 -4.9477e-41 -5.0223e-41 -4.947e-41
00000000: 3896 0080 e589 0000 c98c 0080 1189 0000
00000010: 7991 0000 0389 0000 ab89 0000 ca07 0000
00000020: 928b 0000 e98e 0080 298d 0000 0889 0000
00000030: e18a 0080 678e 0080 f488 0080 c388 0000
00000040: 6d8a 0000 4e8a 0080 268b 0000 de89 0080
00000050: 5b8b 0080 858a 0080 0c89 0000 9b8a 0080
00000060: 478a 0000 5390 0080 df8e 0000 b989 0000
00000070: ad89 0080 e18a 0080 0a89 0000 e488 0000
00000080: b662 8d3c c9e4 b2bb 4787 bd3b bfa9 5fbc
00000090: 64d7 58bc d3f0 d8bc b8e6 28bb 742d 08bd
000000a0: 3882 ccba 538e d8bb af07 0fbd c0ab 38bd
000000b0: 2a1e 2f3e adaf 1d3d a1d2 87bb 3fc5 bdba
000000c0: 008d 0080 ca6c 0080 b68b 0000 e889 0080
000000d0: 6f92 0080 f988 0080 0d89 0080 7c89 0000
000000e0: b58c 0080 9c8b 0080 7d89 0080 6e8a 0080
000000f0: ce88 0000 4d8a 0000 0f89 0000 54a3 0000
00000100: e589 0000 2f8d 0000 e388 0000 5f8a 0000
00000110: f38c 0000 af89 0080 8589 0000 7c8a 0000
00000120: f688 0000 708e 0000 fd8a 0080 e988 0000
00000130: f288 0080 bc88 0000 598a 0000 8d8b 0000
00000140: 788b 0080 968a 0000 a689 0080 f588 0000
00000150: 618c 0080 3589 0080 ab89 0000 b489 0080
00000160: 2f8b 0080 4f8b 0080 9a89 0080 698e 0080
00000170: 7489 0000 d24f 0000 968b 0000 ec8c 0080
00000180: 1189 0080 5a89 0080 618c 0000 d78a 0080
00000190: a68c 0080 6589 0000 6b8a 0000 a789 0000
000001a0: 9389 0080 138b 0080 f8ae 0080 5a8c 0000
000001b0: 6a89 0080 d188 0000 ae89 0080 8d89 0080
000001c0: 368c 0080 4989 0080 a78f 0000 cb8a 0080
000001d0: 1f8b 0000 6a89 0080 c288 0080 3389 0000
000001e0: 698a 0080 238a 0000 ed89 0080 ea90 0080
000001f0: 4b8a 0080 6e8a 0080 2989 0000 d588 0000
00000200: a38d 0000 b38b 0080 c88f 0080 048b 0000
00000210: 788e 0080 6789 0000 1092 0080 8197 0080
00000220: a18f 0080 f995 0000 3792 0000 6c94 0000
00000230: 9f8d 0000 728a 0080 2d8d 0000 b893 0080
00000240: 698a 0080 de88 0080 668d 0000 6089 0080
00000250: e789 0080 e988 0080 c289 0000 e98b 0000
00000260: 8d8f 0080 708a 0000 4ca1 0080 9d8a 0000
00000270: 0f8a 0080 4989 0080 a189 0080 088d 0000
00000280: c188 0080 998b 0080 0689 0000 9489 0000
00000290: d192 0000 328c 0000 a78d 0000 3890 0000
000002a0: ae8e 0000 0096 0000 6f46 0000 d792 0000
000002b0: 248a 0080 c38b 0000 f78a 0000 f893 0080
000002c0: 1689 0080 498a 0000 648b 0000 528f 0080
000002d0: dd99 0080 3b8a 0080 dba3 0080 048a 0080
000002e0: 9d91 0000 9e98 0080 bb8a 0000 d58e 0000
000002f0: 1089 0000 f28b 0080 3689 0000 2a90 0080
00000300: 9689 0080 c788 0080 078a 0080 f689 0000
00000310: 799b 0000 c289 0000 658b 0000 be89 0000
00000320: 6f8b 0080 158b 0080 c089 0080 df88 0080
00000330: 9689 0080 bb89 0000 d689 0080 2089 0080
00000340: b58c 0080 cb8a 0080 298e 0080 e68a 0080
00000350: ed8c 0000 498d 0080 5a8d 0080 d18f 0080
00000360: 768a 0000 f193 0000 759a 0000 d38d 0080
00000370: fd8b 0000 758a 0080 318d 0080 748d 0080
00000380: 1089 0000 3c8a 0080 ec88 0080 0189 0080
00000390: 758e 0080 b791 0080 4192 0000 3c8b 0000
000003a0: 0b8b 0080 ac89 0080 518b 0080 1e8a 0080
000003b0: 4989 0000 708a 0000 d888 0080 3f89 0080
000003c0: 2389 0080 ce88 0080 e689 0080 f488 0000
000003d0: 4d8c 0080 ce89 0000 ab8a 0000 5c89 0080
000003e0: 368f 0080 868e 0000 3589 0080 018a 0080
000003f0: a489 0000 ec89 0080 008c 0080 e789 0080

fno_blocks.channel_mlp.0.fcs.1.bias f4 [32]
4.9732e-41 4.9113e-41 0.05535517 4.9421e-41 5.039e-41 -4.905e-41 -4.9123e-41 -4.9435e-41
-5.0087e-41 -4.9474e-41 4.9607e-41 -4.932e-41 4.9295e-41 -4.9352e-41 -4.9399e-41 -4.9373e-41
-1.35554865e-27 -4.9271e-41 -4.9299e-41 -4.9691e-41 -4.9375e-41 -4.915e-41 0.019119399 4.956e-41
4.9062e-41 4.9337e-41 4.9427e-41 -0.014305407 4.969e-41 -4.9219e-41 0.14498694 0.28603655
00000000: a28a 0000 e888 0000 1abc 623d c489 0000
00000010: 788c 0000 bb88 0080 ef88 0080 ce89 0080
00000020: 9f8b 0080 ea89 0080 498a 0000 7c89 0080
00000030: 6a89 0000 9389 0080 b489 0080 a289 0080
00000040: 96cb d692 5989 0080 6d89 0080 858a 0080
00000050: a389 0080 0389 0080 49a0 9c3c 278a 0000
00000060: c488 0000 8889 0000 c889 0000 3a61 6abc
00000070: 848a 0000 3489 0080 7577 143e 6273 923e

fno_blocks.channel_mlp.1.fcs.0.weight f4 [16, 32, 1]
8.496104e-13 2.038607e-12 -5.246382e-15 -5.6075512e-14 -1.799592e-10 -1.3454234e-11 6.55541e-12 -8.068043e-17
-1.4291878e-16 3.1018524e-16 -7.2100954e-12 -7.901482e-19 -2.5746438e-12 -1.7803578e-18 4.533252e-17 -5.7247897e-11
-3.8131075e-16 -3.3839976e-15 -2.8708711e-18 -3.501553e-16 5.5449563e-13 -2.0177943e-11 -8.4068046e-19 6.4012726e-19
-2.9558575e-17 -1.7486343e-17 -2.873947e-17 -5.0472e-41 3.9465036e-16 1.1628062e-11 -3.0934186e-10 5.025e-41
1.01920885e-11 3.2875926e-12 -3.769814e-12 1.202468e-13 -3.5988673e-10 -9.632722e-10 1.4884813e-10 -1.216432e-16
1.14689066e-14 3.7943794e-17 -1.3953813e-10 -1.4245351e-18 -5.1449057e-11 1.965242e-17 -1.6534184e-15 -8.520883e-11
-2.27706e-14 -6.0774716e-14 5.756109e-18 -8.7821975e-14 -6.8185965e-12 1.926833e-10 1.4128828e-18 3.747253e-18
3.6833295e-15 -4.010611e-16 -3.127828e-16 1.3284e-41 -7.631433e-15 -1.5134749e-12 -4.9784604e-10 1.06008e-40
-6.877945e-15 6.7141854e-15 -1.1299467e-15 9.047847e-17 -6.001544e-13 1.3968293e-12 -2.1083874e-13 -9.4183146e-20
6.6523835e-19 -3.9714125e-19 1.1014968e-13 -2.2800167e-21 4.1099047e-15 -4.1635813e-21 2.8216739e-19 -1.7720856e-13
-2.0342067e-18 -1.1310778e-17 -4.250976e-20 -1.29453815e-17 9.554695e-16 -2.356738e-13 -2.071894e-20 -1.0563776e-20
-1.6787156e-18 -7.7496173e-20 -2.0447684e-19 4.9906e-41 -5.9768106e-19 1.09278296e-13 -1.6893093e-12 4.9515e-41
3.5868506e-13 -7.103965e-13 2.6685623e-13 2.7293573e-14 6.029508e-11 -4.4350364e-11 1.4598213e-11 4.6763107e-17
-2.38504e-16 -9.77669e-17 -5.620355e-12 2.396748e-19 -5.2710153e-13 1.118505e-18 -3.775523e-17 2.2316872e-11
1.6504291e-16 -1.5904631e-15 1.3489576e-18 2.3068517e-15 2.787218e-13 -1.2247248e-11 3.7089086e-19 -3.119052e-19
1.0096528e-16 1.5203477e-17 2.1286768e-17 4.9512e-41 5.81362e-16 -1.2715159e-11 1.4591457e-10 2.5738e-41
6.7388957e-09 5.2675382e-08 9.351453e-10 -1.0255002e-10 -4.824281e-06 -1.7427114e-06 3.2533922e-07 3.7456976e-13
-5.430222e-12 -6.5209334e-13 -1.5284651e-07 -1.5708787e-14 -4.575176e-09 2.2966853e-14 -9.472447e-13 -9.466036e-07
2.86195e-12 3.930634e-11 7.5376405e-14 -9.387002e-13 -4.942136e-09 4.2563556e-07 3.2202695e-14 2.0105735e-14
3.3207068e-12 -3.033001e-13 3.580476e-13 -4.005567e-39 5.2265197e-12 -2.214689e-07 -3.5132825e-07 1.885326e-36
-9.0348544e-17 2.2668452e-16 -9.867192e-17 2.7681864e-18 -2.0675968e-14 2.2579491e-14 -3.419807e-15 -7.337756e-21
6.9996366e-20 -1.614677e-21 1.5727814e-15 -8.596388e-23 -4.9581e-16 9.8104806e-23 -5.3586743e-21 -5.0067753e-15
-1.7650467e-19 -9.63468e-19 -7.774338e-22 -1.3098894e-18 -4.064369e-17 -2.8553754e-15 -3.5218335e-22 -1.734152e-22
-1.5420377e-20 -2.0556638e-21 -5.820592e-21 5.033e-41 -8.217353e-20 2.0696219e-15 -4.5501556e-14 4.9975e-41
-2.6541e-08 1.919711e-08 7.1189135e-09 1.1599471e-09 -1.8481584e-06 2.3750097e-06 -4.0315715e-07 4.8132543e-13
-8.503489e-13 -7.644996e-12 1.8798579e-07 -7.603331e-15 7.360142e-08 4.4121817e-14 -1.44803e-12 -5.703444e-07
-9.156074e-12 3.4492968e-11 -4.059814e-14 8.437358e-11 7.55435e-09 -4.3300602e-07 -1.6145429e-14 -1.2944627e-14
-1.2737958e-12 4.036514e-13 -9.0650035e-13 4.33417e-39 3.783972e-12 1.0692828e-07 -3.3930232e-06 -8.502142e-37
-2.3421327e-08 1.6708217e-08 4.4156576e-09 8.701949e-10 -1.4583809e-06 1.752953e-06 -2.7814204e-07 7.712329e-13
-1.945161e-12 -6.7947644e-12 1.5086354e-07 -6.6906086e-15 8.618504e-08 3.804451e-14 -1.1948926e-12 -6.303665e-07
-2.3332115e-12 6.385748e-11 -1.4259801e-14 4.953646e-11 1.2624182e-09 -9.048346e-08 -5.388196e-15 -6.964758e-15
-5.5750044e-13 1.04464255e-13 -4.723201e-13 8.62913e-40 2.8112803e-12 4.0586784e-08 -2.6059054e-06 3.1455819e-37
00000000: e224 6f2b 4774 0f2c 5505 bda7 aa8a 7ca9
00000010: 03de 45af 7cb0 6cad e2a5 e62c 5209 baa4
00000020: 2ec6 24a5 43cf b225 c4ae fdac e935 69a1
00000030: a92c 35ac 025e 03a2 310f 5124 67c7 7bae
00000040: 89cf dba5 bdd7 73a7 39d5 53a2 cdd9 c9a5
00000050: 9f13 1c2b b07c b1ad 0520 78a1 a6ee 3c21
00000060: 9b50 08a4 7648 a1a3 9489 04a4 b28c 0080
00000070: 1d80 e325 2390 4c2d ff0f aaaf 148c 0000
00000080: 164d 332d 0158 672c 77a3 84ac c862 072a
00000090: 8ed9 c5af 2164 84b0 06a9 232f bc3e 0ca5
000000a0: ff9a 4e28 20fc 2e24 7e6c 19af 6a39 d2a1
000000b0: 7d46 62ae f742 b523 5f48 eea6 4f60 bbae
000000c0: 6e19 cda8 3dda 88a9 ea5c d422 ecc1 c5a9
000000d0: 75e8 efac 87db 532f 3481 d021 ce3f 8a22
000000e0: b8b4 8427 2c32 e7a5 984e b4a5 0825 0000
000000f0: c679 09a8 ae00 d5ab cdd8 08b0 8227 0100
00000100: d8cd f7a7 6ee7 f127 add7 a2a6 10a1 d024
00000110: afed 28ab 1496 c42b 2162 6daa 3862 de9f
00000120: fd57 4421 4a6e eaa0 f808 f829 f045 2c9d
00000130: 2e13 9427 b04b 9d9d ee8f a620 e484 47aa
00000140: 1419 16a2 a4a5 50a3 25bf 489f d6cc 6ea3
00000150: 9ab2 8926 2dac 84aa 53af c39e 498b 479e
00000160: 15bc f7a1 90fb b69f 5567 71a0 1e8b 0000
00000170: 8167 30a1 a612 f629 c8bf edab 078a 0000
00000180: f7eb c92a 76f5 47ab 093a 962a b2d6 f528
00000190: 1d97 842e 120e 43ae 4168 802d 22a8 5724
000001a0: fa7c 89a5 646f e1a4 a8bf c5ac a27a 8d20
000001b0: ab5d 14ab ed0f a521 821d 2ea4 214d c42d
000001c0: 1248 3e25 bb35 e5a6 2d12 c721 e739 2627
000001d0: 0be8 9c2a b474 57ad 71ef da20 c81d b8a0
000001e0: 62cf e824 323a 8c23 f655 c423 058a 0000
000001f0: f290 2726 fcaf 5fad 4d6f 202f bf47 0000
00000200: f48b e731 323d 6233 8086 8030 8782 e1ae
00000210: 42e0 a1b6 1ce7 e9b5 48aa ae34 31dd d22a
00000220: 170f bfac 478c 37ab 211e 24b4 ff7d 8da8
00000230: ac33 9db1 f5dd ce28 1650 85ab 1b1a 7eb5
00000240: 4f64 492c 01df 2c2e 8abb a929 3d1c 84ab
00000250: 7dcf a9b1 e882 e434 2e07 1129 ab18 b528
00000260: 89ac 692c 27be aaaa 1990 c92a e49d 2b80
00000270: 4ee4 b72c e8cc 6db4 309e bcb4 c462 2004
00000280: 5e54 d0a4 bbac 8225 9f85 e3a4 9041 4c22
00000290: 893b baa8 c360 cb28 4e6c 76a7 369b 0a9e
000002a0: 3546 a51f ca00 f49c 64a9 e226 11d9 cf9a
000002b0: 52e8 0ea6 ef33 ed1a eb71 ca9d 5a63 b4a7
000002c0: 4361 50a0 cb2e 8ea1 07f7 6a9c 394e c1a1
000002d0: 9a6f 3ba4 61c0 4da7 bce1 d49b 68a5 519b
000002e0: 2fa4 919e 5252 1b9d 50e5 db9d 4d8c 0000
000002f0: da06 c29f c921 1527 b9eb 4ca9 4f8b 0000
00000300: 47fc e3b2 e4e6 a432 a09a f431 036c 9f30
00000310: 3d0e f8b5 5b62 1f36 7f71 d8b4 277b 072b
00000320: 195a 6fab 007e 06ad 24d9 4934 2df8 08a8
00000330: cf0e 9e33 feb4 4629 c7ca cbab c519 19b5
00000340: 4b13 21ad a1b3 172e 78d6 36a9 1a8a b92e
00000350: 62c8 0132 e577 e8b4 d36c 91a8 8e30 69a8
00000360: 5545 b3ab 4c3c e32a 3c28 7fab e731 2f00
00000370: fd22 852c 72a0 e533 b2b3 63b6 0da8 9083
00000380: 0b30 c9b2 c285 8f32 89b8 9731 8632 6f30
00000390: 96bd c3b5 0247 eb35 8d53 95b4 3015 592b
000003a0: e8e0 08ac cc11 efac 0efd 2134 f90d f1a7
000003b0: ba14 b933 5556 2b29 8b2a a8ab 7536 29b5
000003c0: 672f 24ac 916c 8c2e dd70 80a8 18dd 592e
000003d0: 6481 ad30 cf4f c2b3 5621 c2a7 8eee faa7
000003e0: 24ec 1cab 8b3b eb29 40f2 04ab 7365 0900
000003f0: 86d3 452c a451 2e33 1de1 2eb6 c413 d602

fno_blocks.channel_mlp.1.fcs.0.bias f4 [16]
7.8895425e-07 -3.1371335e-06 6.413615e-12 1.4932503e-07 0.07159156 -3.51715e-12 0.032288138 0.02758579
0.00048430043 -3.406088e-05 3.857352e-14 1.2200127e-06 8.170352e-12 -6.908668e-11 -0.00030688668 1.3605558e-08
00000000: 86c8 5335 8b87 52b6 b5a8 e12c 2756 2034
00000010: 999e 923d 577f 77ac 9140 043d 98fb e13c
00000020: b4e9 fd39 97dc 0eb8 3eb8 2d29 51bf a335
00000030: ffbb 0f2d 58ec 97ae a2e5 a0b9 e0bd 6932
