model_checkpoints_naca/naca_fno_final_r3.pth (torch, 857207 bytes, 35 tensors)

fno_blocks.convs.0.bias f4 [32, 1, 1]
00000000: 5ff6 54ba 78fd d5bc c776 1abc e0fb d5ba
00000010: e0f2 10bc 9b66 a73c 9556 4d3e f596 943b
00000020: 6f5f 7ebb 05ae ecbc 9116 f33a dbc9 f33c
00000030: 009d 2f3b 2739 b43d 92dd 013e 9759 1fbd
00000040: abc0 d4bb d2de 20bc 3ecc 8c3c e6a5 133d
00000050: f05a 81bb c85a 0a3d 2baa b93b 08d6 0abc
00000060: 8783 bfbc ab20 a1bd 1f1e 7abd 8ea0 98ba
00000070: be5e 93bb 46ff da3b 61a0 91bb 83ed 79bc
-0.00081238704 -0.02612184 -0.009427733 -0.0016325675 -0.008846968 0.020434668 0.2005256 0.004534597
-0.0038814207 -0.028891573 0.0018546154 0.029759338 0.002679646 0.087999634 0.12682179 -0.0389038
-0.0064926944 -0.0098187495 0.017187234 0.036046885 -0.003947608 0.033777982 0.0056660376 -0.008473881
-0.023378147 -0.07867559 -0.061063882 -0.0011644529 -0.004497378 0.006683263 -0.0044441675 -0.015254381

fno_blocks.convs.1.bias f4 [32, 1, 1]
00000000: ba6e a826 3313 1839 6a10 d82f b4c4 f22f
00000010: 61a1 20b2 bdea 14ae 15de 1db7 29e6 d332
00000020: 73ba 352c 0300 f020 fea3 95b2 6bde 4933
00000030: b2a6 98a4 6388 3fac 7a6e 1fb1 5343 b831
00000040: 8d83 dab4 fd87 83ab 8d01 bfb4 f972 27b0
00000050: 01e4 81ad c7ff 412e da18 0d39 a7f5 d8b2
00000060: 68ec 5ab4 d2b3 6731 3f57 69b1 b2ef cb2f
00000070: 7171 2b34 5092 5da3 3b86 8130 6ec1 8b30
1.1687354e-15 0.00014503002 3.9301834e-10 4.415931e-10 -9.349919e-09 -3.3859793e-11 -9.409637e-06 2.4668298e-08
2.5825147e-12 4.065759e-19 -1.7420458e-08 4.7001247e-08 -6.6201885e-17 -2.7218442e-12 -2.3200344e-09 5.3627587e-09
-4.070138e-07 -9.345854e-13 -3.557765e-07 -6.091763e-10 -1.4766856e-11 4.4110295e-11 0.00013456066 -2.525742e-08
-2.0388836e-07 3.371714e-09 -3.3955556e-09 3.70958e-10 1.5966886e-07 -1.2011417e-17 9.424136e-10 1.0168557e-09

fno_blocks.convs.2.bias f4 [32, 1, 1]
00000000: 098c 0000 c598 0080 46eb d02f 9e8e 0eb4
00000010: 4ccc 49af 6192 bab5 be97 0080 26f0 afaf
00000020: ce4f 4ab2 7890 0080 6c8a 0000 8d7f 55ab
00000030: 038d 0000 7509 8d2d 392d 0080 aae0 f1ac
00000040: e288 0080 1389 0000 57e1 ebab 818b 0080
00000050: 9628 0080 4c16 0232 9e89 0000 37ff 812d
00000060: 458a 0000 69cb 8334 4089 0080 7145 122d
00000070: e276 1cae c089 0080 0a25 fbb2 7b1e 572b
5.0235e-41 -5.4803e-41 3.8002151e-10 -1.3276664e-07 -1.8353424e-10 -1.3900682e-06 -5.4435e-41 -3.200295e-10
-1.1776093e-08 -5.1826e-41 4.9656e-41 -7.5849814e-13 5.0585e-41 1.6034044e-11 -1.6223e-41 -6.8745747e-12
-4.9104e-41 4.9173e-41 -1.6760299e-12 -5.0045e-41 -1.456e-41 7.572066e-09 4.9368e-41 1.477894e-11
4.9602e-41 2.4548652e-07 -4.9236e-41 8.314558e-12 -3.5575883e-11 -4.9415e-41 -2.923709e-08 7.6425644e-13

fno_blocks.convs.3.bias f4 [32, 1, 1]
00000000: 2341 afbd c147 22bc a352 82be a89a a8bb
00000010: 5872 9a3c 1fbe 3bbc 05ec 983d 1a6c 28bd
00000020: 1eeb 963d e8d5 27bc 7cc1 93bd 4b9d 8b3e
00000030: c0c4 2fbd 16ce 0d3d 6534 2abd 530a 25be
00000040: 0b1a 6cbb ccc0 983c c320 fabc 86b4 46bb
00000050: c69e 4ebd b5da 023e b9af 94bb 74ef ed3b
00000060: 1e36 883d cbd9 19be 161f 7f3b bdee 9bbd
00000070: 57af 143e e53f e2bc 6b67 c4bb ccf6 acbd
-0.08557346 -0.009904803 -0.25453672 -0.0051453896 0.018853351 -0.011458903 0.07466892 -0.04111872
0.07369064 -0.01024387 -0.072146386 0.27268443 -0.042912245 0.034620367 -0.041553874 -0.1611722
-0.0036026265 0.01864662 -0.0305332 -0.0030320003 -0.050444387 0.12778743 -0.0045375493 0.007261211
0.06650947 -0.15024488 0.003892844 -0.07613895 0.14520012 -0.027618358 -0.0059937737 -0.0844551

fno_blocks.fno_skips.0.conv.weight f4 [32, 32, 1]
00000000: 4d15 5e3d b523 9038 1050 0cba 4d8e 18bd
00000010: 7a5d fc3c a1df ab3d f9d6 83b6 4f99 523c
00000020: e5cf 08b9 74c6 9839 d388 37bc 0758 803d
00000030: 39e7 d63a c302 293d 459e 9f3d 4dbd 6338
00000040: d37d 3139 4b67 02bc cc22 99bb 25a1 23bd
00000050: cf8b 543c 3d34 4cbb 398e 5a37 f99d ee38
00000060: 723a 8ab9 95ee 9d3d a483 2b3d cd0f 84bb
00000070: 1cc2 9937 d65b aa3d 48c8 8438 28be 3cbc
00000080: 8bf2 e63c c872 2538 7d4a 023b f7df 08bd
00000090: bf24 353c b158 b53d f8fb 6937 2aa9 4dbc
000000a0: d654 4cb9 2b0f a939 f95f 5a3c 4bc8 403d
000000b0: cd9b 90bc e273 d23c bc86 b23d 7851 0738
000000c0: d895 2239 8b79 f53b 1bcc 68bc 1c05 8e3b
000000d0: 0f5a 2f3b 6373 063c 27f3 05b8 0492 0d39
000000e0: ffd3 67b9 a7c5 a53d afc9 bd3c 43f6 273c
000000f0: f363 8e37 8d61 c93d 2983 13b8 78a3 e4bb
00000100: 8862 d63c fe4b 2139 62c4 b23b 1eec 9a3c
00000110: 17d8 bc3c 2f90 0b3d 06ce e938 b4b1 fcbc
00000120: 4b1f ff38 fd06 e138 4ecb 9a3c e0fc d0bc
00000130: d311 a13b 485a ccbc 5a04 f93c 6de8 ceb8
00000140: cd5e 2339 f4fd ccbc 77ce dd3c 6211 54bd
00000150: 800b 633c 88a2 ac3c 207f c2b6 5520 c9b6
00000160: 9990 a136 79e3 a939 6bdc 913c 3469 f6bc
00000170: b7af c138 0f4a c53c dad9 2db9 f21a 92bc
00000180: a81a 863c 06fa 99b8 48c3 d1ba d93d 2c3c
00000190: 219b 4e3b eb0f 823c ec5b 65b8 d130 f0bb
000001a0: 42cd bd38 7d4b 4ab9 3613 8a3b 2144 87bc
000001b0: 4fb9 8c3a 9746 44bc 0583 933b 7a22 4838
000001c0: 5077 20b9 ecef c4ba 7b56 273c ea15 58bc
000001d0: 74e3 16bb fd4a cd3b d36a bbb7 6906 0db9
000001e0: a848 9039 724d b9bc 57e6 e53b 9f81 6f3b
000001f0: 06dd e9b6 35fc 49ba e31b a738 bb36 94ba
00000200: d280 453d 4bd7 53b8 550b 8bb9 22ea c73c
00000210: 8118 e93c 8cee ff3c 4e57 d536 43ec 80bc
00000220: 2385 bd38 0dd5 31b9 0c6e 5d3c 8530 afbc
00000230: ffdc 4639 932f c2bc 331c 413c 9c45 dfb7
00000240: 24ff feb8 4071 7ebb b40c 2a3c ca67 19bd
00000250: d261 353c 667e 753c a172 57b8 0e5c 2ab9
00000260: 299e 6639 5ffd 01bd 4d2b f03c f7af a8bb
00000270: 25f0 0a35 789b da3b 805c 1ab8 a1aa 95bc
00000280: 4a13 86bb 99ff 95b8 2ae3 a2bb a057 d73a
00000290: 1ef4 17bc 61a9 c5bb 6b4b aeb8 34c7 93ba
000002a0: 5c87 0638 d09c d8b8 e4f3 bbba b020 bfbc
000002b0: 8d6b 273c af46 10bc 04fd 8abc 4988 8e38
000002c0: c39d 7fb8 70d6 8e3c 964d c23c 81bb 4f3c
000002d0: d6e8 7abc 57e6 bcbb 70be eab6 4152 4c38
000002e0: 795a 8a38 ff12 8abc df54 d9bb 28c1 c83c
000002f0: ec1b 42b7 57eb bfbc bcbc b638 1ad7 543c
00000300: 9dde fabc b402 b8b7 f204 64bc 6136 44bd
00000310: aa67 1fbd 1bea 91bc daea 4cb8 97bd 3abc
00000320: 9880 22b9 a04f fa38 3aae 7f3c 900c 133d
00000330: 5ed9 9c3d 6638 3b3d 2fdc 88bc 2ebd 6638
00000340: 0d9d 8839 6686 0c3c 49dd b03d bd40 0e3d
00000350: 8d91 14bd 74ce dcbc 39ae 9638 25ad b838
00000360: 7a4f a6b9 2004 0d3d a943 0bbd ed53 563d
00000370: c992 0139 9b2b 01bc 5a01 0c39 2818 ad3d
00000380: ae47 743d 924d 39b8 a5f5 bcba 613b 433c
00000390: 917d 223d 6238 573d 776a 0fb8 31ff 27bc
000003a0: 46cd 9a38 a7a0 2db9 5e32 d53b 6aff 04bc
000003b0: 432b 123b 1e6d 43bc a91b e63c f1e9 0938
000003c0: c72f 0eb9 2f66 b8bb 3d22 523c 17ad 2dbd
000003d0: f86d 733c 2373 313c 4c70 0db8 e542 e8b7
000003e0: 022a 3b39 6ac2 6fbc c5f7 373d 1dca 1c3b
000003f0: 19b8 1bb7 ed9d b63c 99b2 3b38 eb60 9ebc
0.054219533 6.873106e-05 -0.00053525064 -0.037245084 0.030806292 0.08392263 -3.9291303e-06 0.012853934
-0.00013047417 0.00029139558 -0.011202055 0.0626679 0.0016395814 0.0412624 0.077938594 5.4297318e-05
0.00016926909 -0.007959197 -0.0046733376 -0.0399486 0.012972786 -0.0031159066 1.3026926e-05 0.00011378149
-0.00026364956 0.077115215 0.04187359 -0.004030204 1.832941e-05 0.083182976 6.331556e-05 -0.011519946
0.028191825 3.9445964e-05 0.0019880824 -0.033416715 0.011056124 0.08854807 1.3946548e-05 -0.012552539
-0.0001948656 0.00032245493 0.013328546 0.047066014 -0.017652417 0.025690023 0.08717105 3.2262382e-05
0.00015505345 0.0074912957 -0.014208819 0.004334105 0.002675656 0.008206221 -3.1936124e-05 0.00013501203
-0.00022108851 0.0809434 0.02316746 0.010251584 1.6974262e-05 0.098330595 -3.5169684e-05 -0.006977495
0.02617003 0.00015382466 0.0054555396 0.018911418 0.023052258 0.03407305 0.00011148681 -0.030846454
0.00012165176 0.00010730138 0.018895771 -0.025511205 0.004915455 -0.024945393 0.030397583 -9.866138e-05
0.00015580207 -0.025023438 0.02707599 -0.05177439 0.013857722 0.021073595 -5.79645e-06 -5.9940307e-06
4.8150073e-06 0.00032403672 0.017805299 -0.030079462 9.2356866e-05 0.024083165 -0.00016579722 -0.017835114
0.016370133 -7.342179e-05 -0.0016003633 0.0105127925 0.003152557 0.01587673 -5.4683464e-05 -0.007330038
9.0504545e-05 -0.00019292343 0.004213716 -0.016511979 0.0010736379 -0.011979721 0.0045017027 4.7715825e-05
-0.00015303236 -0.0015025116 0.01021349 -0.0131888185 -0.0023023756 0.006265043 -2.2341881e-05 -0.00013449196
0.00027519953 -0.022619937 0.007015984 0.0036545766 -6.9696716e-06 -0.0007705123 7.968375e-05 -0.0011307815
0.048218556 -5.0506827e-05 -0.0002652059 0.024403635 0.028454067 0.031241678 6.3580583e-06 -0.015737658
9.037021e-05 -0.00016959403 0.013515007 -0.02138544 0.00018965079 -0.023704326 0.011786508 -2.6616086e-05
-0.000121591875 -0.0038824826 0.010379005 -0.037452497 0.011070685 0.014983749 -5.136675e-05 -0.00016246756
0.00021993429 -0.031735774 0.029317522 -0.00514793 5.175846e-07 0.0066713654 -3.680261e-05 -0.018269839
-0.004091655 -7.1524824e-05 -0.0049709277 0.0016429313 -0.009274511 -0.0060321544 -8.311014e-05 -0.0011274577
3.2074153e-05 -0.00010328891 -0.0014339653 -0.023331016 0.010218513 -0.008805915 -0.01696635 6.796473e-05
-6.0943665e-05 0.017436236 0.023718636 0.012678982 -0.0153143015 -0.0057647633 -6.9959133e-06 4.8713995e-05
6.5972046e-05 -0.016854761 -0.006632432 0.024506167 -1.1569802e-05 -0.023427648 8.713591e-05 0.012990737
-0.030623728 -2.1935768e-05 -0.013917195 -0.047903422 -0.03891722 -0.017811825 -4.8856113e-05 -0.011397741
-0.00015497429 0.0001193576 0.015605504 0.035900652 0.07658647 0.045708083 -0.016706554 5.501246e-05
0.00026056953 0.008576965 0.08635957 0.034729708 -0.03627162 -0.026953913 7.185009e-05 8.8060544e-05
-0.00031721202 0.034427762 -0.034000073 0.05232613 0.0001235708 -0.0078839315 0.00013351944 0.08451873
0.05963867 -4.417968e-05 -0.001441647 0.0119160125 0.03967053 0.052544005 -3.419301e-05 -0.0102537135
7.3815274e-05 -0.00016558413 0.0065062484 -0.008117536 0.0022303618 -0.011927871 0.028089361 3.288122e-05
-0.00013559974 -0.0056274156 0.012825546 -0.0424014 0.014857762 0.010830673 -3.3721604e-05 -2.7687705e-05
0.00017849359 -0.014633754 0.044914026 0.002392418 -9.2815835e-06 0.022292102 4.4750606e-05 -0.019333323

fno_blocks.fno_skips.1.conv.weight f4 [32, 32, 1]
00000000: 758a 0080 7d8e 0000 3790 0080 b6a9 0080
00000010: 11a4 0080 638b 0000 443a 0080 b5fa 5323
00000020: b08a 0000 b489 0000 ffad 0000 1192 0000
00000030: 712f 5f26 5890 0000 b653 0080 fcad 0000
00000040: 46a3 0080 b98d 0000 45fd 2b26 f5d7 8f26
00000050: cea2 0080 6697 0000 7994 0080 6693 0723
00000060: 09a7 0000 b39d 0080 04ae 0080 b716 d226
00000070: 878c 0080 5696 0080 d397 0080 91c3 3c26
00000080: 6a89 0000 428d 0080 bd91 0080 308c 0080
00000090: 76ae 0080 3c89 0080 668e 0000 9ea2 52b6
000000a0: 5690 0000 1ea7 0000 e29f 0000 668b 0080
000000b0: 01b5 7bb8 348c 0080 509d 0080 6e93 0000
000000c0: 509a 0080 a590 0000 1135 1cb9 010a abb8
000000d0: 42a7 0080 a2ab 0080 eb96 0080 d88c 9ab6
000000e0: b18d 0000 978d 0000 ffa1 0000 1204 1f39
000000f0: de89 0080 549e 0000 1b94 0000 6a0f a737
00000100: 3293 0080 2d8b 0000 a789 0080 97ab 0080
00000110: c2a0 0080 0589 0080 8f8b 0000 c240 83ad
00000120: 158e 0080 b295 0000 6da0 0000 8f8a 0080
00000130: f979 5baf 3e8d 0000 ae98 0080 0591 0080
00000140: f38a 0080 3292 0080 3aa8 f6af 8aaa 41af
00000150: 0ba9 0080 6094 0000 7891 0000 6a0a 5bad
00000160: 549e 0000 478c 0000 088f 0080 effc f22f
00000170: a88a 0000 1189 0080 758e 0080 3a4b 1f2e
00000180: 618f 0080 bb89 0000 128c 0000 0c8e 0080
00000190: 4f98 0080 3989 0080 448b 0080 a91c 17ad
000001a0: 2f91 0000 5096 0000 aaa2 0080 009b 0080
000001b0: 1d14 972f 298a 0000 eea0 0000 8b8f 0080
000001c0: 3f90 0000 dd91 0000 bf70 3cad d2e0 faad
000001d0: efa7 0080 978b 0000 90a4 0080 661b 5aad
000001e0: 8d99 0000 3e8b 0000 b38c 0000 5600 dcae
000001f0: 8aac 0080 b091 0000 56a1 0080 1340 83af
00000200: 908c 0000 bbad 0080 8da3 0080 a8ac 0080
00000210: 2cae 0000 6d8e 0080 888a 0000 4444 232f
00000220: b29b 0000 8299 0080 208a 0080 b790 0000
00000230: 318e 00b2 8a8c 0080 1994 0000 ad91 0000
00000240: 5aa1 0000 e694 0000 d9d3 00b1 725e 2430
00000250: 2da2 0080 7e8d 0000 70aa 0000 0aa8 ab2f
00000260: be95 0080 60a8 0000 b19f 0000 8774 4831
00000270: ba89 0080 cf99 0080 90aa 0000 7019 0a32
00000280: be8a 0000 a389 0080 5d89 0080 e78d 0000
00000290: 3389 0080 3c89 0080 e188 0080 8010 082b
000002a0: 658a 0080 f38f 0080 228c 0000 0b97 0000
000002b0: 7367 8c2d 4f8a 0080 2b8d 0000 678a 0000
000002c0: ca8b 0000 9e8b 0000 0159 7e2e 21a7 adae
000002d0: 1691 0000 e38e 0080 2395 0080 4aa2 412a
000002e0: 688b 0080 4690 0080 138d 0080 25d6 e1ae
000002f0: 519e 0080 378d 0080 e98f 0000 fbe4 98ae
00000300: 4d97 0080 44a8 0000 8a8e 0080 4da3 0000
00000310: b4a6 0080 a3a6 0000 7c89 0000 0337 9134
00000320: 8589 0080 4b99 0080 059d 0080 779d 0000
00000330: 4b47 ab36 8689 0000 5c92 0080 e771 0080
00000340: dd97 0000 8f76 0000 ae57 3b37 8205 a136
00000350: 2b94 0080 6a99 0080 65ac 0080 dda1 8a34
00000360: 119a 0000 8a91 0000 e18c 0080 025c 58b7
00000370: fe95 0000 8e9b 0080 7d89 0080 5d84 eeb5
00000380: 908a 0000 9690 0080 85a0 0080 0da2 0080
00000390: 84ab 0080 759d 0000 b68a 0000 349d 29b0
000003a0: 6e8d 0080 1496 0080 f5ae 0080 9794 0000
000003b0: 9faf f7b1 1d89 0000 7f8f 0080 c29b 0080
000003c0: bca4 0000 c596 0080 61f6 c3b2 37eb c0b1
000003d0: 6da2 0080 f5a5 0080 aa92 0000 0015 2bb0
000003e0: e696 0080 3c8d 0000 d1ae 0080 53fb eb32
000003f0: 318a 0080 7a9e 0000 2794 0080 b5f7 8131
-4.9669e-41 5.1115e-41 -5.1735e-41 -6.0881e-41 -5.8856e-41 5.0003e-41 -2.0902e-41 1.1491422e-17
4.9752e-41 4.9399e-41 6.2418e-41 5.2399e-41 7.743296e-16 5.1781e-41 -3.003e-41 6.2414e-41
-5.8571e-41 5.084e-41 5.9670787e-16 9.981154e-16 -5.8403e-41 5.4312e-41 -5.3262e-41 7.3495775e-18
5.9921e-41 -5.6572e-41 -6.2425e-41 1.4577834e-15 -5.0412e-41 -5.393e-41 -5.4464e-41 6.5490645e-16
4.9295e-41 -5.0674e-41 -5.2281e-41 -5.029e-41 -6.2585e-41 -4.923e-41 5.1083e-41 -3.1387094e-06
5.1778e-41 5.995e-41 5.7355e-41 -5.0007e-41 -6.0011636e-05 -5.0295e-41 -5.6433e-41 5.2888e-41
-5.5357e-41 5.1889e-41 -0.00014897088 -8.155779e-05 -6.0001e-41 -6.157e-41 -5.4139e-41 -4.605954e-06
5.0829e-41 5.0793e-41 5.8113e-41 0.00015164938 -4.9457e-41 5.6797e-41 5.313e-41 1.9915129e-05
-5.2804e-41 4.9927e-41 -4.938e-41 -6.1555e-41 -5.7669e-41 -4.9153e-41 5.0064e-41 -1.4921734e-11
-5.097e-41 5.37e-41 5.755e-41 -4.9705e-41 -1.9961267e-10 5.0668e-41 -5.4771e-41 -5.2023e-41
-4.9846e-41 -5.2445e-41 -4.4866671e-10 -1.7613835e-10 -6.0641e-41 5.3227e-41 5.2184e-41 -1.2451021e-11
5.6797e-41 5.0322e-41 -5.131e-41 4.4199264e-10 4.974e-41 -4.917e-41 -5.1104e-41 3.621923e-11
-5.1435e-41 4.9408e-41 5.0248e-41 -5.0957e-41 -5.4638e-41 -4.9226e-41 -4.9959e-41 -8.58972e-12
5.2082e-41 5.3922e-41 -5.8353e-41 -5.5604e-41 2.748103e-10 4.9563e-41 5.773e-41 -5.1494e-41
5.1746e-41 5.2326e-41 -1.0711597e-11 -2.852155e-11 -6.0243e-41 5.0075e-41 -5.9034e-41 -1.2397949e-11
5.5084e-41 4.995e-41 5.0473e-41 -1.00045014e-10 -6.1895e-41 5.2263e-41 -5.7876e-41 -2.387429e-10
5.0424e-41 -6.2323e-41 -5.8671e-41 -6.1937e-41 6.2481e-41 -5.1093e-41 4.9696e-41 1.4849016e-10
5.5853e-41 -5.5068e-41 -4.955e-41 5.1914e-41 -7.482911e-09 -5.0416e-41 5.3127e-41 5.2259e-41
5.7882e-41 5.3415e-41 -1.8746873e-09 5.979707e-10 -5.8178e-41 5.0758e-41 6.1141e-41 3.1224118e-10
-5.3717e-41 6.0402e-41 5.7286e-41 2.9170069e-09 -4.9407e-41 -5.5176e-41 6.1186e-41 8.038441e-09
4.9771e-41 -4.9375e-41 -4.9277e-41 5.0905e-41 -4.9218e-41 -4.923e-41 -4.9103e-41 4.8339804e-13
-4.9647e-41 -5.1639e-41 5.027e-41 5.4184e-41 1.5962098e-11 -4.9616e-41 5.0642e-41 4.965e-41
5.0147e-41 5.0085e-41 5.7831965e-11 -7.896817e-11 5.2047e-41 -5.1258e-41 -5.35e-41 1.7198149e-13
-5.001e-41 -5.1756e-41 -5.0608e-41 -1.0269855e-10 -5.6793e-41 -5.0658e-41 5.1625e-41 -6.952835e-11
-5.4276e-41 6.0362e-41 -5.1133e-41 5.8581e-41 -5.9802e-41 5.9778e-41 4.932e-41 2.704838e-07
-4.9333e-41 -5.4991e-41 -5.6328e-41 5.6488e-41 5.1044967e-06 4.9334e-41 -5.2504e-41 -4.086e-41
5.4478e-41 4.2531e-41 1.1166483e-05 4.798815e-06 -5.3153e-41 -5.5035e-41 -6.1844e-41 2.5822274e-07
5.5269e-41 5.221e-41 -5.0538e-41 -1.28960255e-05 5.3807e-41 -5.5803e-41 -4.9322e-41 -1.7770905e-06
4.9707e-41 -5.1868e-41 -5.7584e-41 -5.8133e-41 -6.1528e-41 5.6485e-41 4.976e-41 -6.170524e-10
-5.0735e-41 -5.3838e-41 -6.2763e-41 5.3304e-41 -7.208612e-09 4.9187e-41 -5.1477e-41 -5.5875e-41
5.9096e-41 -5.4086e-41 -2.2813028e-08 -5.6146763e-09 -5.8267e-41 -5.9534e-41 5.2613e-41 -6.223928e-10
-5.4132e-41 5.0665e-41 -6.2712e-41 2.747189e-08 -4.9574e-41 5.685e-41 -5.3147e-41 3.782555e-09

fno_blocks.fno_skips.2.conv.weight f4 [32, 32, 1]
00000000: 658c 0080 ba90 0000 ce8c 0080 468b 0000
00000010: 3d8a 0080 4189 0080 7f89 0080 838c 0000
00000020: 4d8e 0000 1495 0000 0a8e 0000 2b94 0000
00000030: a266 0000 b88f 0000 3c8a 0000 8a8a 0080
00000040: 2b89 0080 838b 0080 fe8b 0000 7e7d 0000
00000050: 928d 0080 d290 0000 f78a 0000 358f 0000
00000060: c48a 0080 858c 0080 f092 0080 a88e 0080
00000070: a389 0080 73ad 0000 c48a 0000 d58b 0080
00000080: 6ea9 0080 e689 0000 158a 0000 4b8b 0000
00000090: 469f 0000 ca9b 0000 d5ab 0080 49ab 0080
000000a0: 1594 0080 f998 0080 a9a6 0080 b592 0000
000000b0: 4393 0080 33a5 0000 8692 0080 4897 0000
000000c0: 09a8 0000 d291 0080 9e95 0080 4f90 0080
000000d0: 618d 0000 1795 0000 14a3 0000 ab8c 0080
000000e0: 618a 0000 c4a2 0080 2e89 0000 dc8b 0000
000000f0: 90ab 0000 9b93 0000 c391 0080 e998 0080
00000100: 7f8f 0000 468a 0080 7d89 0000 a889 0080
00000110: 8796 0080 5389 0080 9489 0080 953e 082d
00000120: 0a9a 0080 0e8b 0000 aa91 0000 8b8e 0000
00000130: 8aa4 d62d 7f02 0080 788f 0080 eb8f 0080
00000140: afa0 0080 a48e 0080 655a 32b1 cfed 3731
00000150: 7e9d 0080 b995 0080 1b8d 0080 21fe ecae
00000160: e28d 0000 448b 0000 998e 0080 7f20 0731
00000170: 2a8a 0000 9b8c 0080 f98f 0000 eaf7 b6af
00000180: c78b 0080 ce8a 0080 e689 0000 4f8c 0080
00000190: 528d 0000 f68b 0080 9e89 0000 d956 ffb0
000001a0: da8d 0000 799a 0000 e38a 0080 10a2 0080
000001b0: 79fa d233 2b8a 0000 f390 0080 6f94 0000
000001c0: b38a 0080 8192 0000 2e12 75b4 a18b 3833
000001d0: e4ac 0000 b6a7 0000 ed8f 0000 9d70 ebb1
000001e0: 30a2 0000 0689 0000 3897 0000 275e 1035
000001f0: 0c8b 0000 9894 0000 2c89 0000 c806 2234
00000200: 4093 0080 7289 0000 e888 0000 058e 0000
00000210: 9092 0080 d68c 0000 5089 0080 6eac 03ac
00000220: 1c8b 0080 7a8a 0000 e197 0080 5f91 0080
00000230: 9ee0 472f 598d 0000 1c8c 0000 b791 0000
00000240: 2789 0000 998a 0000 3127 f82f da14 542d
00000250: 7999 0080 268b 0000 86ab 0080 41b9 f92b
00000260: 3e8d 0080 7c37 0080 cf72 0080 55d4 56af
00000270: 5a8b 0080 d89b 0000 2897 0080 5960 192f
00000280: 628a 0080 fe9d 0000 0eaa 0000 6aa5 0080
00000290: d097 0000 ad9e 0000 5c96 0080 a457 01b3
000002a0: 74a2 0080 5195 0000 69ae 0080 7d8d 0080
000002b0: c41c bcb6 7e90 0000 5b96 0000 6a8e 0000
000002c0: ab93 0000 689b 0080 5890 19b7 c269 c2b6
000002d0: 788d 0000 658e 0000 99a8 0080 1a0e 72b4
000002e0: 4093 0080 3c8d 0080 8f8e 0080 bc09 6836
000002f0: ac9d 0000 0793 0000 06a4 0080 cd80 7535
00000300: c18c 0080 47a5 0000 e3aa 0000 78a5 0000
00000310: 54a2 0080 259b 0000 f699 0080 2894 0000
00000320: 6dac 0000 8497 0080 ecaa 0000 449e 0000
00000330: 558f 0080 d3a1 0000 dd93 0080 4a90 0080
00000340: d888 0000 ec95 0000 0893 0080 f488 0000
00000350: 9794 0000 018e 0080 4c9d 0080 2c95 0080
00000360: dc8c 0080 f4a6 0080 02a6 0000 ac8a 0000
00000370: d69a 0080 9499 0080 7d9f 0000 5590 0000
00000380: 4389 0000 5d8b 0000 6d89 0000 a98b 0000
00000390: d88b 0080 798f 0080 fd8c 0080 5eda a9ab
000003a0: 2e94 0000 8c90 0000 fa94 0000 1f8c 0080
000003b0: 6e12 7330 a08b 0080 b18b 0000 d68d 0000
000003c0: 7090 0000 aa8b 0000 4a97 c12f d6d4 4730
000003d0: 259e 0000 e497 0080 1b8d 0000 6c78 512d
000003e0: 8c8e 0080 9d8b 0000 ff90 0080 60f3 f2b0
000003f0: 998d 0080 ce90 0080 1e99 0000 28e4 cbaf
-5.0364e-41 5.1918e-41 -5.0511e-41 4.9962e-41 -4.959e-41 -4.9237e-41 -4.9324e-41 5.0406e-41
5.1048e-41 5.3479e-41 5.0954e-41 5.3153e-41 3.6818e-41 5.1557e-41 4.9589e-41 -4.9698e-41
-4.9207e-41 -5.0047e-41 5.022e-41 4.5018e-41 -5.0786e-41 5.1952e-41 4.9851e-41 5.1373e-41
-4.978e-41 -5.0409e-41 -5.2711e-41 -5.1175e-41 -4.9375e-41 6.2222e-41 4.978e-41 -5.0162e-41
-6.078e-41 4.9469e-41 4.9534e-41 4.9969e-41 5.7137e-41 5.5887e-41 -6.1642e-41 -6.1446e-41
-5.3122e-41 -5.4876e-41 -5.9786e-41 5.2629e-41 -5.2828e-41 5.9262e-41 -5.2563e-41 5.427e-41
6.028e-41 -5.231e-41 -5.3673e-41 -5.1768e-41 5.0717e-41 5.3483e-41 5.8501e-41 -5.0462e-41
4.9641e-41 -5.839e-41 4.9211e-41 5.0172e-41 6.1545e-41 5.2951e-41 -5.229e-41 -5.4854e-41
5.1477e-41 -4.9603e-41 4.9322e-41 -4.9382e-41 -5.3999e-41 -4.9263e-41 -4.9354e-41 7.744601e-12
-5.5259e-41 4.9883e-41 5.2254e-41 5.1135e-41 2.4402053e-11 -8.95e-43 -5.1467e-41 -5.1628e-41
-5.7642e-41 -5.117e-41 -2.5953792e-09 2.6765183e-09 -5.6498e-41 -5.371e-41 -5.0619e-41 -1.077718e-10
5.0898e-41 4.9959e-41 -5.1154e-41 1.9663557e-09 4.9564e-41 -5.044e-41 5.1648e-41 -3.328176e-10
-5.0143e-41 -4.9794e-41 4.9469e-41 -5.0333e-41 5.0696e-41 -5.0209e-41 4.9368e-41 -1.8578376e-09
5.0887e-41 5.5414e-41 -4.9823e-41 -5.8137e-41 9.824448e-08 4.9565e-41 -5.1998e-41 5.3248e-41
-4.9756e-41 5.2556e-41 -2.2824017e-07 4.296783e-08 6.2021e-41 6.0163e-41 5.1631e-41 -6.852203e-09
5.8182e-41 4.9155e-41 5.4247e-41 5.378119e-07 4.988e-41 5.3305e-41 4.9208e-41 1.5089893e-07
-5.2823e-41 4.9306e-41 4.9113e-41 5.0947e-41 -5.2577e-41 5.0522e-41 -4.9258e-41 -1.8711937e-12
-4.9903e-41 4.9676e-41 -5.4484e-41 -5.215e-41 1.8178745e-10 5.0706e-41 5.0262e-41 5.2273e-41
4.9201e-41 4.972e-41 4.5138784e-10 1.2055435e-11 -5.5056e-41 4.9917e-41 -6.1531e-41 1.7743932e-12
-5.0668e-41 -1.9904e-41 -4.1186e-41 -1.9538622e-10 -4.999e-41 5.5906e-41 -5.4225e-41 1.3949499e-10
-4.9642e-41 5.6677e-41 6.1004e-41 -5.934e-41 5.446e-41 5.6922e-41 -5.3939e-41 -3.011486e-08
-5.8277e-41 5.3565e-41 -6.2567e-41 -5.0756e-41 -5.6061854e-06 5.1834e-41 5.3937e-41 5.1089e-41
5.2973e-41 -5.5749e-41 -9.153118e-06 -5.7939624e-06 5.075e-41 5.1082e-41 -6.0481e-41 -2.2543136e-07
-5.2823e-41 -5.0665e-41 -5.114e-41 3.457636e-06 5.6562e-41 5.2743e-41 -5.884e-41 9.145704e-07
-5.0493e-41 5.929e-41 6.1303e-41 5.9359e-41 -5.8232e-41 5.5655e-41 -5.5231e-41 5.3148e-41
6.1855e-41 -5.4354e-41 6.1315e-41 5.6775e-41 -5.1418e-41 5.8052e-41 -5.3043e-41 -5.1761e-41
4.909e-41 5.3782e-41 -5.2745e-41 4.913e-41 5.3304e-41 -5.0941e-41 -5.6427e-41 -5.3513e-41
-5.0531e-41 -5.9891e-41 5.9552e-41 4.9746e-41 -5.5545e-41 -5.5093e-41 5.7214e-41 5.1777e-41
4.924e-41 4.9994e-41 4.9299e-41 5.01e-41 -5.0166e-41 -5.1468e-41 -5.0577e-41 -1.2068781e-12
5.3157e-41 5.1854e-41 5.3443e-41 -5.0266e-41 8.8429075e-10 -5.0088e-41 5.0112e-41 5.0881e-41
5.1814e-41 5.0102e-41 3.5213993e-10 7.2698236e-10 5.6732e-41 -5.4488e-41 5.0619e-41 1.1907014e-11
-5.1136e-41 5.0084e-41 -5.2015e-41 -1.7676989e-09 -5.0796e-41 -5.1946e-41 5.4928e-41 -3.70876e-10

fno_blocks.fno_skips.3.conv.weight f4 [32, 32, 1]
00000000: 1f48 fbb1 caee ef32 0b74 862f 5d05 ba36
00000010: 91d8 713c 46da 593b b081 94bb 5462 6bbc
00000020: dfb7 733b 8e30 793c 6ce3 e7b8 0f85 59bc
00000030: 36f6 53bd 69c2 da35 98a9 a436 d571 0fbc
00000040: 4edf b13b 3a86 b937 2374 093d 4899 38bd
00000050: 1b15 803c 3e77 37bc 1522 d9bc 133d a7bc
00000060: 5b14 4c3c 06a0 6ab3 6e60 0e3c 41f2 23be
00000070: 8c53 4338 f5b4 6036 1f2f 743b a216 8b3b
00000080: d729 ccb0 0f7f c132 037d f3ae c41b 59b4
00000090: 93f2 5cbc f900 e2bb 38c9 0f3c d298 353c
000000a0: cd68 03bc 55a2 62bc 2423 2c39 35b3 403c
000000b0: 021c b7bd 0f01 2d35 ce89 bbb3 6685 303c
000000c0: 5f2a 17bc b6b3 00b8 d627 f3bb 7f06 d73d
000000d0: cbe2 5fbc f080 553c 3850 853c 828d 733c
000000e0: ca38 54bc d4a8 6933 d34e 2dbc 7523 8ebe
000000f0: 9333 2bb9 9ef0 01b4 9c9d f1bb 96f8 883c
00000100: 7e6a 8cb1 a2ae e932 fbe4 812e 4f5d d835
00000110: fdf1 0e3c 03a5 1d3b 2070 8bbb 07d6 23bb
00000120: 517d 523b 0c4c fa3b f04e b1b8 06a8 f6bb
00000130: 5a71 a23d a95c cf35 87c5 0e36 3155 b8bb
00000140: b270 8c3b 3fb4 9337 b378 b5bd 772e 7e3d
00000150: 55a1 143c bb85 1fbc e692 49bc 8cd0 f1bc
00000160: 6207 133c c5a3 2cb3 7c86 ba3b 9980 a83d
00000170: 2140 bf38 3ac9 6b35 fad7 313b c8fe 923c
00000180: 67a1 e6b0 2841 19b2 53cc 94ac 253e d0b4
00000190: 0635 f23b 52ac 843a 0a87 e1ba a677 52bb
000001a0: 52fa ae3a 3d88 f03b f492 81b6 14ab 96bb
000001b0: 85ac 823e f10f cab4 20fa aa33 bfc7 75bb
000001c0: e0d6 0c3b 5d4f b236 ff46 483e aa90 b33c
000001d0: df2c fa3b 81b1 bebb 0fed 26bc f14d 16bc
000001e0: b77d c53b 1342 38b2 a19a 723b 14be a13d
000001f0: 7060 9438 78d2 b4b4 0e78 973a f0e0 c03c
00000200: 52e4 b0b1 a699 3633 1f1f 4f2f e153 23b7
00000210: 1dec 003c 1679 d2ba b7c3 8b3a 4494 6dbb
00000220: 0c49 beba e2d1 b83b f6e3 03b9 6281 c9bb
00000230: 674f aebd 1582 3a36 12fd 01b7 4cef 16bb
00000240: b8ad ccb9 2a69 ee37 0933 343d aa12 d8bc
00000250: 3942 f93b cf40 7fb9 d7e5 dabc 147b f33c
00000260: 975d aa3b c012 8db3 9056 ff3a a2d4 96bb
00000270: f52d df38 96d0 c5b6 12ac afba 2ee8 883c
00000280: f9f9 9e30 da4e 24b3 62fb 3a2e 4742 1634
00000290: 0275 c03b 2123 e23a 2309 1dbb b107 a4bb
000002a0: cf6b 093b d130 c53b 9dee 0ab9 ca61 94bb
000002b0: 1c0f e03d 1d80 bfb5 c1ab b133 d310 68bb
000002c0: 77df 2d3b 8d57 1938 d2c6 09bd c808 16be
000002d0: 9329 c63b 9faa a4bb 6ddc 0cbc 8282 2eba
000002e0: fd1e a63b 4716 a0b3 e153 623b be33 bf3d
000002f0: 6704 bd39 c975 c133 e497 f23a cc80 d3bc
00000300: 37e7 2331 efce c130 354e 562e cc83 b8b5
00000310: 37c4 2b3c 53ba d63a 43f3 91ba e1c4 0ebd
00000320: 9854 933a be61 b53c ec0d 1136 643f 723c
00000330: 949e 61bd 4c7e e830 3ab5 a1b5 d799 2ebc
00000340: be76 2e3b 62cf 26b6 2185 873d e636 25bd
00000350: a346 453c 90d2 81bc 8380 6c3c 6da3 5f3d
00000360: efb4 0e3c 66eb b031 3a33 6e3b 571a 15be
00000370: 9e53 b7b8 71cc e9b4 cad2 dd3a 974b 953c
00000380: 3c2d 1c30 3960 ef32 e356 712f dd6b 9234
00000390: 1071 6e3c 11ac 1eba cbfd 64ba 0e52 b1bb
000003a0: a6c3 76b9 00dc 7a3c ecac 15b9 fbfb 2abc
000003b0: edf1 e63d cdd2 e335 59ac 9934 b982 b5bb
000003c0: 1452 b63a 6dd1 e037 bef0 723d 3aae 52bc
000003d0: 49c6 7c3c af16 3dbc 1c28 c4bc 977c febc
000003e0: 4b4f 343c 4752 8db3 ebc1 a43b 70dd c1bd
000003f0: c771 a838 a293 2934 a434 f4b9 ea60 02bc
-7.3132607e-09 2.793185e-08 2.4456911e-10 5.5438563e-06 0.014761106 0.0033241673 -0.0045320615 -0.014366705
0.0037188453 0.01520933 -0.00011057299 -0.013276353 -0.051748477 1.6298847e-06 4.907324e-06 -0.008755167
0.0054282313 2.2116223e-05 0.033558022 -0.045068055 0.015635064 -0.011197863 -0.02650551 -0.020414865
0.012456025 -5.462791e-08 0.008689983 -0.16010381 4.6569432e-05 3.3483932e-06 0.0037259532 0.0042446414
-1.4854845e-09 2.2525937e-08 -1.1072567e-10 -2.0219801e-07 -0.013485569 -0.0068970886 0.008776002 0.0110837985
-0.008020592 -0.013832648 0.00016416289 0.011761476 -0.08940889 6.444906e-07 -8.7329326e-08 0.010773992
-0.009226411 -3.0684947e-05 -0.0074205203 0.10499286 -0.0136649115 0.013031229 0.016273603 0.014865281
-0.012952993 5.440309e-08 -0.010577875 -0.27761427 -0.00016327044 -1.2101597e-07 -0.007373525 0.016720098
-4.086643e-09 2.7204184e-08 5.906916e-11 1.612041e-06 0.008724687 0.0024054653 -0.0042553097 -0.0024999396
0.0032118151 0.00763846 -8.454721e-05 -0.007527354 0.07931776 1.544967e-06 2.1274625e-06 -0.00562539
0.0042858953 1.76077e-05 -0.08860912 0.06205603 0.009071668 -0.009736474 -0.01230309 -0.029518388
0.008973928 -4.019582e-08 0.0056923013 0.08227653 9.119535e-05 8.7837145e-07 0.0027136789 0.017943755
-1.6780576e-09 -8.920587e-09 -4.2290975e-12 -3.8788235e-07 0.007391575 0.0010122156 -0.0017206382 -0.0032114773
0.0013349748 0.0073404596 -3.861607e-06 -0.004598031 0.25522247 -3.763703e-07 7.9617394e-08 -0.003750309
0.002149038 5.3140525e-06 0.19558333 0.021919567 0.0076347436 -0.0058195 -0.010188355 -0.009173856
0.0060269493 -1.0725233e-08 0.0037018436 0.07897583 7.075153e-05 -3.368075e-07 0.0011556165 0.023544759
-5.148231e-09 4.251492e-08 1.8837597e-10 -9.735087e-06 0.007868794 -0.0016057815 0.0010663186 -0.0036251703
-0.0014517619 0.0056402544 -0.00012578056 -0.006149457 -0.085112385 2.7791878e-06 -7.747922e-06 -0.0023030816
-0.00039039343 2.8420782e-05 0.043993983 -0.026376087 0.0076067713 -0.00024342838 -0.026720924 0.029721774
0.005199145 -6.569235e-08 0.0019480754 -0.0046029845 0.00010642029 -5.89534e-06 -0.0013402721 0.016712274
1.156706e-09 -3.825594e-08 4.2514776e-11 1.399395e-07 0.0058733234 0.0017252901 -0.0023961745 -0.0050057997
0.00209688 0.0060177823 -0.00013249596 -0.004528259 0.10940382 -1.4267895e-06 8.2734466e-08 -0.0035410419
0.00265309 3.655958e-05 -0.033636875 -0.14651787 0.0060474365 -0.0050252224 -0.0085974755 -0.00066570204
0.005069612 -7.454633e-08 0.003453486 0.09336041 0.0003605217 9.008688e-08 0.0018508402 -0.025818251
2.3851052e-09 1.4101412e-09 4.872743e-11 -1.3747426e-06 0.010483793 0.0016382433 -0.001113512 -0.034855727
0.0011240421 0.022141334 2.1614787e-06 0.014785621 -0.055082873 1.6916117e-09 -1.2048179e-06 -0.010656795
0.0026621069 -2.485664e-06 0.06617189 -0.04033556 0.012040767 -0.015847474 0.014434936 0.054599214
0.00871013 5.149036e-09 0.0036346451 -0.14560829 -8.741695e-05 -4.3548383e-07 0.0016923782 0.01822452
5.681675e-10 2.7867019e-08 2.194969e-10 2.72731e-07 0.014553323 -0.00060528616 -0.0008735328 -0.005411393
-0.00023533273 0.015311241 -0.00014274166 -0.010436053 0.112766124 1.6974169e-06 2.862387e-07 -0.005539265
0.0013909959 2.6800402e-05 0.05931162 -0.012858922 0.015428134 -0.011541053 -0.023944907 -0.031065268
0.011005233 -6.58079e-08 0.0050279996 -0.09466064 8.032057e-05 1.579306e-07 -0.00046578527 -0.007957676

fno_blocks.channel_mlp.0.fcs.0.weight f4 [16, 32, 1]
00000000: f28d b23c 2f01 6c3c 4225 e53b a113 81bd
00000010: 604a 27bb e1ed c43c fca2 be3d da6a 723c
00000020: 5dc3 dabc 7fd3 d33d 5818 d5bc 32ba 2a3e
00000030: e4e1 cc3c d0a9 a43d 7179 7abd 821e d53d
00000040: b97a 3f3d f3eb 4abd 9e2d 363e 873c 623d
00000050: 2d53 893d e4ec d53d f18e 44bd e283 d9bc
00000060: b1ce cbbc b2f0 e2bd cc46 5b3c 2069 debc
00000070: 6a03 dcbc f894 70bd 91c2 8dbc ff86 b3bd
00000080: 4b0f da3d 47de 31bd 77a1 63bd 3066 b7bd
00000090: c77d efbd ac4e 6cbd 1517 6b3e 7616 f5bd
000000a0: 9332 43bd dbc8 c1bb 8821 1ebd 61e3 683e
000000b0: 13ce 4fbe 0a00 6e3e 2eb5 1bbe ec83 063e
000000c0: 73e8 8e3e 5c8c 473b 68d9 133e e2df 063d
000000d0: a188 9f3d 887c 0b3d ffe7 c9bb 43ae 6ebd
000000e0: 2d3f e7bd 7dd3 c7bd 680b be3d f581 4cbd
000000f0: 365d 29bd 7eec beba 674c 7cbd ff7a d4bd
00000100: bbcc b3bd de3a edbd baff 3a3e c1ac 30bc
00000110: 5014 16bd cb2e 203d d665 8fbc 21c8 4fbd
00000120: 8445 38bd 2dd6 67be 97a2 20bd b510 47be
00000130: b937 33bc 5061 ab3d b3b7 8f3e 8e14 75be
00000140: f7c7 89bb b82c c8bc cdc3 7abe 7fac 0abc
00000150: f372 9cbe 4725 953d 8048 65bb 66a2 90bd
00000160: b1c9 8bbd aa7b 933e 57ab 96bd 0e4a 14bd
00000170: 93ec 14bd ae0a 46bb e22e 72bd 62a6 353e
00000180: c3d2 5dbd 0cfa a8bd 4a1f 893e d326 0ebc
00000190: 7e78 4fbb bc17 5abb 2361 b03d df5e 1c3d
000001a0: 6598 443c 626a 69be 368b 803c 5956 48be
000001b0: def1 b03a 3a51 653c 0423 723e 78e0 93be
000001c0: 449d 84bd 592a 8c3c dd2a 8fbe 20dc 083e
000001d0: 200f 80be ca7a 5a3c cc85 0ebb 6e99 1bbc
000001e0: 6ea1 b23c 6d86 9d3e b498 13be dffd bf3b
000001f0: 6036 653c 7c52 16bd 4faa 923c 6929 973e
00000200: d3ef f03b eeae 79bd de71 933d 4fd1 8fbd
00000210: 08cd 92bd 5f08 87bd 6ea8 383e bb9c 8cbb
00000220: f768 a33b 7fd3 3cbe 4b07 0a3c f262 2e3d
00000230: 35f7 843c ee6a e53d d2ca 60bd 671e f6bd
00000240: b1f1 c4bc 69be 9b3b 2c30 a3bd 6b23 c13d
00000250: 18dd f5bd 44bc b63d e41e 85bc 33a5 10bc
00000260: 09de debd 2198 2c3e 8f59 37bd 1084 dc3b
00000270: 950c 713b 1e55 80bd b7ae 773a b792 2c3e
00000280: 3196 1bbd 72af e13c ab9a b0bc 38de faba
00000290: 67e8 383c 6318 563d b853 b13d 9090 9ebb
000002a0: 90e9 42bc f93a 3e3e 7ff4 8ebc 06d7 1bbd
000002b0: eff7 0d3d 4669 023d 6328 483d 78bf c93d
000002c0: 8756 9d3a 1412 4abd 762e 9e3d 3a01 913d
000002d0: a189 263e ff3f b03b 2696 12bd 82d9 b6bb
000002e0: 377e 343c af2d 20be 1d9d bbbc 7141 5bbc
000002f0: 6582 2cbc 56ce fabc f258 07bc 1be6 dcbd
00000300: f201 cf3d ecbe aebd 8229 4fbd e810 c5bd
00000310: d29b 08be face cebd 4f2f 743e 7328 aebd
00000320: 1771 c4bc 4e5b 2ebe 16c6 a7bc bb29 2c3e
00000330: 47a8 aebd 1ff4 6f3e a1c2 5fbe e41c b8bc
00000340: 5bfe d53d f15f d2bb a90e 11bc ce7a c03d
00000350: 4fb6 87bd c770 e23d 44c9 57bc a4e2 50bd
00000360: c323 1cbe 1af2 103e af8f 183d ada4 a9bc
00000370: 4545 9fbc 70cb 0cbd 1a00 25bd 255c f63d
00000380: 2296 ab3c 48fd a8bd 94d8 063d c105 b7bc
00000390: 7bdd 20bd d938 d03c bdf9 de3d 222d 31bd
000003a0: 705b 03bd e4e2 6dbe 39be 16bd 1d1f 07be
000003b0: 8352 91bc ffeb 613c 6e41 643e 8a65 63be
000003c0: 72c6 fabc 91b7 5f3c 6ca7 53be ec63 153d
000003d0: 65c9 82be 8d87 b13c 11e1 60bc a4dd 29bd
000003e0: 8775 023c c382 473e ab0a b2bd bef0 20bd
000003f0: dac4 86bc 5a49 47bd c6e6 19bd fb00 293e
0.0217962 0.014404579 0.006992967 -0.06302572 -0.0025526509 0.02403921 0.093084306 0.014795983
-0.026704485 0.10343074 -0.026012585 0.1667259 0.025010057 0.08040202 -0.06115097 0.104062095
0.046747897 -0.049541425 0.17790839 0.055233505 0.06705318 0.10445574 -0.047987882 -0.026552144
-0.024878832 -0.11081065 0.0133835785 -0.027149737 -0.026857097 -0.058735818 -0.01730469 -0.08765983
0.10647448 -0.04342487 -0.055573907 -0.089550376 -0.11693912 -0.057692215 0.22958024 -0.11967175
-0.047655653 -0.0059138364 -0.038606197 0.22742988 -0.20293455 0.23242202 -0.15205833 0.13136262
0.2791172 0.003044865 0.14438403 0.032928355 0.07789732 0.03405431 -0.0061616893 -0.058271658
-0.11291347 -0.09757135 0.09279519 -0.049928624 -0.04134866 -0.001456633 -0.0615963 -0.10375022
-0.087792836 -0.11583494 0.18261614 -0.010783375 -0.036640465 0.039107125 -0.017504614 -0.050727967
-0.04498817 -0.22640295 -0.039217558 -0.19439967 -0.010938578 0.0836817 0.2806984 -0.23933622
-0.004204746 -0.024435386 -0.24488755 -0.008463978 -0.3055645 0.07282501 -0.003498584 -0.07062225
-0.06825579 0.28805286 -0.07356899 -0.036203437 -0.036358427 -0.0030218768 -0.059126742 0.17739251
-0.054156076 -0.08250818 0.26781684 -0.008676249 -0.0031657512 -0.0033278307 0.08612277 0.038176414
0.011999224 -0.22794488 0.015691381 -0.19564189 0.0013499816 0.013996417 0.2364617 -0.28882194
-0.064753085 0.017110037 -0.2796239 0.13365221 -0.2501154 0.013334939 -0.002174723 -0.00949703
0.021805491 0.3076662 -0.1441372 0.005859121 0.013990015 -0.036699757 0.017903475 0.2952378
0.007352808 -0.06095784 0.07199453 -0.07022344 -0.07168013 -0.065933935 0.18033001 -0.0042911447
0.004986878 -0.18440054 0.00842459 0.04257483 0.016231159 0.11202036 -0.054880925 -0.120175175
-0.024041029 0.0047529233 -0.079681724 0.094305836 -0.12005061 0.089226276 -0.016250081 -0.008828449
-0.108821936 0.16854908 -0.044763144 0.0067296103 0.003678118 -0.06266235 0.0009448337 0.16852842
-0.03798503 0.02754948 -0.021558126 -0.0019139713 0.011285878 0.05226935 0.08658546 -0.0048390105
-0.011896506 0.18577184 -0.01745057 -0.03804686 0.034660276 0.031838678 0.04886664 0.09850973
0.0012003937 -0.049333647 0.077237055 0.07080312 0.16263439 0.0053787227 -0.035787724 -0.005580128
0.01101642 -0.15642427 -0.022902066 -0.013382302 -0.010529135 -0.030615967 -0.008260952 -0.10786077
0.10107793 -0.08532509 -0.050576694 -0.09622365 -0.1334069 -0.100980714 0.23846172 -0.08503809
-0.023979707 -0.17027017 -0.020480197 0.16812794 -0.0852819 0.23432969 -0.21851589 -0.022474714
0.10448905 -0.0064201285 -0.008853593 0.09398423 -0.066265695 0.11056667 -0.013170544 -0.05099739
-0.15248017 0.14154854 0.037246402 -0.020708406 -0.01944221 -0.0343737 -0.0402833 0.12029294
0.020945612 -0.082514346 0.03292139 -0.02234161 -0.03927372 0.025417732 0.108874775 -0.043255933
-0.032069623 -0.23231083 -0.036802504 -0.13195463 -0.01773954 0.013789176 0.22290584 -0.22206703
-0.030612204 0.0136546055 -0.20669335 0.036472246 -0.25544277 0.021671081 -0.013725535 -0.04147114
0.007962591 0.19483475 -0.08693441 -0.03929209 -0.016451288 -0.048653938 -0.0375736 0.1650428

fno_blocks.channel_mlp.0.fcs.0.bias f4 [16]
00000000: 58e2 e63c 2f56 073e 5fdc 543e 1e40 cfbb
00000010: 42df 2b3d a57b 53bd f017 b53c 6985 ff3c
00000020: a3a7 fb3c c6cb 02bd 650c 3e3d 7142 953c
00000030: 9d36 783d c2ae f8bc 2196 9ebd 3dc4 cd3d
0.028184101 0.1321647 0.2078719 -0.006324782 0.041960962 -0.05163159 0.02210614 0.031191545
0.030719584 -0.031932615 0.04639854 0.018220158 0.06059896 -0.030356769 -0.077434786 0.10047195

fno_blocks.channel_mlp.0.fcs.1.weight f4 [32, 16, 1]
00000000: fd94 0000 f38a 0080 d78c 0000 ec8a 0000
00000010: 228d 0000 7590 0000 438d 0080 7b8e 0000
00000020: e098 0080 cd89 0080 e78d 0080 3f90 0080
00000030: 0491 0000 b98b 0080 2b8a 0000 3a8a 0080
00000040: 9e93 0080 1a8c 0000 218f 0000 558e 0080
00000050: ec8a 0000 0999 0000 6a8b 0080 778e 0000
00000060: 848d 0000 3793 0080 5fa8 0000 d389 0000
00000070: 689d 0000 8989 0080 7e8c 0000 f990 0080
00000080: 6a8f 0000 3d8a 0000 618a 0080 6f89 0080
00000090: 3989 0000 768c 0080 568d 0000 2089 0000
000000a0: a28f 0000 918b 0080 e48c 0080 a695 0080
000000b0: d489 0000 348b 0080 b289 0000 fe88 0080
000000c0: af9d 0000 bf89 0000 468a 0000 4e8b 0000
000000d0: f98b 0000 868d 0000 c08e 0000 df8d 0080
000000e0: 8290 0000 c48c 0080 999d 0080 35aa 0000
000000f0: 738e 0000 cb8d 0000 1f89 0000 eb8f 0000
00000100: 0990 0080 5a8f 0080 578a 0080 5989 0080
00000110: ef8a 0080 aa8e 0080 1889 0000 f589 0000
00000120: ba8a 0000 498c 0000 098a 0000 f091 0000
00000130: ae8f 0000 7b8a 0080 f189 0000 a889 0080
00000140: 5a68 0080 6b89 0080 3d8b 0080 038a 0080
00000150: c18f 0080 bd72 0000 1f8a 0080 ba89 0080
00000160: 3b8b 0080 db88 0080 f167 0080 e08f 0080
00000170: 7792 0080 e988 0080 ad8a 0080 c988 0080
00000180: f998 0000 d28d 0000 398c 0000 648a 0080
00000190: c58c 0080 735e 0000 e08a 0080 0e8e 0000
000001a0: b18f 0000 e86e 0000 668a 0080 f888 0000
000001b0: 828f 0000 0b8a 0080 0889 0000 b989 0080
000001c0: f51f 1d3c 5ee8 a53b 35f1 87ba 6727 1ebb
000001d0: eed6 51bb 538c 1bba c1dd 93bb eec7 2dbb
000001e0: b2f6 ba3b f40a 08ba 4529 d8b8 4b80 7d3b
000001f0: f2a2 0c3b e002 5fba d4a3 a73c a377 35bb
00000200: a790 0080 dd8b 0080 5e89 0080 dd88 0080
00000210: ac89 0000 d589 0080 2d89 0080 af89 0080
00000220: 7191 0000 868c 0000 f88b 0080 1c8a 0080
00000230: a78e 0080 5889 0080 9189 0080 8989 0080
00000240: e489 0000 588b 0080 458e 0000 2699 0080
00000250: bf89 0000 308a 0080 0889 0080 a88c 0000
00000260: e78a 0080 078d 0080 d19d 0080 2c89 0080
00000270: 7b8f 0000 ba89 0000 e289 0080 6d8d 0000
00000280: dcac 0080 1a90 0080 a98b 0080 2b8a 0000
00000290: c28f 0080 f78c 0080 2f90 0000 558d 0000
000002a0: 958d 0080 1889 0000 7789 0080 2991 0080
000002b0: ce8b 0000 f88d 0080 2b8c 0080 f58c 0000
000002c0: eb8c 0080 5f89 0000 ea95 0000 8989 0000
000002d0: 068b 0080 51a3 0000 678a 0080 938b 0000
000002e0: 0499 0080 2e8b 0000 b28d 0000 7494 0000
000002f0: 1499 0000 4b89 0000 37ae 0000 2c8a 0080
00000300: d0d0 69bd 1a79 3cbd 0473 853e 6593 d43e
00000310: 2396 af3e 606e 4fbe a8d3 a53e f380 a63e
00000320: 686c 55be 082d 44bf 0add 02bd 15e7 99bd
00000330: 6c47 babe 94de ca3d 8774 f6be fc01 bd3e
00000340: a73f 0080 4d8b 0000 eb8b 0000 ea88 0080
00000350: ef8e 0000 8d8d 0080 578a 0000 f08a 0080
00000360: 7d90 0000 f18e 0000 5e8c 0080 938c 0000
00000370: 1a8a 0000 088a 0080 0089 0000 d589 0000
00000380: 7c91 0080 078d 0080 ad8a 0080 8d89 0000
00000390: ea89 0000 b489 0080 d58e 0080 448c 0080
000003a0: e48f 0080 d08e 0080 6f8a 0000 3290 0080
000003b0: bb8b 0080 be88 0080 4e89 0000 238a 0080
000003c0: 009f 0080 958d 0080 f48a 0000 cc89 0000
000003d0: 5f8b 0080 e18e 0080 c588 0000 b089 0080
000003e0: c48c 0000 4a8a 0000 ab8c 0000 1290 0080
000003f0: bb8a 0000 a48a 0000 d488 0000 748a 0000
5.3447e-41 -4.9846e-41 5.0524e-41 4.9836e-41 5.0629e-41 5.1821e-41 -5.0675e-41 5.1112e-41
-5.4841e-41 -4.9434e-41 -5.0905e-41 -5.1746e-41 5.2022e-41 -5.0123e-41 4.9565e-41 -4.9586e-41
-5.2955e-41 5.0259e-41 5.1345e-41 -5.1059e-41 4.9836e-41 5.4899e-41 -5.0012e-41 5.1107e-41
5.0766e-41 -5.2811e-41 6.04e-41 4.9442e-41 5.6467e-41 -4.9338e-41 5.0399e-41 -5.2006e-41
5.1447e-41 4.959e-41 -4.9641e-41 -4.9302e-41 4.9226e-41 -5.0388e-41 5.0702e-41 4.9191e-41
5.1526e-41 -5.0067e-41 -5.0542e-41 -5.3684e-41 4.9443e-41 -4.9937e-41 4.9396e-41 -4.9144e-41
5.6566e-41 4.9414e-41 4.9603e-41 4.9973e-41 5.0213e-41 5.0769e-41 5.1209e-41 -5.0894e-41
5.184e-41 -5.0497e-41 -5.6535e-41 6.1059e-41 5.1101e-41 5.0866e-41 4.919e-41 5.1628e-41
-5.167e-41 -5.1425e-41 -4.9627e-41 -4.9271e-41 -4.984e-41 -5.1178e-41 4.918e-41 4.949e-41
4.9766e-41 5.0325e-41 4.9518e-41 5.2353e-41 5.1543e-41 -4.9677e-41 4.9484e-41 -4.9382e-41
-3.7434e-41 -4.9296e-41 -4.9949e-41 -4.9509e-41 -5.1569e-41 4.116e-41 -4.9549e-41 -4.9407e-41
-4.9946e-41 -4.9094e-41 -3.7287e-41 -5.1613e-41 -5.2542e-41 -4.9114e-41 -4.9747e-41 -4.9069e-41
5.4876e-41 5.0876e-41 5.0302e-41 -4.9645e-41 -5.0499e-41 3.3882e-41 -4.9819e-41 5.096e-41
5.1547e-41 3.9786e-41 -4.9648e-41 4.9135e-41 5.1481e-41 -4.952e-41 4.9158e-41 -4.9406e-41
0.009590139 0.0050631007 -0.0010371568 -0.0024132372 -0.0032018977 -0.00059336907 -0.004512519 -0.0026516872
0.005705678 -0.00051896204 -0.0001030737 0.0038681205 0.0021459428 -0.00085072033 0.020463862 -0.0027689717
-5.1891e-41 -5.0173e-41 -4.9278e-41 -4.9097e-41 4.9387e-41 -4.9445e-41 -4.921e-41 -4.9392e-41
5.2175e-41 5.041e-41 -5.0211e-41 -4.9544e-41 -5.1174e-41 -4.927e-41 -4.935e-41 -4.9338e-41
4.9466e-41 -4.9987e-41 5.1037e-41 -5.494e-41 4.9414e-41 -4.9572e-41 -4.9158e-41 5.0458e-41
-4.9829e-41 -5.0591e-41 -5.6614e-41 -4.9208e-41 5.1471e-41 4.9407e-41 -4.9463e-41 5.0734e-41
-6.201e-41 -5.1694e-41 -5.01e-41 4.9565e-41 -5.157e-41 -5.0569e-41 5.1723e-41 5.07e-41
-5.079e-41 4.918e-41 -4.9313e-41 -5.2074e-41 5.0152e-41 -5.0929e-41 -5.0283e-41 5.0566e-41
-5.0552e-41 4.928e-41 5.3779e-41 4.9338e-41 -4.9872e-41 5.8587e-41 -4.965e-41 5.007e-41
-5.4892e-41 4.9928e-41 5.083e-41 5.3255e-41 5.4914e-41 4.9251e-41 6.2497e-41 -4.9567e-41
-0.057083905 -0.04601393 0.26064312 0.41518703 0.34294233 -0.20256948 0.32388043 0.32520255
-0.20842135 -0.7663121 -0.03194908 -0.075147785 -0.36382616 0.09905735 -0.48135778 0.36915576
-2.2834e-41 4.9972e-41 5.0193e-41 -4.9116e-41 5.1275e-41 -5.0779e-41 4.9627e-41 -4.9841e-41
5.1833e-41 5.1278e-41 -5.0354e-41 5.0429e-41 4.9542e-41 -4.9516e-41 4.9146e-41 4.9445e-41
-5.219e-41 -5.0591e-41 -4.9747e-41 4.9344e-41 4.9474e-41 -4.9399e-41 -5.1238e-41 -5.0318e-41
-5.1618e-41 -5.1231e-41 4.966e-41 -5.1728e-41 -5.0126e-41 -4.9054e-41 4.9256e-41 -4.9554e-41
-5.7038e-41 -5.079e-41 4.9847e-41 4.9432e-41 -4.9997e-41 -5.1255e-41 4.9064e-41 -4.9393e-41
5.0497e-41 4.9609e-41 5.0462e-41 -5.1683e-41 4.9767e-41 4.9735e-41 4.9085e-41 4.9668e-41

fno_blocks.channel_mlp.0.fcs.1.bias f4 [32]
00000000: 9489 0000 968a 0080 168a 0080 c388 0080
00000010: 4489 0000 968a 0080 7a8a 0000 6944 773b
00000020: bb89 0080 178a 0000 3d89 0080 cc89 0000
00000030: 92b4 7d3e c289 0080 3589 0000 2789 0080
00000040: d889 0080 628b 0000 efc5 833e b33a 1a3e
00000050: caae 0000 e888 0080 3789 0000 5e96 fa39
00000060: e688 0080 e488 0080 4b8a 0080 70db 283e
00000070: d288 0000 6d89 0080 0589 0000 a043 143e
4.9354e-41 -4.9715e-41 -4.9536e-41 -4.9061e-41 4.9242e-41 -4.9715e-41 4.9676e-41 0.0037729985
-4.9408e-41 4.9537e-41 -4.9232e-41 4.9432e-41 0.24775913 -4.9418e-41 4.922e-41 -4.9201e-41
-4.9449e-41 5.0001e-41 0.2573695 0.15061454 6.2703e-41 -4.9113e-41 4.9223e-41 0.00047795748
-4.911e-41 -4.9107e-41 -4.961e-41 0.16489959 4.9082e-41 -4.9299e-41 4.9153e-41 0.14478922

fno_blocks.channel_mlp.1.fcs.0.weight f4 [16, 32, 1]
00000000: 3b74 1f95 096c 3126 8fd8 611f cc21 381e
00000010: 25bd ec9f fb87 3c1d ca3c e9a4 69ea eb1f
00000020: b56d 0f1d 7252 f90f 35a8 8c9f ab79 b520
00000030: 8d2a d391 ef7c 6f9a 4879 e19e 55d4 259f
00000040: f754 0726 2c1c 561a 19d6 8121 31f9 009f
00000050: 7b2f 479c 8ef6 a41c 45f4 f928 410e d8a1
00000060: 853f e5a1 0e17 2120 967e 8d1f 3a12 b41d
00000070: 4078 f121 fa8c 640f 97d1 491e 0b2b ae1e
00000080: a8f5 20a7 a5f0 86b9 2b53 47b0 e9d2 1bb0
00000090: f05d 2932 3368 f22e 3ef1 a537 58aa 47b3
000000a0: 7f80 f9ad 45c1 6ca1 e7de f232 66b6 a9b3
000000b0: c1ac e824 bda9 d92c 78ab 4731 c6ec 1cb2
000000c0: b5a1 ae36 363b 262c 86a8 3035 89ac d930
000000d0: e8e3 202d d0c7 32ae 5ff2 19ba e0ee 3933
000000e0: 3830 7334 4d82 6db1 97fb d531 6219 28b0
000000f0: 7e46 a1b4 0b0a ef23 e415 c2b0 0025 ebb0
00000100: aeb7 d698 ee35 a028 40fd b3a1 4fe6 0923
00000110: 970c 46a5 f05f da21 7f92 dba7 262f 89a4
00000120: 0b3e e5a0 77d9 2d14 767f 8aa4 de42 6525
00000130: c138 6c96 65a0 869f fc51 8fa3 13cc 6ca2
00000140: d41b 652b 86cd 431e 884f 4925 a067 d4a3
00000150: 2995 0ea1 3f75 cb21 dfa4 47ad 7633 3ea6
00000160: b33b 00a7 16b1 0a24 804d a824 0703 c422
00000170: 631d 6626 b932 3195 3e44 9c22 c375 0f23
00000180: a954 121e 7dcc 1bb1 021c b1a7 b596 36a8
00000190: c966 872a 6782 aca6 c963 332f 0b42 b6aa
000001a0: bb52 8e24 9fd6 a399 8928 aa2a 96d7 43ab
000001b0: c62a c91c 5fde 1f23 f3c2 3329 2ba7 95a9
000001c0: 0aab faaf 91a7 faa3 3573 452c 2034 9328
000001d0: fb73 2926 3e5a 0da7 987a 62b2 ba49 f02a
000001e0: 4235 992c 8e27 8aa9 d7bc 83a9 acb3 32a8
000001f0: f583 c7ab 7e75 b499 8e22 83a8 fc44 8da8
00000200: e23e e31d 7575 052f 3630 18a7 c8c0 23a8
00000210: 8ad4 b02a 51f9 18a7 0955 e2ad f461 802a
00000220: e2bc 2d26 52cb 3e99 7818 8628 bf91 67aa
00000230: accf c71b 14ea 6d24 f66d d128 f32a 7e28
00000240: 5644 a1b0 58ca 96a3 cbe4 e6ab 362d 1729
00000250: c7d0 5826 f9f0 f7a6 a46b 0f33 5e3d 2d2b
00000260: d379 032c 91dd 5ca9 b3fc cba9 db1e daa7
00000270: 9f34 96ab 3bba c51a 8cb7 91a5 be95 05a8
00000280: 1bd8 1027 656a 9738 9425 9dae 7fa0 742f
00000290: dba1 4fb1 0dfd 2fae b0d0 c0b6 5f18 9932
000002a0: d63e 442d 5414 4021 1bec 27b2 4b72 3933
000002b0: 2715 7ea4 fa49 ceac f309 4bb0 bbf5 b831
000002c0: 2aff 04b7 f6e2 35ac c602 f3b4 2494 b8b0
000002d0: 7b6d 2da9 a152 8b2d 32d1 7f3b 25d4 51b3
000002e0: 632d fab2 73fb 1a30 fcc1 d7b1 3ba8 a42f
000002f0: 8a36 6334 e407 f6a3 0c78 0430 ab5d 6d30
00000300: 7b78 991d e591 c32f 8cf7 c9a7 5d1f a928
00000310: f506 51aa 84e5 d027 6435 6bae 54e9 d0a9
00000320: 4e18 86a6 2c60 9118 af2a 12aa 6d41 1e2a
00000330: d758 7017 5b8b 1225 a3c4 cfa8 1672 3328
00000340: 9a57 1b30 c4c5 7d24 3c3b 3f2c 7833 1ea9
00000350: 3915 b5a6 0b81 d426 caa8 ccb2 5292 91ab
00000360: 2e2b abac d19d 0029 6454 8f29 6ced f827
00000370: 8bc6 f12a e42c 1f9a 7a01 b827 2c8f b628
00000380: 94f9 2f1a 2c4d 1eac 830b 92a3 cd94 b123
00000390: 8346 14a3 f0ac ca22 72d0 df29 870a 09a6
000003a0: 153c 0ea1 5fb5 df94 1805 8625 3a31 c8a4
000003b0: 8348 8996 1739 b51f ffdc 0223 cd9e 6ea4
000003c0: 0fde aaa9 7773 f59e 46c1 8026 ee0d 85a3
000003d0: beaf 7ba1 4271 eb21 3496 9a2c 8c67 b126
000003e0: 872e cba6 bd9c 64a3 2a06 83a4 5e08 2a23
000003f0: 0ecc 1c27 8317 5d97 1547 f6a2 6247 8023
-3.2201484e-26 6.1555626e-16 4.7824736e-20 9.747868e-21 -1.002628e-19 2.4951893e-21 -1.0115062e-16 9.991417e-20
1.898261e-21 2.4585052e-29 -5.957058e-20 3.0743106e-19 -3.3316154e-28 -4.9524962e-23 -2.3872962e-20 -3.5115746e-20
4.6952683e-16 4.427692e-23 8.798051e-19 -2.731118e-20 -6.5904944e-22 1.0916343e-21 2.7750488e-14 -1.4640502e-18
-1.5534457e-18 1.3644859e-19 5.992524e-20 4.766445e-21 1.6362625e-18 1.1268419e-29 1.06841936e-20 1.8440769e-20
-2.233763e-15 -0.00025737766 -7.2513967e-10 -5.6688393e-10 9.858454e-09 1.10233954e-10 1.978187e-05 -4.6488225e-08
-2.8365086e-11 -8.02157e-19 2.8273872e-08 -7.902854e-08 1.0090662e-16 6.1863557e-12 2.905578e-09 -9.134231e-09
5.2044293e-06 2.3622888e-12 6.5810343e-07 1.5837865e-09 9.145552e-12 -4.0649983e-11 -0.0005872603 4.3290925e-08
2.264868e-07 -3.4562107e-09 6.2277183e-09 -6.1154115e-10 -3.0039877e-07 2.5916685e-17 -1.412158e-09 -1.7109016e-09
-5.5503173e-24 1.7786957e-14 -1.2196547e-18 7.475555e-18 -1.7178028e-16 1.4797649e-18 -6.094354e-15 -5.949415e-17
-3.8835166e-19 8.777155e-27 -6.006389e-17 1.9885239e-16 -1.9081837e-25 -5.701656e-20 -1.5538813e-17 -3.2092e-18
8.139576e-13 1.0365715e-20 1.7460917e-16 -2.3028973e-17 -4.8308883e-19 1.378685e-18 -1.1348449e-11 -6.5989235e-16
-1.7795931e-15 3.0073978e-17 7.2989676e-17 5.312911e-18 7.9837106e-16 -3.5784878e-26 4.235614e-18 7.7769825e-18
7.746683e-21 -2.2671707e-09 -4.9157735e-15 -1.0135709e-14 2.405214e-13 -1.1970243e-15 1.6315406e-10 -3.237552e-13
6.1722834e-17 -1.694049e-23 3.0226193e-13 -6.95771e-13 1.3312121e-21 8.666496e-18 3.9915076e-14 -6.645928e-14
-4.5596266e-10 -2.7176021e-17 2.8059337e-12 1.6342884e-14 5.8790836e-16 -1.9616601e-15 -1.3182806e-08 4.2683722e-13
4.3544343e-12 -6.135293e-14 -5.850327e-14 -9.919945e-15 -1.4176426e-12 -1.8659018e-23 -1.4558907e-14 -1.5684062e-14
6.015142e-21 1.2138009e-10 -2.1120373e-15 -9.09012e-15 3.141136e-13 -2.1229392e-15 -2.5730989e-11 2.2805336e-13
6.0277416e-16 -9.86383e-24 1.48876e-14 -2.0567487e-13 3.3055993e-22 5.1589455e-17 2.325135e-14 1.41091455e-14
-1.1733714e-09 -1.6348728e-17 -1.6405986e-12 3.356795e-14 7.5223e-16 -1.7204384e-15 3.339268e-08 6.154711e-13
1.8683846e-12 -4.904199e-14 -9.058847e-14 -6.054061e-15 -1.0672746e-12 8.177816e-23 -2.5277867e-16 -7.415453e-15
2.0101165e-15 7.2200586e-05 -7.1462086e-11 2.224869e-10 -3.0214469e-09 -4.0015147e-11 -5.7463403e-06 1.7822627e-08
1.11552625e-11 6.5079034e-19 -9.7743635e-09 4.3177618e-08 -5.5095387e-17 -5.863085e-12 -7.386511e-10 5.383041e-09
-7.927223e-06 -2.5847636e-12 -4.5264295e-07 -1.3429866e-09 -3.8508676e-14 1.5839165e-11 0.0039034602 -4.885455e-08
-2.912447e-08 5.6382204e-10 -6.279377e-09 2.995096e-10 2.1160864e-07 -2.6674715e-17 4.8191917e-10 8.635321e-10
4.0623337e-21 3.5573958e-10 -5.6057098e-15 1.877637e-14 -1.8565343e-13 5.798044e-15 -5.3480234e-11 -9.2775315e-14
-9.304706e-16 3.757873e-24 -1.2982214e-13 1.4055918e-13 7.7660314e-25 1.2710697e-16 -2.3066894e-14 9.9612345e-15
5.651316e-10 5.5028144e-17 2.7175614e-12 -3.512769e-14 -1.256515e-15 1.4745432e-15 -2.3825482e-08 -1.0343482e-12
-4.8649062e-12 2.8558593e-14 6.365115e-14 6.909124e-15 4.2947967e-13 -3.2916692e-23 5.107186e-15 2.026815e-14
3.639076e-23 -2.249599e-12 -1.5834227e-17 1.9253398e-17 -8.0380275e-18 5.4935314e-18 9.939349e-14 -4.754569e-16
-4.819099e-19 -2.2588784e-26 2.3248746e-16 -8.681957e-17 -2.2179305e-25 7.675093e-20 7.094112e-18 -5.1742533e-17
-7.5880376e-14 -2.5988139e-20 8.934171e-16 -1.4425788e-17 -8.52747e-19 1.5954199e-18 4.393619e-12 1.2309909e-15
-1.4098566e-15 -1.2393095e-17 -5.6822636e-17 9.21749e-18 2.1759967e-15 -7.1438627e-25 -6.6753695e-18 1.390802e-17

fno_blocks.channel_mlp.1.fcs.0.bias f4 [16]
00000000: 9feb b6a8 2394 94bc 1235 03af f479 a032
00000010: d44e 6133 56a3 5b3d 8afb d8b4 0d5c 4d2e
00000020: af0d bc32 0356 ffb6 316d 9927 e830 853d
00000030: dff1 3c36 2b53 8133 76e4 d53b 0522 9032
-2.0308243e-14 -0.018137043 -1.1933235e-10 1.868191e-08 5.245859e-08 0.053622566 -4.0416154e-07 4.669336e-11
2.1892303e-08 -7.6096053e-06 4.2584416e-15 0.06503469 2.815497e-06 6.022159e-08 0.006527479 1.6779277e-08
