model_checkpoints_naca/naca_fno_final_r4.pth (torch, 463991 bytes, 35 tensors)

fno_blocks.convs.0.bias f4 [32, 1, 1]
-0.0020302283 -0.029942004 0.0760495 -0.05909879 -0.05094775 0.013333254 -0.033220783 0.10987405
-0.03462027 -0.072849594 0.16643342 0.09918097 -0.009382657 0.0020921924 -0.18196084 -0.018893233
-0.12172458 -0.016998092 0.015425532 0.008588408 0.0423296 0.20266235 0.0057523614 0.0056448756
-0.036020014 -0.00047425248 0.14264558 -0.0028285533 0.11242205 -0.060917575 -0.0026549706 0.03670108
00000000: 940d 05bb ef48 f5bc d7bf 9b3d 9311 72bd
00000010: 97ae 50bd b873 5a3c 8412 08bd a505 e13d
00000020: fccd 0dbd 2b32 95bd 866d 2a3e 641f cb3d
00000030: b7b9 19bc 2a1d 093b f153 3abe fbc5 9abc
00000040: bd4a f9bd 953f 8bbc 5fbb 7c3c 65b6 0c3c
00000050: cd61 2d3d b886 4f3e 4e7e bc3b a6f8 b83b
00000060: b989 13bd 17a5 f8b9 af11 123e 405f 39bb
00000070: 883d e63d b584 79bd 04ff 2dbb df53 163d

fno_blocks.convs.1.bias f4 [32, 1, 1]
1.8387616e-11 1.3168292e-12 1.6729366e-11 -1.672354e-05 1.4354906e-14 -1.5913765e-06 2.5335326e-06 -6.2230915e-17
-4.1136796e-13 1.2697199e-05 2.0060994e-17 2.9997514e-07 -5.3199105e-06 4.3136913e-20 1.1909198e-13 -3.086569e-08
-4.937747e-10 -1.198179e-14 1.7584334e-06 1.3806373e-15 2.9780137e-15 9.7173085e-15 4.4341315e-11 3.619268e-14
-1.9752238e-16 -8.5398e-08 -4.290205e-12 5.5229587e-16 4.517e-08 -4.7721993e-13 -4.757188e-12 -1.9459534e-09
00000000: 3bbd a12d c653 b92b 2f27 932d 8749 8cb7
00000010: 294c 8128 4897 d5b5 c205 2a36 a67e 8fa4
00000020: 5f94 e7aa 0e06 5537 af07 b923 450c a134
00000030: af81 b2b6 54b5 4b1f ed15 062a 2f91 04b3
00000040: 4eba 07b0 41d8 57a8 5003 ec35 87f8 c626
00000050: a896 5627 2d0d 2f28 e203 432e 52ff 2229
00000060: 51ba 63a5 0c64 b7b3 bbf2 96ac 3e30 1f26
00000070: f100 4233 5253 06ab f160 a7ac 93b9 05b1

fno_blocks.convs.2.bias f4 [32, 1, 1]
-1.4685053e-14 -1.8839795e-13 1.0530094e-15 4.023488e-10 6.8190286e-14 -1.0068426e-10 -2.7444892e-15 -5.9950044e-14
8.434785e-12 1.4820782e-05 1.9261888e-09 6.89104e-14 7.8128926e-07 -1.2880988e-05 2.8048466e-09 2.16173e-12
-2.1971149e-11 -1.3007881e-13 -2.083197e-07 -2.2840491e-13 -1.6468958e-07 -3.0074494e-05 -2.2176484e-07 1.1699032e-10
2.4769748e-12 5.7696583e-05 -6.1079445e-06 9.748627e-15 -8.39267e-12 -7.5881258e-06 -6.584193e-12 2.5045398e-05
00000000: 6d45 84a8 031e 54aa 31c1 9726 8f31 dd2f
00000010: 068d 9929 3368 ddae e4c2 45a7 d9fe 86a9
00000020: e562 142d c6a6 7837 df5d 0431 242c 9b29
00000030: cab9 5135 6c1b 58b7 62bf 4031 441e 182c
00000040: a142 c1ad aa74 12aa 7cae 5fb4 9e94 80aa
00000050: 87d5 30b4 7c48 fcb7 411e 6eb4 d9a1 002f
00000060: 364d 2e2c 3cff 7138 d8f2 ccb6 9b9d 2f28
00000070: 3aa5 13ad 819d feb6 23a9 e7ac 9518 d237

fno_blocks.convs.3.bias f4 [32, 1, 1]
-0.057553872 -0.203754 -0.06447839 -0.011586696 -0.048970796 -0.15536639 -0.017608026 0.053330388
0.0852914 0.007924407 -0.23701295 0.06984732 0.10287181 -0.098921165 -0.07814794 0.22387624
-0.07890715 -0.18400481 -0.09582718 0.19253275 0.07327861 -0.032971155 0.049352843 0.17722854
0.08888445 -0.22332226 0.10700878 0.19160253 0.16372733 0.32656404 -0.0039579035 -0.043783285
00000000: 9cbd 6bbd e3a4 50be 3f0d 84bd 20d6 3dbc
00000010: 9a95 48bd 5e18 1fbe b53e 90bc f770 5a3d
00000020: 42ad ae3d 5fd5 013c 86b3 72be 1d0c 8f3d
00000030: 75ae d23d 2e97 cabd 070c a0bd d03f 653e
00000040: 129a a1bd c26b 3cbe 0a41 c4bd 4e27 453e
00000050: 1913 963d c30c 07bd 3526 4a3d 667b 353e
00000060: 0d09 b63d 97ae 64be 6b27 db3d 7433 443e
00000070: 23a8 273e 6733 a73e 4db1 81bb 1a56 33bd

fno_blocks.fno_skips.0.conv.weight f4 [32, 32, 1]
-4.5173994e-05 0.034313697 -0.017015006 -0.02338085 -0.021794274 0.01984144 0.029532703 -0.008210509
0.003068844 -9.675722e-05 -0.0035788824 6.527166e-05 0.0031118647 0.01978255 5.318364e-05 8.204154e-05
-0.008971671 0.017817242 -4.190231e-05 -0.019030195 -4.9281903e-06 0.03065305 0.02576184 -0.022313539
0.015475455 0.0028429748 -0.013630939 0.003480902 0.022364317 0.022932699 -0.016876059 -0.004822663
2.0110412e-05 -0.049222924 0.014534584 0.041741174 0.03181722 -0.043893307 -0.030099282 0.011431526
-0.005127488 7.250112e-06 0.0058006854 -0.0020474405 0.0021005496 -0.017088914 -2.4370238e-05 -7.3946003e-06
0.005922875 -0.03325124 -0.00026154376 0.054551426 5.630289e-05 -0.045109127 -0.03727825 0.032087725
-0.008958829 -0.005175947 0.02903306 0.0021072621 -0.041121293 -0.036170844 0.0397103 0.012033543
1.0096738e-05 0.15745467 -0.07306339 -0.103967056 -0.14127654 0.077321306 0.1773431 0.11817432
-0.023548124 -9.072611e-05 -0.13229188 0.0034049544 0.0008609949 0.07238402 4.516677e-05 2.3695262e-05
-0.04091807 0.09771897 6.091798e-05 -0.07479808 -4.8412516e-05 0.16428407 0.16102476 -0.10301544
0.04403323 -0.02334596 -0.008839854 0.0005950619 0.112121575 0.10615218 -0.07040029 0.14807938
2.665586e-06 0.16814913 -0.0539143 -0.10191384 -0.124584265 0.07956125 0.1695694 0.0005853328
-9.081968e-05 -0.00014679339 -0.035017222 -0.0011971034 0.0040769707 0.061619755 -1.2510368e-06 4.5792254e-05
-0.034119155 0.057261027 -0.00021534054 -0.086261965 3.3855554e-06 0.13401589 0.119758576 -0.07202799
0.044073272 0.006025569 -0.041166253 0.003006888 0.09644283 0.081986025 -0.08269989 0.024003012
-4.29962e-05 0.155969 -0.037061036 -0.038344998 -0.067999355 0.08944913 0.19373544 -0.017911647
0.005738864 0.00016454463 -0.03666449 0.0026054098 0.012986647 0.036969937 4.686656e-05 -0.00014235776
-0.009605705 0.06892754 0.00010447078 -0.06297067 8.714604e-05 0.10839939 0.090380386 -0.040215522
0.015406075 -0.005515914 -0.025298763 0.012695949 0.11562968 0.09388451 -0.049652353 0.019137722
-4.5166962e-05 -0.19719335 0.06760874 0.101518944 0.11520064 -0.13840279 -0.18377513 0.06314635
-0.015916247 -9.645996e-05 0.031717084 0.00011078455 -0.004217338 -0.07370312 -3.1713815e-05 7.377764e-05
-0.03363029 -0.099177085 -0.00030835444 0.09569036 5.505958e-05 -0.18613915 -0.15841195 0.11341416
-0.053701185 -0.017981682 0.06395435 -0.0046416908 -0.1911364 -0.15601395 0.062507614 0.030466065
6.925488e-05 -0.42781818 0.18344235 0.3100542 0.35214475 -0.2584806 -0.34148014 0.011712855
-0.0014966661 -1.0087958e-05 0.12565324 0.00864137 -0.021515138 -0.1736417 0.00012861779 4.4843942e-05
0.17748284 -0.15393926 6.388685e-05 0.2630326 -0.00010267957 -0.31564698 -0.28617725 0.18003294
-0.056616563 0.00068668486 0.21750134 -0.012344307 -0.2664276 -0.2159932 0.28440833 0.052887876
-4.2819224e-06 -0.016883768 0.02047056 0.011967377 0.0066231517 -0.0033323246 0.035456803 0.027243884
0.0050214147 -3.8680515e-05 -0.014244304 0.0010304459 -4.496726e-05 -0.024463933 1.9704175e-06 0.00010638663
0.04120795 0.022883432 -6.741637e-06 -0.00807046 -7.734778e-05 0.006784204 0.018068831 -0.0017570071
-0.015136808 -0.0023617176 0.033977658 0.00067013386 0.016120318 -0.0019094585 0.033716295 0.061966028
00000000: 3579 3db8 858c 0c3d 0e63 8bbc 3289 bfbc
00000010: e889 b2bc 848a a23c 91ee f13c 5f85 06bc
00000020: a91e 493b 23ea cab8 af8b 6abb 75e2 8838
00000030: 6df0 4b3b 040f a23c 8011 5f38 b70d ac38
00000040: eafd 12bc 77f5 913c 43c0 2fb8 36e5 9bbc
00000050: d55c a5b6 1b1c fb3c 7f0a d33c e2ca b6bc
00000060: c38c 7d3c 3451 3a3b 4d54 5fbc d81f 643b
00000070: 5f35 b73c 5bdd bb3c a93f 8abc 6e07 9ebb
00000080: c8b2 a837 fa9d 49bd 7722 6e3c cbf8 2a3d
00000090: c652 023d 78c9 33bd c592 f6bc 4c4b 3b3c
000000a0: 7d04 a8bb fd45 f336 ad13 be3b 5a2e 06bb
000000b0: 60a9 093b 0dfe 8bbc b06e ccb7 221f f8b6
000000c0: ad14 c23b 7432 08bd cf1f 89b9 5171 5f3d
000000d0: c526 6c38 59c4 38bd 14b1 18bd 6b6e 033d
000000e0: 0dc8 12bc fe9a a9bb bdd6 ed3c fe19 0a3b
000000f0: cd6e 28bd e127 14bd 44a7 223d 5628 453c
00000100: 2965 2937 cc3b 213e 42a2 95bd aeec d4bd
00000110: ccaa 10be a25a 9e3d 6e99 353e 6105 f23d
00000120: ffe7 c0bc 3644 beb8 8677 07be a825 5f3b
00000130: 64b4 613a 133e 943d 7371 3d38 30c5 c637
00000140: b599 27bd e220 c83d 2f82 7f38 bc2f 99bd
00000150: 8b0e 4bb8 153a 283e ade3 243e c2f9 d2bd
00000160: 305c 343d 0740 bfbc 09d5 10bc eefd 1b3a
00000170: ff9f e53d 5066 d93d 072e 90bd 1fa2 173e
00000180: 6be2 3236 492f 2c3e 3ed5 5cbd 34b8 d0bd
00000190: 0926 ffbd 02f1 a23d 9aa3 2d3e 0571 193a
000001a0: 7276 beb8 8dec 19b9 386e 0fbd 20e8 9cba
000001b0: 1c98 853b ff64 7c3d 4ce9 a7b5 0f11 4038
000001c0: 87c0 0bbd 8a8a 6a3d 09cd 61b9 1daa b0bd
000001d0: 6633 6336 763b 093e fc43 f53d 6983 93bd
000001e0: 2d86 343d 2372 c53b f29d 28bd 360f 453b
000001f0: d283 c53d 4ae8 a73d 8f5e a9bd f7a1 c43c
00000200: d156 34b8 56b6 1f3e 50cd 17bd a50f 1dbd
00000210: 3f43 8bbd 1b31 b73d 9562 463e 72bb 92bc
00000220: 150d bc3b 9d89 2c39 812d 16bd 86bf 2a3b
00000230: f2c5 543c ca6d 173d 9692 4438 df45 15b9
00000240: 3f61 1dbc e229 8d3d 5317 db38 c4f6 80bd
00000250: 2dc2 b638 8000 de3d 5a19 b93d 08b9 24bd
00000260: c369 7c3c d7be b4bb 5a3f cfbc ab02 503c
00000270: 41cf ec3d 8646 c03d 4460 4bbd b6c6 9c3c
00000280: a871 3db8 0eed 49be 7376 8a3d 2ae9 cf3d
00000290: 50ee eb3d 76b9 0dbe 8c2f 3cbe e052 813d
000002a0: ca62 82bc 8c4a cab8 c6e9 013d 0155 e838
000002b0: 9831 8abb a9f1 96bd 7304 05b8 12b9 9a38
000002c0: eabf 09bd 5b1d cbbd a2aa a1b9 4ff9 c33d
000002d0: c6ef 6638 439b 3ebe be36 22be af45 e83d
000002e0: c6f5 5bbd 524e 93bc 80fa 823d 5319 98bb
000002f0: 43b9 43be 1fc2 1fbe fe03 803d f893 f93c
00000300: ee3c 9138 fc0a dbbe 50d8 3b3e 6dbf 9e3e
00000310: 514c b43e 9257 84be 7cd6 aebe 46e7 3f3c
00000320: c82b c4ba 733f 29b7 3eab 003e 8894 0d3c
00000330: 8440 b0bc 21cf 31be 93dd 0639 d116 3c38
00000340: 10be 353e 41a2 1dbe fefa 8538 35ac 863e
00000350: ad55 d7b8 7b9c a1be d385 92be 8e5a 383e
00000360: c5e6 67bd a402 343a acb8 5e3e c73f 4abc
00000370: 3369 88be 522d 5dbe f89d 913e f5a0 583d
00000380: 6fad 8fb6 d44f 8abc e0b1 a73c d112 443c
00000390: 0607 d93b 2163 5abb 273b 113d 912e df3c
000003a0: ae8a a43b e33c 22b8 f160 69bc 0710 873a
000003b0: 3a9b 3cb8 9668 c8bc 843b 0436 e31b df38
000003c0: abc9 283d 0976 bb3c 3936 e2b6 f639 04bc
000003d0: c635 a2b8 074e de3b 1605 943c 604b e6ba
000003e0: 6000 78bc 0cc7 1abb 282c 0b3d ecab 2f3a
000003f0: c20e 843c cc46 faba 191a 0a3d 17d0 7d3d

fno_blocks.fno_skips.1.conv.weight f4 [32, 32, 1]
-5.211e-41 8.7268665e-12 5.2563e-41 5.001e-41 2.3911024e-11 4.2756536e-12 4.9861e-41 5.2124e-41
1.088618e-17 5.4695e-41 -2.3661545e-11 5.1181e-41 5.1393e-41 -5.2238e-41 5.5924e-41 -1.1007469e-11
5.0209e-41 3.8304408e-11 5.4347e-41 6.2571e-41 5.3385e-41 -4.9694e-41 -4.4308e-41 -1.6149237e-13
-5.6467e-41 -6.699242e-12 -5.0536e-41 4.9958e-41 4.0164742e-12 6.0515e-41 5.0656e-41 5.5437e-41
-4.9684e-41 -2.7242488e-12 -5.4882e-41 -4.9683e-41 4.2198455e-13 6.5174216e-12 5.1768e-41 5.006e-41
-2.530808e-19 -4.9344e-41 5.713182e-12 5.4934e-41 5.1498e-41 -5.9869e-41 -4.9914e-41 2.912813e-12
6.1106e-41 -2.3659284e-13 -6.1944e-41 -4.9152e-41 5.507e-41 -5.0821e-41 5.0797e-41 4.3152558e-14
5.3643e-41 2.079451e-12 -5.12e-41 5.715e-41 -3.5922016e-12 1.5399e-41 5.295e-41 -4.9138e-41
-5.011e-41 1.0770605e-12 5.0188e-41 4.9874e-41 5.197036e-11 8.626262e-11 4.9456e-41 5.0119e-41
-8.889445e-17 -5.573e-41 -1.348598e-11 -5.5124e-41 4.9055e-41 5.0228e-41 5.3018e-41 3.0272855e-12
5.9768e-41 5.2667346e-11 5.0145e-41 -4.9732e-41 5.1848e-41 5.0485e-41 -4.7674e-41 3.3111831e-12
5.4148e-41 6.3139303e-12 -2.1087e-41 6.1901e-41 -3.384836e-11 5.1983e-41 -5.28e-41 5.4234e-41
-5.0119e-41 1.6778907e-06 -5.0996e-41 5.1847e-41 -4.5119596e-06 -7.5994612e-06 -5.6283e-41 -6.0732e-41
-1.9115855e-11 -5.1503e-41 -2.3784287e-06 6.0013e-41 5.1848e-41 4.9752e-41 -6.1464e-41 8.981525e-06
-6.0483e-41 -1.4102787e-05 -6.0214e-41 6.2525e-41 -5.6072e-41 -5.461e-41 -5.1914e-41 2.5004056e-06
4.2018e-41 5.934731e-06 4.9822e-41 -5.7624e-41 -1.0472986e-05 5.5884e-41 5.6165e-41 -5.5554e-41
-5.8592e-41 1.6468369e-15 5.2963e-41 -5.0154e-41 4.3180685e-15 9.067496e-15 5.7376e-41 -2.3284e-41
1.4067525e-20 -5.5685e-41 -7.441031e-15 -4.0196e-41 5.8342e-41 6.1632e-41 -5.8136e-41 -4.5629216e-15
-5.1011e-41 1.2478408e-14 -5.6542e-41 -5.1072e-41 5.6359e-41 -5.2079e-41 -6.0997e-41 -2.7397005e-15
5.8665e-41 -2.9992177e-15 -5.8801e-41 6.2781e-41 5.0741094e-15 -5.1639e-41 -5.9264e-41 -2.4384e-41
5.783e-41 -7.2153756e-07 5.0429e-41 -4.9385e-41 -2.9281541e-06 -6.734104e-07 -5.0548e-41 4.9242e-41
-1.3345374e-15 5.0628e-41 2.5201455e-06 -6.0896e-41 -5.4494e-41 -5.727e-41 -5.1035e-41 1.2911734e-06
-5.2718e-41 -4.2136107e-06 -5.7438e-41 -5.5166e-41 -4.9635e-41 -5.2074e-41 -5.1373e-41 -3.1605174e-07
5.7614e-41 6.307224e-07 5.0542e-41 5.1903e-41 6.300855e-08 5.5864e-41 5.119e-41 -5.6426e-41
5.1995e-41 -3.0303528e-07 -5.0779e-41 -5.223e-41 1.2913623e-06 1.3578851e-06 -5.0004e-41 -4.9827e-41
2.2659392e-12 -5.0904e-41 3.6510977e-07 5.4659e-41 4.9487e-41 6.0409e-41 -5.7508e-41 -3.5037365e-07
-5.3506e-41 2.8821887e-06 5.5623e-41 -6.0154e-41 -5.676e-41 -5.6519e-41 -4.9375e-41 -7.479128e-07
5.455e-41 -4.0931496e-07 -5.3928e-41 -5.2989e-41 4.020918e-07 -5.1293e-41 -5.0768e-41 5.1449e-41
-4.9858e-41 6.990323e-17 5.2692e-41 -5.0081e-41 -2.5093622e-17 -2.2466814e-17 -4.9942e-41 4.0111e-41
1.005143e-22 4.9159e-41 1.1559914e-18 2.0282e-41 4.9816e-41 5.1188e-41 -4.9809e-41 -1.7220117e-17
4.9862e-41 -1.5586126e-16 -4.9785e-41 -4.9313e-41 -4.9478e-41 -4.9855e-41 4.9753e-41 3.9814393e-17
-4.9448e-41 -1.3608131e-18 -4.928e-41 -5.3968e-41 -3.0415593e-17 -4.415e-41 -4.9104e-41 -5.003e-41
00000000: 4391 0080 5086 192d 8692 0000 688b 0000
00000010: d752 d22d aa6f 962c fe8a 0000 4d91 0000
00000020: 88d0 4823 7898 0000 1021 d0ad ac8e 0000
00000030: 438f 0000 9e91 0080 e59b 0000 3ca5 41ad
00000040: f68b 0000 ee76 282e 7f97 0000 6cae 0000
00000050: d194 0000 878a 0080 837b 0080 02d3 35aa
00000060: 689d 0080 68b5 ebac e08c 0080 438b 0000
00000070: 2f51 8d2c b1a8 0000 358d 0000 899a 0000
00000080: 808a 0080 b4b3 3fac fd98 0080 7f8a 0080
00000090: 628e ed2a b74f e52c 4f90 0000 8c8b 0000
000000a0: 7d64 95a0 8d89 0080 c503 c92c 2299 0000
000000b0: 8e8f 0000 e4a6 0080 248b 0080 93f8 4c2c
000000c0: 57aa 0000 9f30 85aa adac 0080 0489 0080
000000d0: 8399 0000 ab8d 0080 9a8d 0000 8357 4229
000000e0: 8995 0000 0f54 122c ba8e 0080 509f 0000
000000f0: 5ac7 7cac ed2a 0000 9a93 0000 fa88 0080
00000100: b08b 0080 3295 972b e78b 0000 078b 0000
00000110: 6c91 642e 8ab1 bd2e dd89 0000 b68b 0000
00000120: 05fa cca4 5a9b 0080 743f 6dad aa99 0080
00000130: bf88 0000 048c 0000 cb93 0000 ba06 552c
00000140: 9ca6 0000 29a2 672e c98b 0000 a28a 0080
00000150: 8890 0000 bb8c 0000 e584 0080 f900 692c
00000160: f196 0000 d426 de2c c83a 0080 8eac 0000
00000170: dedd 14ae e890 0000 2f93 0080 2f97 0000
00000180: b68b 0080 e333 e135 288e 0080 8790 0000
00000190: 7065 97b6 e0fe feb6 e59c 0080 4ca9 0080
000001a0: 1425 a8ad 928f 0080 189d 1fb6 4ba7 0000
000001b0: 8890 0000 b08a 0000 56ab 0080 5baf 1637
000001c0: 9aa8 0080 029b 6cb7 daa7 0080 4bae 0000
000001d0: 4e9c 0080 3b98 0080 b790 0080 a4cc 2736
000001e0: 2175 0000 f322 c736 e28a 0000 a2a0 0080
000001f0: 22b5 2fb7 c89b 0000 919c 0000 dd9a 0080
00000200: 55a3 0080 8f55 ed26 a493 0000 cf8b 0080
00000210: 2793 9b27 7258 2328 f19f 0000 e840 0080
00000220: 30dd 841e 3a9b 0080 b30b 06a8 0d70 0080
00000230: a2a2 0000 ceab 0000 0fa2 0080 8665 a4a7
00000240: 338e 0080 80ca 6028 9e9d 0080 5e8e 0080
00000250: 1b9d 0000 2d91 0080 09aa 0080 8e6a 45a7
00000260: 89a3 0000 cd1d 58a7 eaa3 0080 02af 0000
00000270: 66d0 b627 f38f 0080 34a5 0080 f943 0080
00000280: 35a1 0000 afaf 41b5 938c 0000 aa89 0080
00000290: 4e81 44b6 69c4 34b5 e88c 0080 4489 0000
000002a0: bd53 c0a6 218d 0000 c51f 2936 c1a9 0080
000002b0: e897 0080 a59f 0080 448e 0080 614c ad35
000002c0: f592 0080 a462 8db6 1da0 0080 c899 0080
000002d0: 5d8a 0080 2991 0080 358f 0080 d2ad a9b4
000002e0: 9ba0 0000 ea4e 2935 e48c 0000 af90 0000
000002f0: 514f 8733 ba9b 0000 b28e 0000 4b9d 0080
00000300: f190 0000 dab0 a2b4 8d8d 0080 9991 0080
00000310: df52 ad35 9440 b635 648b 0080 e68a 0080
00000320: 8873 1f2c e68d 0080 4e04 c434 5e98 0000
00000330: f389 0000 65a8 0000 4fa0 0080 fd1a bcb4
00000340: 2795 0080 a06b 4136 0e9b 0000 afa7 0080
00000350: 399e 0080 8d9d 0080 a389 0080 2dc4 48b5
00000360: 1098 0000 d2bf dbb4 5496 0080 b693 0080
00000370: 14df d734 fc8e 0080 858d 0080 6b8f 0000
00000380: fc8a 0080 952f a124 e292 0000 9b8b 0080
00000390: a472 e7a3 4438 cfa3 388b 0080 d06f 0000
000003a0: 5707 f31a 0989 0000 1f98 aa21 8a38 0000
000003b0: de8a 0000 b18e 0000 d98a 0080 dad3 9ea3
000003c0: ff8a 0000 20b2 33a5 c88a 0080 7789 0080
000003d0: ed89 0080 fa8a 0080 b18a 0000 8a9c 3724
000003e0: d789 0080 11d2 c8a1 5f89 0080 7196 0080
000003f0: 6544 0ca4 127b 0080 e288 0080 778b 0080

fno_blocks.fno_skips.2.conv.weight f4 [32, 32, 1]
5.5622e-41 5.5752657e-14 -5.5178e-41 5.524675e-31 7.2195213e-14 -9.921406e-15 5.325e-41 -5.1608e-41
-3.410519e-20 -4.9617e-41 -9.3972774e-15 5.3681e-41 -5.2605e-41 5.977e-41 -1.23512e-40 1.0845064e-14
5.1889e-41 1.4758409e-14 -4.8507e-41 5.2802e-41 4.9683e-41 4.9896e-41 5.7432e-41 3.679529e-15
5.1292e-41 -3.940799e-16 -4.9223e-41 -4.1959225e-18 -2.2180801e-14 -1.5552e-41 5.7816e-41 5.1045e-41
5.2329e-41 2.349595e-13 -5.4097e-41 9.557394e-30 4.1999612e-13 1.3533983e-13 5.3419e-41 5.0832e-41
-5.1395904e-18 4.9125e-41 1.27415e-13 -2.1923e-41 -5.0898e-41 5.6664e-41 -2.876381e-39 2.4955794e-13
5.1625e-41 4.1731706e-13 4.9808e-41 -8.5e-43 -4.9159e-41 1.243e-41 5.9681e-41 1.5999491e-13
6.2745e-41 -1.387345e-14 5.1671e-41 -9.962024e-16 -2.9952554e-13 5.3632e-41 -5.0231e-41 -4.9551e-41
5.59e-41 -6.7777213e-15 -5.9108e-41 -1.8955772e-31 -1.0794124e-14 4.6379077e-17 5.3567e-41 -4.9997e-41
2.7120955e-20 -5.0092e-41 5.263677e-16 -4.9166e-41 5.465e-41 -6.0685e-41 3.91e-41 -1.6908246e-15
5.2573e-41 -2.7847767e-16 -4.9158e-41 5.7614e-41 -5.113e-41 -5.0856e-41 5.1282e-41 9.0253015e-18
5.2218e-41 -1.1791757e-16 -5.146e-41 7.983114e-18 -2.1122189e-16 5.1433e-41 5.3873e-41 -4.978e-41
-5.2229e-41 -3.376013e-09 5.6035e-41 -8.039966e-26 -5.358599e-09 5.004067e-10 4.9909e-41 -5.1482e-41
1.0560762e-14 4.9144e-41 -5.648476e-10 -5.2937e-41 -5.045e-41 -4.9826e-41 1.1058359e-35 -8.328653e-10
4.905e-41 -2.1312427e-09 5.0633e-41 -5.0492e-41 4.9537e-41 4.9258e-41 -5.3185e-41 3.8834852e-10
6.192e-41 -2.9527773e-11 5.0384e-41 7.866891e-12 -3.4931685e-10 -4.9435e-41 -5.2804e-41 -4.9906e-41
5.3828e-41 -3.5792395e-13 5.609e-41 -1.2100015e-29 -3.7458472e-13 1.6561364e-14 -5.9664e-41 -5.3986e-41
-2.136344e-18 4.9792e-41 -4.4614215e-14 -5.7977e-41 -5.4894e-41 -5.3664e-41 4.72071e-40 -1.6337722e-13
5.7146e-41 7.195794e-14 -5.1349e-41 -4.9746e-41 -5.8403e-41 5.3036e-41 -5.3282e-41 -5.5691698e-14
-5.3584e-41 -4.0120156e-15 -5.7488e-41 -9.419623e-16 -1.9486093e-14 4.9738e-41 5.4321e-41 5.2781e-41
4.9986e-41 -9.09992e-11 -5.2022e-41 -2.2756388e-26 -7.5079304e-10 -3.9496673e-11 5.8507e-41 -6.2148e-41
4.7987076e-15 -5.1089e-41 -5.126072e-11 -5.2256e-41 5.3263e-41 5.0429e-41 1.9156771e-36 -1.2985618e-10
-5.9739e-41 -5.7929477e-12 -5.9227e-41 5.6404e-41 -5.1541e-41 6.2284e-41 -5.325e-41 -1.1701238e-11
-4.9156e-41 -9.679755e-12 5.2407e-41 1.6993612e-12 -2.1164945e-10 -5.6611e-41 5.2138e-41 -5.9379e-41
5.7941e-41 7.7258145e-16 6.0446e-41 1.9002012e-31 2.6129687e-15 4.6052343e-15 5.2306e-41 5.844e-41
1.1201442e-19 4.9187e-41 3.0710554e-15 -6.0992e-41 -4.9865e-41 5.8895e-41 -5.2085e-41 1.0673377e-15
-5.5329e-41 2.323061e-15 5.0389e-41 -5.6991e-41 -5.1799e-41 -5.404e-41 5.1639e-41 -8.3719526e-17
5.6241e-41 1.8200059e-16 5.0622e-41 3.8945364e-17 4.071304e-16 3.2196e-41 -5.9655e-41 6.2925e-41
6.2321e-41 1.2454622e-12 5.1531e-41 8.680209e-30 -2.357644e-13 -3.538328e-13 5.8099e-41 5.073e-41
9.2234185e-17 5.0469e-41 -4.1291834e-13 -6.288e-41 -5.0727e-41 -5.1714e-41 1.54468e-39 -2.5063155e-13
-5.6063e-41 -1.2337903e-12 -5.0548e-41 -4.9578e-41 4.9274e-41 -5.0646e-41 5.3381e-41 -2.9927222e-14
5.5078e-41 1.2031026e-13 5.5532e-41 6.272682e-15 6.0921445e-13 -5.4588e-41 -5.7078e-41 5.6824e-41
00000000: 0d9b 0000 7016 7b29 d099 0080 3449 330d
00000010: b591 a229 69ba 32a8 7094 0000 dd8f 0080
00000020: a50e 219f 508a 0080 4b49 29a8 a495 0000
00000030: a492 0080 9da6 0000 4d58 0180 085e 4328
00000040: a590 0000 93ee 8428 3887 0080 3193 0000
00000050: 7f8a 0000 178b 0000 19a0 0000 aa91 8427
00000060: fb8e 0000 ee2b e3a5 3789 0080 5ecd 9aa2
00000070: 72c9 c7a8 5a2b 0080 2ba1 0000 4b8e 0000
00000080: df91 0000 3c45 842a cd96 0080 d4d8 410f
00000090: d26f ec2a 0d61 182a e994 0000 b38d 0000
000000a0: 0f9e bda2 f188 0000 e074 0f2a 1d3d 0080
000000b0: e28d 0080 f59d 0000 2e52 1f80 177d 8c2a
000000c0: e98f 0000 baed ea2a d88a 0000 5f02 0080
000000d0: 0989 0080 a622 0000 5ea6 0000 6523 342a
000000e0: e8ae 0000 ffeb 79a8 0a90 0000 6291 8fa6
000000f0: 2e9e a8aa 8195 0000 068c 0080 218a 0080
00000100: d49b 0000 7231 f4a7 c5a4 0080 5b0f 768c
00000110: 1c73 42a8 c0e2 5524 5395 0000 5f8b 0080
00000120: 3913 001f a38b 0080 15b7 1726 0e89 0080
00000130: 5898 0000 2aa9 0080 ff6c 0000 6bac f3a6
00000140: 8d92 0000 0d88 a0a5 0889 0080 9ba0 0000
00000150: 888e 0080 c48d 0080 f48e 0000 c87c 2623
00000160: 9091 0000 20f3 07a5 738f 0080 3143 1323
00000170: b385 73a5 608f 0000 2d96 0000 c48a 0080
00000180: 9891 0080 73ff 67b1 349c 0000 570f c795
00000190: bc1e b8b1 fe8c 0930 208b 0000 838f 0080
000001a0: eb3e 3e28 fe88 0000 9e43 1bb0 9193 0080
000001b0: a28c 0080 e58a 0080 6f2f 6b05 afef 64b0
000001c0: bb88 0000 3875 12b1 258d 0000 c08c 0080
000001d0: 178a 0000 5089 0000 4294 0080 327f d52f
000001e0: 9cac 0000 51dd 01ae 738c 0000 5465 0a2d
000001f0: fa09 c0af ce89 0080 3293 0080 1e8b 0080
00000200: 0d96 0000 477e c9aa 5b9c 0000 df6a 758f
00000210: 59df d2aa e82b 9528 52a6 0080 7e96 0080
00000220: 66a2 1da2 cd8a 0000 b0ec 48a9 9ea1 0080
00000230: 0699 0080 9895 0080 f123 0500 47f2 37aa
00000240: 4d9f 0000 ee08 a229 248f 0080 ac8a 0080
00000250: cea2 0080 d893 0000 8794 0080 28d0 7aa9
00000260: 5f95 0080 508c 90a7 41a0 0080 46c0 87a6
00000270: df83 afa8 a68a 0000 6d97 0000 2293 0000
00000280: 578b 0000 ff1b c8ae 0491 0080 4c5e e194
00000290: 5d60 4eb0 4db5 2dae 18a3 0000 3ead 0080
000002a0: 44e4 ac27 6a8e 0080 7172 61ae ab91 0080
000002b0: 7a94 0000 938c 0000 c1f7 2204 44c7 0eaf
000002c0: 87a6 0080 3cd2 cbac 1aa5 0080 3b9d 0000
000002d0: ad8f 0080 9fad 0000 7094 0080 b1d9 4dad
000002e0: 0789 0080 be49 2aad 1792 0000 f129 ef2b
000002f0: 06b6 68af cf9d 0080 5791 0000 86a5 0080
00000300: 84a1 0000 73ae 5e26 80a8 0000 04a9 760c
00000310: c448 3c27 caeb a527 cf91 0000 e8a2 0000
00000320: 483e 0420 1d89 0000 f94a 5d27 05aa 0080
00000330: 018b 0080 2da4 0000 3191 0080 d0d1 9926
00000340: 3c9a 0080 e964 2727 778c 0000 de9e 0080
00000350: 6590 0080 a496 0080 f38f 0000 490b c1a4
00000360: c79c 0000 18d5 5125 1d8d 0000 929a 3324
00000370: d8b1 ea25 c059 0000 4ba6 0080 69af 0000
00000380: baad 0000 8148 af2b a68f 0000 390e 300f
00000390: 3bb9 84aa ae30 c7aa f5a1 0000 6a8d 0000
000003a0: 74ad d424 b08c 0000 ce73 e8aa 49af 0080
000003b0: 688d 0080 2890 0080 f0d1 1000 d017 8daa
000003c0: 489c 0080 fba3 adab e88c 0080 348a 0080
000003d0: 5b89 0000 2e8d 0080 ce94 0000 bdc7 06a9
000003e0: 8999 0000 1275 072a cd9a 0000 48ff e127
000003f0: 877a 2b2b 2b98 0080 1c9f 0080 679e 0000

fno_blocks.fno_skips.3.conv.weight f4 [32, 32, 1]
-0.0044680797 0.03126108 -0.0013272556 -0.0111531885 -0.00089916046 -0.09106982 -0.014098099 0.004078623
-0.006679331 7.798867e-10 0.019340925 4.1025844e-05 1.7350671e-09 1.2822749e-08 0.018053556 0.0011354586
-2.0429045e-12 -0.12669535 -0.0014198187 -2.7058864e-09 -1.176377e-08 -0.00010310116 -0.0041191005 0.0077048223
0.021268276 0.0014248202 -0.0015992456 -0.0049392604 -0.033127725 4.2292548e-05 -0.013412225 -1.850863e-13
0.0018921039 0.050422575 -4.7339327e-05 -0.0028958274 -0.06353611 -0.046798315 -0.009605854 -0.00080667675
-0.0016875677 -1.0945898e-09 -0.028674725 2.3542698e-05 -3.3211844e-09 -1.8940344e-08 -0.009092232 -0.052533478
-2.426047e-12 -0.025846226 0.00033558847 6.7093425e-10 -9.0909e-09 -9.3224335e-05 -0.005134149 -0.04692466
-0.006452001 -0.00027972012 -0.0012130222 -0.008609365 0.028617382 0.00013306174 -0.0035113979 -4.4879872e-12
0.012489336 -0.03000869 -0.012924802 0.0073804203 0.047706988 -0.0619478 -0.010461234 -0.0012987165
0.0052071335 -5.376118e-10 0.03948222 5.105011e-06 -4.5902264e-09 2.7258668e-07 0.008381262 -0.058707427
-1.9090179e-12 -0.056626253 -0.0013136516 -1.6256353e-08 -1.6907567e-08 -6.5352084e-05 -0.022173643 -0.031884246
0.014882952 -0.0007648581 -0.00396106 -0.033838414 0.13181205 -0.00038101815 -0.0038888312 -4.1341788e-11
0.015821816 -0.16831456 0.008478487 0.024709795 -0.055176023 -0.16428275 0.02883912 -0.015260911
0.018239463 3.9259036e-09 -0.06407314 5.6326728e-05 8.252417e-09 2.0627573e-07 -0.032690175 0.04297756
-1.6985033e-12 0.0042437864 0.00838745 5.490757e-10 -3.343598e-09 0.00015109983 0.015189992 -0.16870344
-0.047481008 0.004871247 0.009262051 0.016328238 0.21462984 0.0014647333 0.027974986 6.973602e-12
-0.012397179 0.0047620023 0.008795427 -0.015289974 -0.07630422 0.019278942 0.0022426653 0.009439135
0.021998389 6.059112e-08 0.0093460325 -2.7203741e-06 -2.2564298e-07 -1.6390255e-06 -0.0029902395 -0.03909644
-1.668091e-12 -0.039376356 -0.0013150825 1.4184295e-07 -3.6794344e-07 -3.33247e-05 -0.0064377123 -0.032170746
0.009479568 0.0052626543 -0.0061730593 -0.041416727 0.1292173 -0.0028837747 -0.020220961 1.8213395e-10
0.0064817285 0.09717879 0.0014644457 0.012456337 0.060757063 0.024995433 0.012651206 -0.0036243938
0.0059291585 3.69645e-11 -0.028708326 -0.00019238323 -8.905325e-09 -3.2837775e-07 -0.018283736 -0.030526992
4.15962e-12 0.17279077 0.0019006582 5.9494865e-10 -2.9462738e-08 -0.00013213593 0.005594129 -0.018878305
-0.028042937 -0.0013818351 0.002198955 0.0076894113 -0.08411568 -4.0715757e-05 0.013050684 2.1206298e-12
0.0061214194 -0.005609151 0.0034671277 0.007426086 0.042468112 0.06871717 0.01209733 -0.0070588025
-0.008772565 4.9771125e-09 -0.015249245 -0.00012582396 2.6878393e-08 2.251947e-08 -0.01409412 0.03314969
5.656863e-12 0.20453452 0.0018649228 -9.0289225e-09 -9.703885e-10 -1.4340704e-05 0.0083197905 0.017026154
-0.010297897 0.0021431146 0.0037478863 0.025260672 -0.15478347 0.0005347188 0.012598573 1.6124e-11
0.0055361455 0.02448363 0.007509976 0.008562841 0.09513078 0.08340711 -0.0029371434 0.01130984
-0.0591368 1.1340417e-08 0.052078653 -6.537618e-05 1.7066853e-08 9.921415e-08 -0.02076375 0.020883903
5.0788484e-12 0.048969213 -0.00093002035 2.9403302e-09 -5.1247522e-08 -5.2569074e-05 -0.0060651717 0.095330514
0.049654648 0.0027044655 -0.00017639513 0.020994503 -0.15527116 0.0005946363 0.005350242 2.8798075e-11
00000000: f868 92bb 9e0b 003d 4ff7 adba ddbb 36bc
00000010: a3b5 6bba d082 babd b7fb 66bc f8a5 853b
00000020: 4ade dabb a65f 5630 dc70 9e3c 2a13 2c38
00000030: 3f77 ee30 0c4b 5c32 0de5 933c abd3 943a
00000040: b2c1 0fac 6dbc 01be 3619 baba 75f2 39b1
00000050: 9c19 4ab2 0438 d8b8 85f9 86bb bc78 fc3b
00000060: cf3a ae3c 08c1 ba3a c79d d1ba 85d9 a1bb
00000070: f0b0 07bd 4763 3138 f3be 5bbc 7e63 50aa
00000080: 7900 f83a e787 4e3d 378e 46b8 ecc7 3dbb
00000090: 381f 82bd 97af 3fbd df61 1dbc 2977 53ba
000000a0: 6031 ddba 7470 96b0 42e7 eabc 8f7d c537
000000b0: e53a 64b1 42b2 a2b2 96f7 14bc 582d 57bd
000000c0: c7b7 2aac 77bb d3bc ecf1 af39 cd6c 3830
000000d0: 332e 1cb2 6f81 c3b8 5d3c a8bb 1334 40bd
000000e0: 4f6b d3bb 66a7 92b9 45fe 9eba 4b0e 0dbc
000000f0: 006f ea3c 7d86 0b39 7b1f 66bb 32e8 9dac
00000100: 12a0 4c3c c9d4 f5bc 8cc2 53bc 74d7 f13b
00000110: 6768 433d fabc 7dbd 9865 2bbc b239 aaba
00000120: 9aa0 aa3b 11c7 13b0 1cb8 213d b64b ab36
00000130: 0fb8 9db1 0758 9234 9051 093c 3377 70bd
00000140: cf55 06ac eef0 67bd d52e acba 19a4 8bb2
00000150: 223c 91b2 a20d 89b8 80a5 b5bc 0e99 02bd
00000160: a0d7 733c c280 48ba c8cb 81bb 269a 0abd
00000170: bdf9 063e 64c3 c7b9 c3db 7ebb b7d2 35ae
00000180: c19c 813c a75a 2cbe 5ae9 0a3c 326c ca3c
00000190: 4100 62bd bd39 28be 0540 ec3c e608 7abc
000001a0: ed6a 953c 9de4 8631 c738 83bd 5d40 6c38
000001b0: 84c6 0d32 a47c 5d34 22e6 05bd 3d09 303d
000001c0: 080b efab 760f 8b3b 846b 093c c4ed 1630
000001d0: 33c5 65b1 8d70 1e39 72df 783c 98c0 2cbe
000001e0: 727b 42bd fb9e 9f3b dcbf 173c ccc2 853c
000001f0: edc7 5b3e 4bfc bf3a cc2b e53c 9f5c f52c
00000200: 8a1d 4bbc 920a 9c3b b21a 103c cd82 7abc
00000210: 6345 9cbd dfee 9d3c aef9 123b 9aa6 1a3c
00000220: f735 b43c 521e 8233 1a20 193c ac8f 36b6
00000230: 4548 72b4 7dfc dbb5 e5f7 43bb 9723 20bd
00000240: 50c3 eaab 1a49 21bd d95e acba 7e4d 1834
00000250: c389 c5b4 20c6 0bb8 72f3 d2bb 79c5 03bd
00000260: 3150 1b3c 5872 ac3b 6047 cabb 96a4 29bd
00000270: 8a51 043e b6fd 3cbb 6ea6 a5bc 2642 482f
00000280: ae64 d43b ac05 c73d a5f2 bf3a aa15 4c3c
00000290: 66dc 783d 39c3 cc3c 0147 4f3c 3d87 6dbb
000002a0: 6349 c23b 5492 222e b92d ebbc 7bba 49b9
000002b0: 09fe 18b2 e54b b0b4 c6c7 95bc be13 fabc
000002c0: 875a 922c 10f0 303e 821f f93a ca89 2330
000002d0: 3f15 fdb2 f88d 0ab9 f54e b73b ada6 9abc
000002e0: 4dba e5bc b11e b5ba 581c 103b 75f7 fb3b
000002f0: d744 acbd 36c6 2ab8 89d2 553c df39 152c
00000300: 3096 c83b f8cc b7bb c038 633b 8656 f33b
00000310: 0bf3 2d3d 96bb 8c3d e133 463c 874d e7bb
00000320: ceba 0fbc 2503 ab31 f8d7 79bc 9def 03b9
00000330: 36e2 e632 d770 c132 06eb 66bc f8c7 073d
00000340: 7e08 c72c 7f71 513e 6d70 f43a 9f1d 1bb2
00000350: 835e 85b0 db98 70b7 bb4f 083c 6f7a 8b3c
00000360: 83b8 28bc 7f73 0c3b 199f 753b 78ef ce3c
00000370: 8f7f 1ebe 5f2c 0c3a 3f6a 4e3c 05d4 8d2d
00000380: 8e68 b53b e591 c83c 3f16 f63b 294b 0c3c
00000390: edd3 c23d 59d1 aa3d 177d 40bb e84c 393c
000003a0: 6e39 72bd aed3 4232 6d50 553d 921a 89b8
000003b0: 689a 9232 8e0f d533 bd18 aabc b814 ab3c
000003c0: 33b2 b22c f193 483d 9ccc 73ba d60e 4a31
000003d0: 3f1b 5cb3 9d7d 5cb8 59be c6bb a53c c33d
000003e0: ac62 4b3d 673d 313b b5f6 38b9 aafc ab3c
000003f0: 67ff 1ebe 5ee1 1b3a 1551 af3b 804f fd2d

fno_blocks.channel_mlp.0.fcs.0.weight f4 [16, 32, 1]
-0.0073987273 -0.09755284 -0.029636513 -0.2438496 -0.111061916 -0.1251029 0.5960082 0.17850961
-0.021099217 -0.060822003 -0.4748755 0.18442884 0.100656584 -0.0642394 0.3869722 0.12682745
-0.0018872067 0.043175254 0.043547165 -0.17962477 0.0021700542 -0.36287555 -0.21286471 -0.05314892
0.0032799067 0.008902724 0.03118941 -0.026286561 -0.2057392 -0.21383575 0.04759699 -0.14811046
0.007207254 0.009978466 -0.035569426 0.088495515 0.104542464 -0.077670395 0.06429412 -0.035504337
-0.0045706136 -0.0126817105 -0.113039844 0.04013942 0.006848501 0.012945054 0.22088562 0.12159594
0.087430164 0.018806124 0.06575154 -0.008588609 0.03389361 0.041102014 0.044694144 -0.05107085
-0.03633044 -0.0790681 -0.064561 -0.010978252 0.04203604 0.045515582 0.0102859 -0.0714151
-0.028072806 -0.04736252 0.21142998 0.05792105 -0.20248544 0.14871682 -0.17261715 -0.051856097
-0.3298777 -0.28404152 0.18645668 0.12496431 0.16431044 -0.038454495 -0.445133 -0.034235273
-0.1760558 -0.16798009 -0.25491595 -0.2959722 -0.2941315 0.12933852 0.08956523 -0.12574226
-0.16075122 -0.14234622 0.17155614 -0.12387874 -0.039788123 -0.1961888 0.117950834 0.07136266
-0.0019986003 -0.058942586 -0.045273557 -0.05577477 0.13023478 0.19732653 -0.02954902 0.08980894
-0.0992799 -0.0378003 0.16833776 -0.04444947 -0.0531369 0.07255423 -0.15004446 0.05673663
-0.14576258 -0.052987084 -0.082343996 -0.082443684 -0.043721378 0.17004327 0.024533402 0.0893008
-0.08591204 0.09587691 0.27274558 -0.018898426 -0.16427086 0.030179145 -0.15975237 -0.02625287
-0.043702196 0.0013265621 0.13933927 -0.035505246 -0.10320096 0.17804411 -0.04354661 0.05548656
0.2574157 -0.11124673 -0.14393538 -0.02741701 -0.12768097 0.010293294 0.16353385 -0.097336605
-0.11004969 -0.051740427 0.090026475 -0.21361952 0.14346755 0.01624018 0.13715926 -0.03733164
0.186499 0.10816547 -0.0069799833 -0.043678273 0.20236985 0.12623584 0.056320578 -0.24562967
0.04552732 -0.030958448 0.036662024 -0.15418914 -0.07176426 -0.077537045 0.15273042 0.023216942
0.0015519062 -0.09643745 -0.136345 -0.010698033 0.05643798 -0.041237663 0.1256908 -0.07254784
-0.04097096 0.07290908 0.0388602 0.071158245 0.09559891 -0.102026194 0.095786475 -0.049978234
0.12947737 -0.067546815 0.0032914258 -0.025686922 0.13807055 0.033774827 -0.032545958 0.036489412
-0.07929817 0.0034239679 0.0980165 -0.06784215 0.038940977 -0.028114218 0.20493267 0.121701114
0.22008279 0.0008890994 -0.15596783 -0.047305215 0.0880835 -0.089081675 0.2501099 0.011862756
-0.007771723 0.045003165 -0.04211503 0.07455045 0.108449414 -0.06772185 0.020456426 -0.030393105
0.068353444 -0.013777444 0.041051503 -0.023473915 0.11332646 0.1186992 -0.014469037 -0.11382648
-0.055765018 -0.063101076 0.13128683 -0.091111444 -0.11698441 -0.043417003 0.041102115 0.036355507
-0.048221022 -0.027250584 -0.2556902 0.10256683 -0.042814277 -0.073400095 -0.037539084 -0.016498843
-0.022165734 0.031056838 0.07314423 0.05777551 0.04165231 0.0567282 0.081770405 -0.042213283
0.10343873 -0.08858322 0.19886617 -0.028790986 0.11747528 0.005814978 -0.014596228 0.069449626
00000000: 0671 f2bb c9c9 c7bd 46c8 f2bc b6b3 79be
00000010: 6e74 e3bd fa1a 00be fe93 183f 39cb 363e
00000020: 44d8 acbc 7e20 79bd e222 f3be eada 3c3e
00000030: 0a25 ce3d f28f 83bd 3821 c63e 0edf 013e
00000040: 265c f7ba 89d8 303d 835e 323d 8eef 37be
00000050: 7837 0e3b d3ca b9be 35f9 59be afb2 59bd
00000060: b4f3 563b bbdc 113c ef80 ff3c ea56 d7bc
00000070: 4cad 52be c2f7 5abe 10f5 423d 45aa 17be
00000080: d42a ec3b b87c 233c 3fb1 11bd 233d b53d
00000090: 5c1a d63d a811 9fbd a3ac 833d ff6c 11bd
000000a0: 16c5 95bb f3c6 4fbc 6f81 e7bd 3c69 243d
000000b0: 6469 e03b 7e17 543c d72f 623e 4b07 f93d
000000c0: 960e b33d 4d0f 9a3c bea8 863d 3db7 0cbc
000000d0: 07d4 0a3d 965a 283d 3511 373d ab2f 51bd
000000e0: 3acf 14bd 75ee a1bd 8f38 84bd 20de 33bc
000000f0: fc2d 2c3d 8c6e 3a3d 3186 283c 1442 92bd
00000100: f1f8 e5bc 34ff 41bd 1a81 583e 9f3e 6d3d
00000110: 5858 4fbe 3949 183e 8dc2 30be 0f67 54bd
00000120: bbe5 a8be e46d 91be 80ee 3e3e 4aed ff3d
00000130: ff40 283e 7682 1dbd 79e8 e3be 493a 0cbd
00000140: f947 34be f902 2cbe 5884 82be ab89 97be
00000150: 6798 96be 5171 043e fa6d b73d 94c2 00be
00000160: f89b 24be 35c3 11be 6aac 2f3e 23b4 fdbd
00000170: dff8 22bd b7e5 48be 3590 f13d 9626 923d
00000180: f3fa 02bb c86d 71bd c470 39bd 1674 64bd
00000190: 445c 053e f70f 4a3e c910 f2bc c0ed b73d
000001a0: 4353 cbbd 7dd4 1abd bc60 2c3e a610 36bd
000001b0: 14a6 59bd 5097 943d 41a5 19be ab64 683d
000001c0: c942 15be fc08 59bd f8a3 a8bd 3cd8 a8bd
000001d0: 3015 33bd d31f 2e3e 46fa c83c 56e3 b63d
000001e0: a7f2 afbd 1d5b c43d 4fa5 8b3e dfd0 9abc
000001f0: 9f36 28be 413a f73c 2096 23be 4210 d7bc
00000200: 1301 33bd 0ae0 ad3a f4ae 0e3e f36d 11bd
00000210: 065b d3bd 3251 363e ee5d 32bd e045 633d
00000220: fecb 833e 53d5 e3bd cc63 13be a399 e0bc
00000230: cdbe 02be 34a5 283c 6b75 273e 6a58 c7bd
00000240: bb61 e1bd c5ed 53bd cd5f b83d 13bf 5abe
00000250: 28e9 123e 200a 853c 7a73 0c3e 10e9 18bd
00000260: 98f9 3e3e dc85 dd3d 58b8 e4bb fde7 32bd
00000270: 0b3a 4f3e f843 013e 68b0 663d 5886 7bbe
00000280: db7a 3a3d 929c fdbc eb2a 163d c2e3 1dbe
00000290: 24f9 92bd becb 9ebd 5d65 1c3e 7531 be3c
000002a0: 5569 cb3a ff80 c5bd 069e 0bbe cd46 2fbc
000002b0: 832b 673d d3e8 28bd 17b5 003e f693 94bd
000002c0: 2ad1 27bd 5b51 953d e02b 1f3d 6abb 913d
000002d0: 5cc9 c33d 1cf3 d0bd b32b c43d fab5 4cbd
000002e0: b795 043e fc55 8abd f6b4 573b 616d d2bc
000002f0: 5e62 0d3e 7957 0a3d e94e 05bd ec75 153d
00000300: 1467 a2bd a664 603b e0bc c83d d3f0 8abd
00000310: 9380 1f3d ca4f e6bc dfd9 513e 6f3e f93d
00000320: 625d 613e 7312 693a 08b6 1fbe 1dc3 41bd
00000330: 1f65 b43d 7470 b6bd 680e 803e 015c 423c
00000340: f0a9 febb 3d55 383d cf80 2cbd e8ad 983d
00000350: ba1a de3d c1b1 8abd 3c94 a73c f6fa f8bc
00000360: e4fc 8b3d caba 61bc 9f25 283d 5e4c c0bc
00000370: b417 e83d 9118 f33d 8a0f 6dbc dc1d e9bd
00000380: dc69 64bd 233b 81bd 0e70 063e a398 babd
00000390: 8695 efbd 07d6 31bd b15a 283d 83e9 143d
000003a0: 6883 45bd 9e3c dfbc d3e9 82be 8f0e d23d
000003b0: 065e 2fbd ca52 96bd 95c2 19bd 9528 87bc
000003c0: ea94 b5bc e96a fe3c a4cc 953d 03a6 6c3d
000003d0: 9d9b 2a3d d45b 683d 3e77 a73d d6e7 2cbd
000003e0: afd7 d33d 1f6b b5bd 93a3 4b3e 13db ebbc
000003f0: e196 f03d 928b be3b 0425 6fbc 9b3b 8e3d

fno_blocks.channel_mlp.0.fcs.0.bias f4 [16]
0.14883786 0.044733588 0.18446931 0.12079502 -0.007944128 -0.007351095 0.070696674 0.112373956
-0.04234473 -0.054245338 0.012100483 -0.02541575 0.1185109 0.035063457 -0.06567391 -0.044168778
00000000: f468 183e 913a 373d 86e5 3c3e 6163 f73d
00000010: 1628 02bc 74e1 f0bb 6bc9 903d 5124 e63d
00000020: ab71 2dbd 5c30 5ebd 1b41 463c b134 d0bc
00000030: d8b5 f23d b39e 0f3d 0b80 86bd 52ea 34bd

fno_blocks.channel_mlp.0.fcs.1.weight f4 [32, 16, 1]
5.8646e-41 -4.9619e-41 5.0103e-41 -4.9235e-41 -5.1138e-41 4.9392e-41 5.2947e-41 -5.0274e-41
-4.9327e-41 -5.0211e-41 5.1275e-41 -5.1328e-41 4.9158e-41 5.1625e-41 -5.1932e-41 4.9948e-41
-0.00904647 -0.00061450485 -0.1396553 0.01445097 -0.07472624 0.016927252 -0.046331972 -0.013236913
0.075545035 -0.07704162 -0.042304803 -0.06073685 0.07575579 0.021319456 0.013669517 -0.060682885
4.9733e-41 -5.0758e-41 4.9631e-41 -4.9194e-41 4.9322e-41 4.9907e-41 -5.5378e-41 4.9397e-41
-4.3561e-41 -4.9996e-41 4.9341e-41 -4.9061e-41 -4.9376e-41 4.9428e-41 -4.9565e-41 4.9606e-41
5.0075e-41 4.9598e-41 -4.9277e-41 -4.922e-41 -4.9408e-41 -4.9534e-41 4.9682e-41 -5.7654e-41
4.9612e-41 -5.0726e-41 5.0099e-41 4.9809e-41 -5.016e-41 4.95e-41 -4.908e-41 -4.9407e-41
0.24585922 -0.0377742 0.2392666 -0.062553 0.27062994 -0.034176677 -0.14262249 -0.37203622
-0.05018108 -0.10994758 -0.12661693 -0.33561534 -0.062924996 0.59343743 -0.049403824 0.642896
-0.06850008 -0.16507934 0.4172072 -0.13373218 -0.009533205 -0.0323481 -0.054782197 0.19455819
-0.010059725 0.064501494 -0.0434482 0.07932161 -0.1272827 0.02684087 0.16967128 0.072632454
5.03e-41 5.1918e-41 -5.0188e-41 4.917e-41 5.0017e-41 5.3506e-41 5.2224e-41 -5.0758e-41
-5.0134e-41 5.0152e-41 5.2278e-41 4.9137e-41 4.9792e-41 -4.9506e-41 -5.1914e-41 5.0843e-41
5.0469e-41 5.1224e-41 4.9834e-41 -4.905e-41 4.9715e-41 -5.025e-41 -5.045e-41 -4.9525e-41
4.9928e-41 -5.0664e-41 -5.0066e-41 5.0252e-41 5.0122e-41 4.9846e-41 -4.9464e-41 4.9296e-41
-3.796913e-14 -1.6473886e-13 -3.891593e-14 -4.3334693e-13 -2.1515497e-13 -1.5811077e-13 -5.4827215e-13 -4.0810153e-13
-2.679399e-13 -1.7167488e-13 -4.2477594e-11 -2.2686585e-13 -4.2151044e-12 5.34889e-13 1.9941312e-14 5.787242e-14
5.2617e-41 4.9418e-41 -4.979e-41 4.9473e-41 -4.9781e-41 5.163e-41 5.1793e-41 4.9641e-41
-4.9449e-41 -4.9319e-41 -5.718e-41 -4.9554e-41 4.9777e-41 -5.045e-41 6.2471e-41 5.436e-41
0.010315921 0.019702027 0.0026584158 0.009781905 0.014551964 0.041016884 0.042323794 0.05163933
0.027310489 0.005820868 0.043577313 -0.011911518 0.020776603 0.004965066 -0.0008976071 -0.025976516
5.1083e-41 -5.2955e-41 4.953e-41 4.9142e-41 4.9798e-41 5.1573e-41 -5.1573e-41 4.9522e-41
-2.7377e-41 5.0713e-41 4.9428e-41 -5.1002e-41 -5.2151e-41 4.9697e-41 5.0039e-41 4.9631e-41
-4.9589e-41 4.9425e-41 -4.9537e-41 -4.9158e-41 4.9397e-41 -4.959e-41 -4.957e-41 4.9347e-41
-4.9756e-41 -5.006e-41 4.9123e-41 4.92e-41 -4.9448e-41 -4.9557e-41 -4.925e-41 -4.912e-41
5.5542e-41 5.2983e-41 -5.0577e-41 4.9634e-41 4.9895e-41 5.119e-41 -5.5426e-41 -4.9547e-41
-4.977e-41 4.9714e-41 -4.9581e-41 -5.1188e-41 -4.9286e-41 5.0033e-41 -5.0068e-41 5.0036e-41
5.1547e-41 -4.991e-41 -4.9783e-41 4.9282e-41 -4.918e-41 -5.1282e-41 5.0527e-41 4.9616e-41
5.1041e-41 5.1814e-41 -4.9631e-41 -4.9829e-41 4.927e-41 -4.9191e-41 -5.0035e-41 -4.9365e-41
0.05067475 0.078153744 -0.028296739 0.017223675 -0.010434459 0.03724798 0.051181737 -0.049630143
0.042775515 0.027365351 0.026877606 0.07121044 0.09398335 0.008932249 -0.0050509293 0.01530681
00000000: 7ba3 0000 518a 0080 ab8b 0000 3f89 0080
00000010: 8d8e 0080 af89 0000 9893 0000 258c 0080
00000020: 8189 0080 f88b 0080 ef8e 0000 158f 0080
00000030: 0889 0000 e98f 0000 c490 0080 3c8b 0000
00000040: a537 14bc b916 21ba cd01 0fbe c3c3 6c3c
00000050: 120a 99bd 05ab 8a3c 98c6 3dbd a3df 58bc
00000060: 5bb7 9a3d ffc7 9dbd cd47 2dbd 34c7 78bd
00000070: da25 9b3d 24a6 ae3c 1cf6 5f3c 9e8e 78bd
00000080: a38a 0000 7e8d 0080 5a8a 0000 2289 0080
00000090: 7d89 0000 1f8b 0000 5f9a 0080 b389 0000
000000a0: 6e79 0080 5e8b 0080 8b89 0000 c388 0080
000000b0: a489 0080 c989 0000 2b8a 0080 488a 0000
000000c0: 978b 0000 428a 0000 5d89 0080 3589 0080
000000d0: bb89 0080 158a 0080 7e8a 0000 b7a0 0080
000000e0: 4c8a 0000 678d 0080 a88b 0000 d98a 0000
000000f0: d38b 0080 fc89 0000 d188 0080 ba89 0080
00000100: 85c2 7b3e 1fb9 1abd 4e02 753e ca1b 80bd
00000110: 0290 8a3e d8fc 0bbd a10b 12be 887b bebe
00000120: ad8a 4dbd 322c e1bd dea7 01be c6d5 abbe
00000130: d2de 80bd 84eb 173f aa5b 4abd d594 243f
00000140: c549 8cbd 8f0a 29be 2f9c d53e 17f1 08be
00000150: 2931 1cbc 717f 04bd 4c63 60bd 433a 473e
00000160: 8bd1 24bc 5c19 843d bdf6 31bd 5e73 a23d
00000170: 6556 02be 62e1 db3c 4fbe 2d3e 53c0 943d
00000180: 378c 0000 ba90 0000 e78b 0080 1189 0000
00000190: 6d8b 0000 2795 0000 9491 0000 7e8d 0080
000001a0: c18b 0080 ce8b 0000 bb91 0000 f988 0000
000001b0: cd8a 0000 018a 0080 b790 0080 bb8d 0000
000001c0: b08c 0000 cb8e 0000 eb8a 0000 bb88 0080
000001d0: 968a 0000 148c 0080 a28c 0080 0e8a 0080
000001e0: 2e8b 0000 3b8d 0080 908b 0080 158c 0000
000001f0: b88b 0000 f38a 0000 e389 0080 6b89 0000
00000200: 6dff 2aa9 be7a 39aa 0343 2fa9 e0f3 f3aa
00000210: 333e 72aa 5404 32aa 2c53 1aab a1bd e5aa
00000220: 36d6 96aa ea49 41aa 85d1 3aae a16d 7faa
00000230: 494e 94ac d08e 162b 899d b328 2e51 8229
00000240: ad92 0000 c289 0000 cb8a 0080 e989 0000
00000250: c58a 0080 ec8f 0000 6190 0000 618a 0000
00000260: d889 0080 7b89 0080 659f 0080 238a 0080
00000270: c28a 0000 a28c 0080 25ae 0000 8997 0000
00000280: 1c04 293c 2566 a13c d138 2e3b 4944 203c
00000290: 5c6b 6e3c 5201 283d b75b 2d3d c383 533d
000002a0: 3fba df3c fbbc be3b 207e 323d 8728 43bc
000002b0: b233 aa3c feb1 a23b 654d 6bba b4cc d4bc
000002c0: 668e 0000 9e93 0080 128a 0000 fd88 0000
000002d0: d18a 0000 c48f 0000 c48f 0080 0c8a 0000
000002e0: 514c 0080 5e8d 0000 c989 0000 2c8e 0080
000002f0: 6091 0080 898a 0000 7d8b 0000 5a8a 0000
00000300: 3c8a 0080 c789 0000 178a 0080 0889 0080
00000310: b389 0000 3d8a 0080 2e8a 0080 8f89 0000
00000320: b38a 0080 8c8b 0080 ef88 0000 2689 0000
00000330: d789 0080 258a 0080 4a89 0080 ed88 0080
00000340: d49a 0000 b293 0000 fd8c 0080 5c8a 0000
00000350: 168b 0000 b28e 0000 819a 0080 1e8a 0080
00000360: bd8a 0080 958a 0000 368a 0080 b18e 0080
00000370: 6489 0080 798b 0000 928b 0080 7b8b 0000
00000380: b18f 0000 218b 0080 c68a 0080 6189 0000
00000390: 1889 0080 f48e 0080 d98c 0000 4f8a 0000
000003a0: 488e 0000 7090 0000 5a8a 0080 e78a 0080
000003b0: 5889 0000 2089 0080 7a8b 0080 9c89 0080
000003c0: 5490 4f3d 120f a03d 90ce e7bc aa18 8d3c
000003d0: 4bf5 2abc 5691 183d f1a3 513d fa48 4bbd
000003e0: 6135 2f3d 4d2d e03c 6d2e dc3c c7d6 913d
000003f0: 587a c03d 9158 123c 4482 a5bb 6ac9 7a3c

fno_blocks.channel_mlp.0.fcs.1.bias f4 [32]
4.9121e-41 0.044653606 4.9421e-41 -4.9205e-41 0.049637698 -0.110302016 4.906e-41 4.9152e-41
-2.0980315e-13 -4.9277e-41 0.059718624 4.9082e-41 -4.9153e-41 -4.9083e-41 -4.9109e-41 -0.020587768
4.9352e-41 0.25710562 4.935e-41 -4.9362e-41 4.9251e-41 -5.6472e-41 4.9137e-41 0.07564665
4.9099e-41 0.00018315949 -4.9435e-41 4.973e-41 0.22318822 4.9703e-41 4.9341e-41 -4.9101e-41
00000000: ee88 0000 b3e6 363d c489 0000 2a89 0080
00000010: e650 4b3d 06e6 e1bd c288 0000 0489 0000
00000020: a437 6caa 5d89 0080 849b 743d d288 0000
00000030: 0589 0080 d388 0080 e588 0080 aea7 a8bc
00000040: 9389 0000 59a3 833e 9189 0000 9a89 0080
00000050: 4b89 0000 6c9d 0080 f988 0000 a1ec 9a3d
00000060: de88 0000 800e 4039 ce89 0080 a18a 0000
00000070: 748b 643e 8d8a 0000 8b89 0000 e088 0080

fno_blocks.channel_mlp.1.fcs.0.weight f4 [16, 32, 1]
9.0362044e-17 -5.407116e-18 7.220546e-17 -9.054905e-11 4.8602312e-20 -1.02349405e-11 7.782745e-12 1.6773207e-22
-2.089291e-18 1.6430923e-11 5.384714e-22 -1.778097e-12 2.0850427e-11 5.1703096e-26 6.741932e-19 -9.453257e-14
-1.5138832e-15 -1.7693726e-20 8.0833956e-13 5.5463458e-21 8.938362e-21 2.789856e-20 3.453812e-16 2.959457e-20
-3.820555e-21 -6.124426e-14 -2.2372307e-17 -2.9185113e-21 5.1476987e-13 1.627357e-18 -2.5826083e-17 -3.9545177e-15
-2.8682268e-13 1.5760567e-13 1.2562951e-12 -1.3484846e-07 8.276289e-17 3.241843e-08 1.9858751e-08 -1.2877765e-18
-2.9559423e-15 -5.869717e-08 -3.331037e-17 -7.3188415e-09 -1.5102502e-07 1.2225619e-21 -4.488424e-16 -3.074749e-10
-5.0175484e-12 -3.0203903e-16 -1.7027928e-08 9.560529e-18 -7.696526e-18 -2.6436494e-17 2.764628e-12 -1.5156811e-17
3.6672123e-17 -3.2219891e-09 -2.6018218e-14 8.5346226e-17 -7.977811e-10 -2.3883907e-14 -3.2861768e-14 -1.7093688e-11
2.9894693e-14 -1.0179206e-14 -5.805019e-14 2.5435757e-08 -2.0307368e-17 -2.486796e-09 -1.323898e-09 4.1904422e-19
5.1828644e-16 5.0121254e-09 1.724486e-17 8.0609236e-10 2.2900357e-08 -8.753522e-23 -8.96487e-18 -1.9708968e-12
3.594946e-13 -6.400383e-17 1.349303e-09 -2.0863116e-18 6.123966e-19 1.9769062e-18 -1.9199326e-13 3.1046543e-17
-2.8249432e-18 -3.885503e-11 6.978023e-15 -6.829841e-18 -9.307485e-12 5.8384726e-16 2.8495952e-15 -2.8098392e-12
-2.899387e-18 8.025806e-19 -4.788399e-19 -2.0110912e-12 9.653933e-22 2.8272485e-13 1.8788554e-13 -5.6699e-23
-2.269127e-20 -2.5797582e-13 6.557195e-22 -5.5504033e-14 -1.4416767e-12 1.11898494e-26 5.503185e-21 -2.5984394e-15
-3.6371883e-17 5.3715536e-22 -8.997641e-14 5.2594758e-23 -8.155856e-23 -2.9453726e-22 4.884979e-18 -1.2465739e-21
2.5359977e-22 -2.2184477e-14 -1.9905145e-19 -2.8323716e-22 -1.8896096e-15 -4.825312e-19 -2.9705653e-19 -1.5810049e-16
1.4917387e-11 -4.299737e-11 -4.182223e-10 -2.0033927e-05 -6.549047e-15 -9.096425e-07 -7.915107e-06 2.9699397e-16
4.802405e-13 -5.0744824e-05 2.3731913e-15 -3.5049236e-06 4.208917e-05 3.9458984e-20 -1.5303367e-13 8.156027e-08
1.5288043e-09 1.7189944e-14 -6.229856e-06 -3.751943e-16 -1.0908407e-15 -5.554202e-15 4.93274e-10 -3.363826e-14
-6.0821607e-15 8.494304e-07 -1.3270066e-12 4.831087e-15 1.0279102e-07 1.5860582e-11 3.4458512e-12 1.5736239e-09
-1.42352e-13 1.0649239e-14 3.6757625e-13 -1.12012444e-07 7.648927e-17 1.076711e-08 3.5043335e-09 -7.173327e-19
-1.4674414e-15 -3.6108947e-08 -1.7760933e-17 -5.7158824e-09 -1.05678474e-07 4.512688e-22 -6.7466876e-17 1.8153659e-11
-1.44776e-12 1.191741e-16 -8.452262e-09 7.5463125e-18 -3.0957933e-18 -1.0940541e-17 1.0705228e-12 -6.58558e-17
1.1843883e-17 3.4294667e-10 -2.7386049e-14 2.0062736e-17 3.6388385e-11 -9.009655e-15 -1.1805979e-14 3.8841187e-12
3.786062e-13 -3.6841986e-14 -2.2549803e-12 1.3500507e-07 -1.142637e-16 -4.7629317e-08 -2.465353e-08 9.663372e-19
4.0696897e-15 9.286659e-08 -1.03389164e-17 8.194176e-09 2.0941175e-07 -1.2485022e-21 -1.1381636e-15 4.3462894e-10
5.5424697e-12 2.0089959e-16 1.9969706e-08 -1.2813322e-17 3.34509e-17 1.08688654e-16 -2.998849e-12 -1.1919847e-16
-5.2491826e-17 4.0734363e-09 3.211437e-14 -6.7466194e-17 1.7600912e-09 8.6681937e-14 4.142677e-14 1.4475718e-11
-3.809879e-12 1.4192432e-11 1.2676463e-10 -8.319866e-07 1.8318307e-14 2.4465835e-06 3.9802994e-06 -1.3855302e-16
-4.031108e-13 1.7165434e-05 -7.531263e-16 8.377451e-08 -1.1123886e-05 1.5622664e-19 1.4502554e-13 -4.6842665e-08
-9.478774e-10 -2.3589134e-14 4.5281304e-06 1.3936497e-15 7.69538e-15 2.5093853e-14 2.2786968e-10 -1.1457719e-14
2.7796523e-15 -3.5234552e-07 -1.2659513e-12 2.238765e-16 -1.0740506e-07 -5.90882e-12 -5.4033145e-12 4.5033952e-10
00000000: 565c d024 c47c c7a2 957e a624 951e c7ae
00000010: 9784 651f 130e 34ad 5eea 082d 90c6 4a1b
00000020: 9729 1aa2 2687 902d 35be 221c b23e faab
00000030: fd66 b72d bb02 8015 99fc 4621 51de d4a9
00000040: 6f2c daa6 ce1c a79e 0187 632b f788 d11d
00000050: 44d7 281e 4abf 031f 4519 c725 a4c1 0b1f
00000060: 2456 909d eae8 89a9 1e59 cea3 3884 5c9d
00000070: 14e5 102b cf27 f021 1d34 eea3 fd79 8ea7
00000080: 8177 a1aa be72 312a cdce b02b ddca 10b4
00000090: 96d6 be24 713c 0b33 db95 aa32 d20a bea1
000000a0: 83ff 54a7 391a 7cb3 f29d 19a4 3679 fbb1
000000b0: 7129 22b4 93bf b81c b95e 01a6 3f09 a9af
000000c0: 0f8a b0ac 181d aea5 cf44 92b2 525c 3023
000000d0: d1f9 0da3 68d5 f3a3 1c8b 422c 02cc 8ba3
000000e0: cd1e 2924 d569 5db1 ed59 eaa8 85cb c424
000000f0: db4a 5bb0 8a20 d7a8 0aff 13a9 905b 96ad
00000100: 3ca2 0629 4d5f 37a8 a8b7 82a9 d27d da32
00000110: 6b4d bba3 2ee4 2ab1 85f4 b5b0 2c5c f720
00000120: ca62 1526 1f37 ac31 460e 9f23 b593 5d30
00000130: 6bb6 c432 ada5 d39a 675f 25a3 85b0 0aac
00000140: a260 ca2a 3195 93a4 6172 b930 50f1 19a2
00000150: 61bf 3421 b4de 1122 4a2a 58aa 4a2d 0f24
00000160: ab71 50a2 e0e2 2aae e768 fb27 06fa fba2
00000170: 30bd 23ad 5348 2826 c155 4d27 90b9 45ac
00000180: dfef 55a2 47e1 6c21 1f54 0da1 9984 0dac
00000190: d8e2 911c f228 9f2a 528a 532a fb16 899a
000001a0: 2050 d69e 3c3a 91aa d72d 461c cbf7 79a9
000001b0: e1e5 caab 47a3 5d14 8ae7 cf1d bf3c 3ba7
000001c0: 57bc 27a4 6258 221c de9b caa9 2855 7e1a
000001d0: 4e32 c59a 6f09 b29b 5239 b422 7e60 bc9c
000001e0: aa4a 991b ecd1 c7a8 9cff 6aa0 d434 ab9b
000001f0: 2529 08a7 076b 0ea1 ea59 afa0 0747 36a5
00000200: f836 832d bc1a 3dae 8eeb e5af 880e a8b7
00000210: 4cf4 eba7 282e 74b5 20cb 04b7 9334 ab25
00000220: fa2c 072b d7d6 54b8 a701 2b27 2136 6bb6
00000230: e788 3038 fc56 3a1f f44c 2caa 3c26 af33
00000240: 051e d230 50d5 9a28 0e0a d1b6 e848 d8a5
00000250: eb34 9da6 791c c8a7 1297 0730 467e 17a9
00000260: 0822 dba7 6a04 6435 74c2 baab ea0e ae27
00000270: f6bd dc33 db82 8b2d f07a 722c f846 d830
00000280: 2c46 20aa f2d6 3f28 52ed ce2a 7e8b f0b3
00000290: 4c5f b024 40fa 3832 e3d0 7031 20b8 53a1
000002a0: 087b d3a6 3516 1bb3 d1d0 a3a3 6f65 c4b1
000002b0: 5bf1 e2b3 3b63 081c 6a91 9ba4 68ae 9f2d
000002c0: 0dc1 cbab fc65 0925 7135 11b2 7434 0b23
000002d0: e26d 64a2 3ed1 49a3 a6a9 962b 67da 97a4
000002e0: 287b 5a23 7489 bc2f eeab f6a8 cc0b b923
000002f0: ae09 202e b34d 22a8 78ad 54a8 08a9 882c
00000300: e722 d52a ebeb 25a9 1dae 1eac e9f5 1034
00000310: b1bc 03a5 fd90 4cb3 b0c5 d3b2 309b 8e21
00000320: 43a0 9227 f36d c733 27b8 3ea3 5ec6 0c32
00000330: aada 6034 17ab bc9c d306 a4a6 96f0 ee2f
00000340: 2102 c32c 189f 6725 d989 ab32 345d 6ca3
00000350: da43 1a24 759e fa24 7606 53ac 2e6d 09a5
00000360: 6913 72a4 53f6 8b31 59a1 1029 0391 9ba4
00000370: b4e7 f130 bc30 c329 d091 3a29 d7a8 7e2d
00000380: 570c 86ac 08ad 792d 1261 0b2f af55 5fb5
00000390: 24ff a428 fc2f 2436 838e 8536 a2bd 1fa5
000003a0: 64ee e2aa 7dfe 8f37 ea12 59a6 86e7 b333
000003b0: baa0 3ab7 9b70 3820 c448 232a 0e30 49b3
000003c0: 7946 82b0 d778 d4a8 58f0 9736 99d8 c826
000003d0: ada0 0a28 7c06 e228 9d8b 7a2f 6767 4ea8
000003e0: 894b 4827 002a bdb4 b42a b2ab 570e 8125
000003f0: 8ea6 e6b3 ebe5 cfac bb1c beac a793 f72f

fno_blocks.channel_mlp.1.fcs.0.bias f4 [16]
-8.871626e-09 -8.41784e-07 2.5177918e-08 -3.8723824e-12 -0.013007758 -1.7446413e-07 7.0526767e-07 0.006917649
1.460212e-07 -1.3596369e-12 -0.017930636 0.027714184 -1.947325e-06 1.3603013e-06 -4.6248855e-13 1.2787901e-15
00000000: d369 18b2 f5f6 61b5 d446 d832 523f 88ac
00000010: 7e1e 55bc 5654 3bb4 a051 3d35 72ad e23b
00000020: 00ca 1c34 155a bfab 45e3 92bc db08 e33c
00000030: caae 02b6 9993 b635 d02d 02ab 074b b826
